Dueling_DQN/48lunar_checkpoint.pth (torch_old, 148380 bytes, 9 tensors)

weight f4 [128, 8]
000000 30 2d 68 c0 72 cc a4 bf 7d 3f cf 40 ca f6 43 c0
       -3.627758 -1.2874892 6.4765 -3.0619378
000010 68 1d 10 c1 18 e3 da be e4 e9 06 c0 12 ea ae c0
       -9.007179 -0.42751384 -2.1080256 -5.466073
000020 56 64 2e 40 25 e4 94 c0 19 6a 04 bf b7 6e 35 41
       2.724874 -4.6528497 -0.5172439 11.33953
000030 3b 8f ff bf d0 b9 4d c0 95 f3 a9 3f c3 17 33 40
       -1.9965585 -3.214466 1.327746 2.7983253
000040 96 9e 57 c0 00 bf b8 c1 45 cf 06 41 2b 48 93 bf
       -3.3690543 -23.093262 8.425603 -1.1506399
000050 46 95 40 c1 8a ed 9c c0 bc 6a 7d 3f b3 5c 8e c0
       -12.036444 -4.9039965 0.9899099 -4.448816
000060 ce a7 ee 3d 2d a5 c5 be c2 88 ae bd ce c3 22 3f
       0.116531 -0.38602582 -0.08522178 0.63580024
000070 f8 26 ba 3e f7 19 e6 bd f8 2d ad be d2 b7 23 be
       0.36357856 -0.11235421 -0.33824134 -0.1598809
000080 1c 77 57 bf 73 fe 4e c0 ee cf 4c 3f 4e e3 95 3f
       -0.8416612 -3.2342803 0.80004776 1.1709993
000090 5c 2e ab 3e 1e cd 15 3f ed 2c 3d bf 12 dc 79 bf
       0.33433807 0.5851611 -0.73896676 -0.97601426
0000a0 1d a1 7e 40 bc 1e cd 40 0a 5a 76 40 1c 36 97 3f
       3.9785836 6.4100018 3.8492455 1.1813388
0000b0 d6 68 af c0 19 a6 1d 3f 44 e1 be 40 80 55 e7 c0
       -5.4815474 0.6158157 5.9649982 -7.229187
0000c0 3a 59 1f bf 2a 33 93 c0 b9 42 7f c0 de 6e 04 41
       -0.62245524 -4.5999956 -3.9884474 8.277067
0000d0 14 e7 82 40 6c 7f 59 c0 33 73 bd 40 14 97 f8 bf
       4.090708 -3.3984022 5.9203124 -1.9421105
0000e0 50 49 c6 3f 3e 74 46 c1 ed ad 4d 3f d2 fc c6 c0
       1.5491123 -12.403379 0.80343515 -6.218362
0000f0 e8 d7 f3 3f 50 31 f0 3f 38 c4 8e c0 3f 59 58 c0
       1.9050264 1.8765049 -4.4614525 -3.3804471
000100 68 14 e1 bf 17 99 c0 c0 6a 81 0c c0 27 b9 14 c1
       -1.7584352 -6.0186877 -2.1953988 -9.295203
000110 48 95 3c c0 82 cd 2b 40 06 84 ec 3f 62 e7 98 c1
       -2.9466114 2.6844182 1.847779 -19.11298
000120 ca 82 fa 40 d1 fe 00 c0 b2 ee 9a 40 4b 92 44 40
       7.8284655 -2.0155528 4.8416376 3.071429
000130 dc 07 2b c1 d0 e2 c0 be 24 ae 58 40 ab 78 ea bf
       -10.689419 -0.37673044 3.3856287 -1.8318075
000140 13 be 52 3f 70 bd 1d c1 90 72 de 3f be 3c e0 3e
       0.8232128 -9.858749 1.7378712 0.43796343
000150 11 a5 a1 40 02 a9 e7 c0 5c 49 42 3f 6c a8 9f c0
       5.0513997 -7.239381 0.7589319 -4.9893093
000160 e4 1f c9 3f a8 39 0e 40 ee 31 77 bf f7 77 e4 3f
       1.5712857 2.222269 -0.9656056 1.784911
000170 c6 d5 4a bf 4e 9b fa 40 83 d5 88 c0 80 59 55 c0
       -0.7923244 7.831458 -4.2760634 -3.3335876
000180 10 5c 36 c0 c0 60 eb bf 78 04 40 bf 4e 80 fb bf
       -2.849369 -1.8388901 -0.7500682 -1.964853
000190 b1 5e d3 bf 72 46 12 c1 88 d6 91 40 75 1f 04 40
       -1.6513273 -9.142199 4.557438 2.06442
0001a0 65 bc d9 bf a4 fb 14 c0 8a e8 34 40 13 fd 05 be
       -1.7010618 -2.327859 2.826693 -0.13084821
0001b0 ac 68 81 41 36 12 33 41 33 34 2e 40 af 89 0e c1
       16.17611 11.191946 2.721936 -8.908614
0001c0 19 3c ac 3f 2e 10 4d bf e8 6c 5b bf 6c a0 1a 3f
       1.345584 -0.80102813 -0.8571305 0.60401034
0001d0 10 97 61 be 5a eb f9 be 46 99 b4 bf d8 31 09 c0
       -0.22030282 -0.48812371 -1.4109275 -2.1436672
0001e0 96 52 52 40 be 53 d2 bf 4a bc 3b c0 31 d4 d2 bd
       3.2862906 -1.6431806 -2.9333673 -0.102943785
0001f0 a2 d4 80 bf 34 5b 4b 40 1d 32 fe bf 23 60 e5 3e
       -1.006489 3.1774416 -1.9859043 0.4479991
000200 82 76 d1 bd 38 af ae bf ca 63 93 3e d8 63 89 3f
       -0.10227682 -1.3647223 0.2878707 1.0733595
000210 70 62 62 bd d6 ab 8d 3e 54 20 f1 be aa 68 fe be
       -0.05526966 0.27670163 -0.47094977 -0.49689227
000220 f2 06 81 bf 58 53 ef 3f 22 d6 d4 40 6a 79 30 c0
       -1.0080245 1.869731 6.6511393 -2.7574105
000230 56 44 d3 40 de 98 28 40 0e 9f 5d 40 7d 9d f1 3d
       6.602092 2.6343303 3.462833 0.11797617
000240 bc 14 97 3d 07 97 f9 be 48 38 c4 3c b6 32 66 3e
       0.07377002 -0.48748037 0.023952618 0.22480282
000250 28 a9 ae 3d 9a de 58 3e b0 e4 84 bf 78 a6 06 be
       0.08528358 0.21178666 -1.038229 -0.1314944
000260 b9 4b fe 3f 34 75 4c c1 34 f5 2a bf 5b c0 c1 c0
       1.9866859 -12.778614 -0.667804 -6.054731
000270 01 4e 22 c1 de dc d9 40 d3 66 d1 40 73 b1 cc c0
       -10.144044 6.8082113 6.543802 -6.3966613
000280 ca 56 1a be 60 db 60 c0 28 e0 fe 3e 46 cd 14 3f
       -0.1507217 -3.5133896 0.49780393 0.5812572
000290 00 93 c5 3f 3c 35 8d bf 68 84 62 bf 94 35 dd bf
       1.5435486 -1.1031871 -0.88483286 -1.7281976
0002a0 d0 45 ba 40 36 0c e7 bf 89 e2 b6 40 c2 d7 73 c0
       5.821022 -1.8050601 5.715153 -3.8100438
0002b0 5d dd 35 c1 be 9a cd bf b2 5b 2b c1 5e 3c 1c 40
       -11.366544 -1.6062849 -10.709887 2.4411845
0002c0 67 63 0f 41 79 ae a4 bf f5 f3 c7 40 39 18 9b 3f
       8.961768 -1.2865745 6.24853 1.2116767
0002d0 2c 56 bb bf 7f ad 84 3f 6e e7 86 3f fe e2 4f c1
       -1.4635673 1.0365447 1.0539377 -12.992918
0002e0 be cd 75 3e b4 0f 02 c1 d4 72 98 40 92 91 23 c0
       0.24004266 -8.128834 4.764017 -2.55576
0002f0 38 e1 84 c0 6e d2 04 c1 b9 05 c7 c0 cf 48 b8 40
       -4.1524925 -8.301374 -6.2194486 5.758888
000300 d1 0e a3 3e b3 da 08 c1 35 0b 29 bf 23 0f c2 c0
       0.31847242 -8.553393 -0.66032726 -6.0643477
000310 bd 9e c4 3f 1a 22 de 40 6c 3d ca 40 95 2e a4 c0
       1.5360943 6.941663 6.319998 -5.1306863
000320 74 b5 06 3e b9 e2 a9 bf 7f 4b fa 3f 21 f2 b3 c0
       0.13155156 -1.3272315 1.955429 -5.6233068
000330 6f d9 0a 3f 06 37 02 bf 27 e1 02 c1 c8 eb d0 40
       0.5423803 -0.5086521 -8.179969 6.528782
000340 c7 a6 4e 3f 0a 49 6d c0 92 be c6 be 66 af a7 c0
       0.8072323 -3.707583 -0.3881727 -5.240161
000350 a9 26 8f 40 22 c9 40 40 96 74 ce 3e 01 aa 03 c1
       4.4734693 3.0122762 0.40323323 -8.229005
000360 20 a2 ce 40 21 95 fb c0 a4 5f 51 40 54 5f 17 3e
       6.4572906 -7.861954 3.2714624 0.14782459
000370 08 c1 8b 40 57 20 49 40 ad 95 26 3f 33 83 7e bf
       4.3673134 3.1425989 0.6507214 -0.99418944
000380 f6 31 2c c1 e5 18 cc c0 bd 2b 09 c0 d3 c7 cf 40
       -10.7621975 -6.378039 -2.1432946 6.4931426
000390 10 29 29 3f 51 dd a8 c0 ce b3 9b bf 2e 92 07 40
       0.6607828 -5.277016 -1.2164247 2.118297
0003a0 a8 0a 1b 41 a2 a4 22 bf 98 52 49 40 2d f9 58 c0
       9.690102 -0.6353246 3.1456661 -3.3902085
0003b0 42 c2 0f 41 06 30 0f 41 d2 e7 02 40 b2 72 56 bc
       8.984926 8.949224 2.0453992 -0.013088869
0003c0 00 b9 bb c0 4e 9d 05 40 98 b5 17 c0 6f 98 d6 3f
       -5.866333 2.087726 -2.3704586 1.6765269
0003d0 c8 4f 73 c0 5f b0 94 c0 30 8f 67 bf 34 ee 34 3f
       -3.8017445 -4.6465297 -0.9045286 0.7067597
0003e0 e8 b3 4c 3f 6f f1 1f bf 46 f0 ff 3f 59 af a2 3f
       0.79962015 -0.62477773 1.9995201 1.2709762
0003f0 8c d1 f2 c0 17 8c 2c c1 7a b2 3e c0 f6 82 5a 3e
       -7.5880795 -10.784202 -2.9796433 0.2133902

bias f4 [128]
000000 52 61 45 c0 29 01 19 40 4d f2 5a be 08 b5 82 bf
       -3.084065 2.3906958 -0.21381493 -1.0211496
000010 60 b7 13 c0 1e d0 80 c0 c0 3e a5 bf 7c 03 83 bf
       -2.3080673 -4.025405 -1.2909775 -1.0235438
000020 00 eb 55 bd 94 b7 16 c0 dd 29 88 40 84 9f 35 40
       -0.052226067 -2.3549547 4.2551103 2.837861
000030 dc ae 3e c0 e3 fe 0e 40 8d 9e 2c c0 39 88 b5 c0
       -2.9794226 2.234307 -2.6971772 -5.6728787
000040 e8 c5 03 c0 73 eb 03 3e 86 24 ce bf 8c 9b 4b c0
       -2.0589542 0.12882785 -1.6104896 -3.1813688
000050 57 e0 af c0 03 42 6c 3f 2a d9 e1 3f f0 76 a1 c0
       -5.496135 0.92288226 1.7644398 -5.0457687
000060 ac 02 0d be e0 71 67 c0 c4 36 4c 40 77 4b c9 40
       -0.1377055 -3.6163254 3.1908426 6.290462
000070 22 93 67 c0 e0 29 89 c0 b3 e8 ac c0 1c c6 00 40
       -3.6183553 -4.2863617 -5.4034057 2.0120916
000080 9d 72 23 bf 4c 55 b5 bf c2 09 9d 3f ae 0b 81 bf
       -0.6384676 -1.4166656 1.2268603 -1.0081689
000090 15 66 23 40 f6 4c ec bf 77 e6 00 c0 dc 59 db bf
       2.5531056 -1.8460987 -2.0140665 -1.7136798
0000a0 2c 5e c8 3f 94 94 82 bf 57 d2 49 3f f3 4c bf c0
       1.5653739 -1.0201592 0.7883658 -5.978143
0000b0 c9 84 4b c0 81 24 02 3f 1f 9d c5 c0 fd d4 af bf
       -3.1799796 0.5083695 -6.17543 -1.3736874
0000c0 5a 51 67 c0 16 46 9e c0 28 4d 41 c0 55 80 ec c0
       -3.6143403 -4.9460554 -3.0203342 -7.3906655
0000d0 02 1b aa 40 8d 82 b2 c0 fe 29 1a 40 8b f7 42 c0
       5.315797 -5.5784364 2.408813 -3.0463588
0000e0 e4 2e 66 3e f0 19 a6 bf dc 00 c1 bf 69 70 c1 c0
       0.22478825 -1.2976665 -1.5078387 -6.044972
0000f0 68 75 fa 3f fa 80 15 c0 6e 6e 89 bf 0f 24 80 3e
       1.956708 -2.335997 -1.0736825 0.2502751
000100 a4 1b 9a c0 cb 37 61 3f cf 10 ab c0 a3 c3 23 c0
       -4.815874 0.8797576 -5.345802 -2.5588157
000110 1e 40 a7 c0 6a 00 34 c0 2a 2c 8a c0 9b eb d4 bf
       -5.226577 -2.8125253 -4.317891 -1.6634401
000120 0e 1f 70 c0 3e 55 85 3f 83 35 4f 40 79 a4 c3 bf
       -3.7518954 1.0416639 3.237641 -1.5284568
000130 ee 56 53 3f 9a c4 0e bf ec 19 bf c0 dd eb 53 3f
       0.8255452 -0.5576874 -5.9719143 0.82781774
000140 66 97 81 3f 62 35 7d c0 26 58 59 c0 0c d0 4c bf
       1.0124328 -3.9563832 -3.3960052 -0.80004954
000150 40 a3 31 40 d6 28 b7 c0 46 9b 04 40 62 22 04 c0
       2.775589 -5.723735 2.0719771 -2.0645986
000160 b0 1f 87 c0 7e 01 b7 3f 5c 95 87 c0 6d 7b 37 c0
       -4.222618 1.429733 -4.2369823 -2.8669083
000170 f0 ad ce be b0 7c 90 bf 66 a2 6b c0 e2 5e 22 bf
       -0.4036708 -1.1288052 -3.681787 -0.6342603
000180 eb c3 57 bf 7e 6a 01 c0 72 30 60 c0 34 36 01 3d
       -0.8428332 -2.0221248 -3.5029569 0.031545833
000190 33 cd b5 bf 02 0a 95 c0 f4 be 44 c0 57 8a 40 40
       -1.4203247 -4.6574717 -3.0741549 3.0084436
0001a0 f5 31 bd 3f e5 a4 05 40 7d 32 05 c0 9a 38 16 c0
       1.4780871 2.0881894 -2.0812066 -2.3472047
0001b0 76 62 ff c0 2b 5f 8a bf e0 45 89 c0 ac bb 16 40
       -7.980769 -1.0810293 -4.2897797 2.3552046
0001c0 52 4b f7 3f a7 1a ce 40 30 06 87 bf 52 bb 44 c0
       1.9319861 6.4407535 -1.0548763 -3.0739331
0001d0 36 53 09 c0 f4 c0 85 c0 45 27 c5 bf 6f 26 17 bf
       -2.1457038 -4.179804 -1.5402609 -0.5904302
0001e0 30 00 08 c0 e2 fc 75 c0 aa 37 bc c0 55 b5 54 3e
       -2.1250114 -3.8435597 -5.881795 0.20772298
0001f0 32 28 54 bf 12 88 4d 3f a0 4c 73 c0 8d db 19 c0
       -0.82873833 0.8028575 -3.8015518 -2.4040253

weight f4 [128, 128]
000000 9d f0 39 3d 8e fa be bd c0 fe 01 3b a4 3f 4c bd
       0.045395482 -0.09325133 0.001983568 -0.04986538
000010 64 74 dc bc c0 ec 21 bc 56 78 65 3d 7c 5b e8 bd
       -0.026910968 -0.009883106 0.056022964 -0.11345574
000020 5c 9c 03 3a 28 3a 7b bc c6 e7 45 bc b3 76 4d 3c
       0.0005020553 -0.01533369 -0.012079185 0.012540507
000030 64 5d 75 bc 20 63 0f 3b 40 0e e1 3b 88 5d 12 3d
       -0.014975879 0.0021879151 0.006868154 0.03573373
000040 1a 89 2a 3d c0 50 ba bd 29 43 a8 bd 2c 36 92 bc
       0.041634656 -0.09097433 -0.08215935 -0.017848097
000050 04 08 ba bd 5b 85 29 be c0 39 f8 3b 58 ba ad bc
       -0.0908356 -0.16554777 0.0075752437 -0.02120702
000060 12 c7 70 bd f1 2b af bd d6 f3 e2 bd 21 43 4d bd
       -0.0587836 -0.08553303 -0.11081664 -0.050112847
000070 e8 62 96 3d 36 45 16 be 63 69 96 3d ca 32 3a bc
       0.073430836 -0.1467484 0.0734432 -0.011364648
000080 c5 c3 df bc c6 7c 1f be 12 30 66 bd 16 1e fe bc
       -0.02731503 -0.15574941 -0.056198187 -0.031020205
000090 e2 16 dc bd 90 82 17 bd 3a b4 3f bd 00 8a f8 3b
       -0.10746552 -0.03698975 -0.046802737 0.0075848103
0000a0 b6 83 db bb ce 40 b2 bd f2 b5 81 bd 18 fc e7 bd
       -0.006699051 -0.08703767 -0.063335314 -0.1132738
0000b0 da 54 fc 3a 1e d2 04 3c a8 d6 62 bd 94 0b e3 bc
       0.0019251362 0.0081067365 -0.055380493 -0.027715482
0000c0 84 a7 86 3c 41 cc af bd e9 94 98 bd a0 ba 88 bc
       0.0164373 -0.0858388 -0.07450277 -0.016690552
0000d0 90 f8 62 bd b6 82 00 3d 50 1f ed bd 16 d0 5c 3d
       -0.05541283 0.031374656 -0.11578238 0.053909384
0000e0 7c da e7 bd 43 ca ec bd c0 3a 12 3b b0 1d 0e 3c
       -0.113209695 -0.11562016 0.002231285 0.00867407
0000f0 4c fd e9 bd bc ae d3 3c 00 1c e0 b8 ed c9 0c be
       -0.11425266 0.025840156 -0.00010686368 -0.13748904
000100 40 71 27 be d2 99 c6 bd fa 18 08 be c2 f8 0e bd
       -0.16351795 -0.09697308 -0.13290778 -0.034905203
000110 b6 e9 29 bd bc f1 e0 bd de 65 62 3d 2a b7 1c be
       -0.04148265 -0.10983607 0.05527293 -0.15304247
000120 5a 04 36 bd 8c 2b 56 bc ee 0d 45 3d 02 e1 e7 3c
       -0.044437744 -0.013071906 0.048108988 0.028305534
000130 d3 be b1 bd 8f 39 97 bd 5a 93 1b 3d 88 15 7b bc
       -0.08678975 -0.07384025 0.037982322 -0.015324958
000140 34 b2 d9 bd ba ba 9f bd cc fe 0c be d6 e7 c2 3a
       -0.10629693 -0.07799287 -0.13769072 0.0014870118
000150 14 f3 81 bd cc 30 15 be 88 82 f2 bd 84 f0 fe bc
       -0.063451916 -0.14569396 -0.11841303 -0.031120546
000160 8a 97 c1 bc 70 cd 55 bc 9f c2 81 3d 04 d0 32 bd
       -0.02363183 -0.013049468 0.06335949 -0.04365541
000170 2e be 0e be c1 78 f4 3b 62 c6 a2 bd 04 9d 9e bd
       -0.13939735 0.007460684 -0.07947995 -0.07744792
000180 db 36 35 bd 28 3a e1 3c 95 00 a0 3d b8 cc 42 bc
       -0.044241767 0.027493551 0.07812611 -0.011889629
000190 a6 6e a4 bc f0 c3 bb bd 3a 21 e8 bc ad 18 3c bb
       -0.020072293 -0.091682315 -0.028336156 -0.0028701231
0001a0 e4 fe dd bd 10 dd 3e bd d0 0c 6d bd e4 3f b8 bc
       -0.10839632 -0.04659754 -0.057873547 -0.022491403
0001b0 68 18 0a be 80 93 c8 ba 08 10 e0 bd 76 16 54 bd
       -0.13485873 -0.0015302747 -0.10940558 -0.051779233
0001c0 10 e0 bb bc a3 3f ad bd 3c 72 d5 bc a1 c0 b0 bd
       -0.02293399 -0.08459403 -0.026055448 -0.08630491
0001d0 ab 68 08 be a6 cc 03 3d 33 94 31 bd c4 19 8f bc
       -0.13321178 0.03217759 -0.043354224 -0.01746834
0001e0 21 be b0 bd 76 a8 9c bc 22 9c d0 bd e8 11 c6 bd
       -0.08630014 -0.019123297 -0.1018603 -0.09671384
0001f0 9b 34 87 bd d0 e0 bb 3b 22 6d 13 be 10 86 06 bd
       -0.066018306 0.005733587 -0.143971 -0.032842696
000200 ad 9d 43 bd c4 1d 94 3c 78 23 ef 3c ce 3d 69 3d
       -0.047757793 0.0180806 0.029191718 0.056943707
000210 b8 a3 43 bd a8 f8 ac 3c 19 a6 96 3d 32 9c b0 bd
       -0.047763556 0.021114662 0.07355899 -0.08623542
000220 0e 8f 86 bd d9 78 87 3d 47 4b 8f 3d c2 c0 bf bd
       -0.06570254 0.06614847 0.0699678 -0.093629375
000230 88 dd 84 bd b8 78 7a 3c da 74 41 bd f2 96 91 bd
       -0.06487566 0.015287571 -0.04723058 -0.07108869
000240 7c 0a 05 bd 8e 7f 27 be bc 7f a2 3c 80 06 e4 bb
       -0.0324807 -0.16357252 0.0198363 -0.0069587827
000250 52 74 3e be 3c ef f9 bd 96 45 5b bd 4e 36 07 3d
       -0.1859906 -0.122038335 -0.05353316 0.033010773
000260 42 29 14 bd 64 ff 17 bd 34 da 35 be ad 47 01 be
       -0.03617216 -0.037108794 -0.17759019 -0.12624998
000270 74 85 f3 bd 66 77 25 be 08 97 9a bd b0 74 52 bd
       -0.118906885 -0.16158828 -0.07548338 -0.051380813
000280 74 f3 93 bd 5e 4f 29 bd 4a f7 b6 bd c2 1d 21 be
       -0.072241694 -0.041335456 -0.089338854 -0.15734008
000290 e0 e5 74 bd a8 70 bc bc 45 88 a9 bd 44 92 9c bd
       -0.05978954 -0.023002937 -0.082779445 -0.076450855
0002a0 89 ae 42 be f9 6b 98 3d c0 fe 1a be b8 cc c3 bc
       -0.19011892 0.07442469 -0.15136242 -0.023901328
0002b0 b2 45 0f be d8 ee c7 bd 86 fe 67 3d 94 4d 12 be
       -0.1399143 -0.09762353 0.056639217 -0.14287406
0002c0 b6 4f 7b 3d e0 22 40 3c 0c 4b f4 3c d0 e4 d7 3c
       0.061355315 0.011727065 0.029820941 0.026354223
0002d0 58 eb 05 3d 8a 93 d9 bd 68 d5 b4 bd 57 b7 50 bd
       0.032695144 -0.10623844 -0.088297665 -0.050956097
0002e0 e2 63 6c 3d 50 2e ba 3c 8d 86 9b 3d 47 f3 27 be
       0.057712443 0.022727162 0.07594023 -0.16401397
0002f0 2a 46 0e be 36 b5 59 3d f0 bd 1b bc 9a 09 ab bd
       -0.13893953 0.05315133 -0.009505734 -0.08351441
000300 26 7c 1f bd 86 79 03 be ee 68 f5 bd 5b 36 31 bd
       -0.038936757 -0.12839326 -0.119829044 -0.043264728
000310 18 f1 49 3c b6 54 23 be e0 e8 ed bb 34 c6 86 bd
       0.012325548 -0.15950283 -0.007260427 -0.06580773
000320 44 75 33 be af e2 13 bd cc d8 39 bd 60 3a 80 bc
       -0.17525202 -0.036104854 -0.04537277 -0.015652835
000330 64 ff 31 be 98 7a c6 bd 82 bd 11 3d 7a 6e 00 3d
       -0.1738258 -0.09691352 0.03558112 0.03135536
000340 82 dd 4d bd 9a 3e 25 3d 2a ef 3f be b8 7b 0e be
       -0.050260074 0.040342905 -0.18743578 -0.13914382
000350 21 62 4b bd 49 99 96 bd 89 a9 98 bd 7d 9b 08 be
       -0.04965413 -0.073534556 -0.07454211 -0.13340564
000360 cc 9a 62 bd 00 df 12 3c ed 7c 9d bd 30 8b ac 3b
       -0.055323407 0.0089643 -0.07689843 0.005265616
000370 c0 9a 6e bb 44 00 ae bd a4 03 ea bd ce 01 2c be
       -0.0036408156 -0.084961444 -0.11426476 -0.16797563
000380 be ec 6d bd a8 06 0c 3d 7e f3 f7 bc 5c 1c 72 bd
       -0.058087103 0.034186035 -0.030267473 -0.059109077
000390 4e 89 c0 bd a9 7e 39 be 6e d4 10 be 09 2c e8 bd
       -0.09401189 -0.18114723 -0.14143535 -0.11336524
0003a0 75 0e 38 be e8 2a 27 be cd 1e 2d bd 20 33 3c bb
       -0.17974265 -0.16324961 -0.042265702 -0.0028716996
0003b0 39 d2 88 3d 70 38 f8 3c 78 f3 c7 bd 00 ca 41 3c
       0.06680722 0.030300349 -0.09763235 0.011827946
0003c0 d0 be 88 bb e8 32 7d bd b2 f4 1f bd 38 ba ac 3c
       -0.0041731372 -0.061816126 -0.03905172 0.02108489
0003d0 5a bd 6b 3d 80 57 5c 3c 50 fe 41 be d0 5d cd bb
       0.057553627 0.013448596 -0.18944669 -0.006267287
0003e0 c2 f0 85 bd 16 fc 4a bd fe e3 1e be b1 b6 94 3d
       -0.065400615 -0.049556814 -0.1551666 0.07261408
0003f0 44 c9 5f bd ce 7b b7 bd 2c 1c 08 be 50 eb 9e 3b
       -0.0546353 -0.08959161 -0.13291997 0.004849829

bias f4 [128]
000000 86 39 0e be ec 1d c5 bd fa 36 2a c0 94 29 c7 be
       -0.13889131 -0.09624848 -2.6596055 -0.3889891
000010 c6 cd c7 bd 52 5f c4 bd a1 d7 8e 3f 91 c9 98 c0
       -0.09756045 -0.095884934 1.1159555 -4.7746053
000020 70 bf 4d c0 b4 41 4a bd 02 94 0d be cc b2 e6 bd
       -3.2148094 -0.049379066 -0.13825992 -0.112645715
000030 f9 a3 41 be 46 b5 0e c0 70 13 fc bd da 02 ab be
       -0.18910207 -2.229814 -0.12308395 -0.33400613
000040 0b 5f 22 be 12 bf 85 be c6 c9 b0 bc b0 6b 9c bf
       -0.15856569 -0.26122338 -0.021580588 -1.2220364
000050 fd 98 c3 be d4 2a 64 be 1a 91 63 bd 70 23 d2 bd
       -0.38202658 -0.22281963 -0.0555583 -0.102606654
000060 88 54 26 be 36 8d 30 be 68 a3 26 bf 3c 9a cb be
       -0.16243184 -0.17241368 -0.6509309 -0.3976611
000070 7e 06 70 be 7a 22 aa be 4c c1 d5 be 94 f3 58 be
       -0.23439977 -0.3322943 -0.41749036 -0.21186668
000080 f0 a5 0d c0 10 90 72 be 70 b0 4b c0 d1 0d 90 bd
       -2.213253 -0.23687768 -3.182644 -0.07033885
000090 94 83 f2 bc 30 db 03 c0 bc 03 7c bf 8a e7 b7 bb
       -0.029603757 -2.0602531 -0.984432 -0.0056123184
0000a0 62 d3 06 c0 76 e3 47 3f b0 27 27 be ce ec 61 be
       -2.1066518 0.7808145 -0.16323733 -0.2206299
0000b0 48 1e dd be 95 0b c8 be f8 33 4c bf 30 98 31 be
       -0.43187165 -0.39071336 -0.797668 -0.17343211
0000c0 d0 5e 09 bf 4c 79 d3 be 4b c4 36 be d4 9c 64 c0
       -0.536603 -0.4130348 -0.17848317 -3.572072
0000d0 95 1a 97 be 7e 43 fa bf 7a fd 45 be a0 1a a2 be
       -0.29512468 -1.9551847 -0.19334975 -0.31660938
0000e0 ae e6 40 bf d2 28 06 be 2a 89 5f bf a2 ed a5 be
       -0.7535199 -0.13101509 -0.8731867 -0.32407862
0000f0 97 e2 cb be 0a fe d9 3f a2 af f4 be 76 f0 c1 be
       -0.39821312 1.7030652 -0.47790247 -0.3787877
000100 82 fa 4e bf b6 d6 15 bf be 19 5e bf 90 ca 54 be
       -0.80850995 -0.5853075 -0.8675803 -0.20780396
000110 fe 8a 19 be fe c5 c4 bd 7e 88 2e bf 9a 50 02 c1
       -0.14994428 -0.096080765 -0.6817702 -8.144678
000120 f9 d9 20 bf 74 bf 14 bf 46 76 1a c0 49 90 a6 be
       -0.628326 -0.58104634 -2.4134688 -0.32531956
000130 06 90 d9 be d0 a4 86 bf 22 ad 8b be 46 3b 6d bf
       -0.42492694 -1.0519047 -0.27280527 -0.9266857
000140 e4 6a d9 bd 58 be d7 bd 8e 9d df be 04 c9 fc bf
       -0.10616091 -0.10534352 -0.43674892 -1.9748845
000150 c4 1a 5d be 38 06 83 bf f8 0b d9 be 06 85 79 be
       -0.21592242 -1.0236273 -0.42391944 -0.2436715
000160 69 06 96 c0 a0 75 b6 bd 0b 0c 5c bf 3a 1f 15 be
       -4.6882825 -0.08909154 -0.85955876 -0.14562693
000170 9e 92 da be 92 eb fb be 68 b0 e2 be 80 37 13 bf
       -0.42689985 -0.49203163 -0.44275212 -0.5750656
000180 fe 40 ee bf 86 e0 eb c0 57 67 48 be e6 c8 92 be
       -1.8613584 -7.3711576 -0.19570671 -0.28668898
000190 2d ab 49 3e b0 67 a5 be ec e8 d6 be 66 41 a2 be
       0.19694205 -0.3230567 -0.4197458 -0.3169052
0001a0 20 80 46 bf 0e 79 97 bf e2 1c b9 3c b5 c6 bf be
       -0.77539253 -1.1833818 0.02259678 -0.3745629
0001b0 72 bf 0d bf 2a 27 3f be 6c 75 bb be aa 31 d6 be
       -0.5537025 -0.18667284 -0.36613023 -0.41834766
0001c0 d2 91 10 bf 72 af 0e bf ae 4a da bd be 30 61 c0
       -0.56472504 -0.5573646 -0.10658775 -3.5186
0001d0 d6 80 2d bf 77 d9 1b bf ae bc f0 be b6 91 c4 be
       -0.67774713 -0.608787 -0.4701895 -0.3839242
0001e0 4e 64 bd bc 71 24 3f bf c5 d2 9c bf ee 30 a4 be
       -0.023119118 -0.7466498 -1.2251822 -0.3206858
0001f0 3d 32 89 bf 7c d6 a3 be 4e 9a e2 bd 02 19 bf be
       -1.0718457 -0.31999576 -0.110645875 -0.37323767

weight f4 [4, 128]
000000 ac a3 88 3d 7c d6 26 3e 3f d0 01 3f a4 16 6b 3e
       0.06671843 0.16292757 0.50708383 0.22957855
000010 29 bd 88 bd 60 04 73 bd a9 97 b7 3e f4 ab bd bf
       -0.066767044 -0.059330344 0.35857895 -1.4818101
000020 e5 31 09 3f 9c 5f 5d bd 10 64 cf bd dc c5 87 3b
       0.5359176 -0.05404626 -0.10126507 0.0041434597
000030 4b 22 3a bd 9a 18 eb bf 31 01 33 be 4e 50 84 3e
       -0.04544286 -1.8366883 -0.17480923 0.25842518
000040 c7 21 4c 3b dc 38 a0 be 76 2b a0 bc eb ff 88 3e
       0.0031148063 -0.3129338 -0.019551974 0.2675775
000050 d8 4d 87 3e 9c f1 b0 bd e6 9f ca 3d 16 24 8c bd
       0.26426578 -0.08639833 0.098937795 -0.0684282
000060 0c 17 2b bd ff ae 06 be 9a 4e 8b bd 5c 4f b0 3e
       -0.041770026 -0.13152693 -0.068021014 0.34435546
000070 bc c7 53 3d 34 21 e5 bd 13 5a 49 3e 0f 9b 0d 3e
       0.051704153 -0.111879736 0.19663267 0.13828681
000080 1a af 4b bf 4a 04 39 be 18 2f 61 3f d6 e9 9a bd
       -0.7956406 -0.18068042 0.87962484 -0.07564132
000090 d8 03 b2 3b d0 4a 17 c0 6a 79 c5 3c a0 ba 61 bd
       0.005432587 -2.3639412 0.024105746 -0.05510962
0000a0 2d 4f 41 40 2f 2f 21 40 3e 6d c0 bd e0 db 84 3d
       3.0204575 2.5185049 -0.09395836 0.0648725
0000b0 9c 20 8b 3e 22 04 c1 bd 14 6c 13 3f 90 6d 35 be
       0.27173316 -0.094246164 0.5758679 -0.17717576
0000c0 26 fe 25 3f 24 8f ea be c2 9b 35 be c8 95 ad 3e
       0.64840925 -0.45812333 -0.17735198 0.33903337
0000d0 8f a1 ba 3b c6 8a 59 3e ba f7 75 3b 16 82 49 b9
       0.005695529 0.21244344 0.003753169 -0.00019217315
0000e0 55 17 c2 3f 1f bd 8f bd 0e 76 81 be 50 76 e1 be
       1.516337 -0.07018494 -0.2528538 -0.44035578
0000f0 90 78 83 3e 70 22 82 bc 80 58 72 be c2 45 98 3e
       0.2567792 -0.015885562 -0.23666573 0.2974072
000100 44 89 73 be 12 1e 02 3f 30 a8 64 3f 16 fe 45 be
       -0.23782831 0.50827134 0.89319134 -0.19335207
000110 45 2d 49 3d fa 0d 14 bd a5 e2 ce be be 07 a8 bf
       0.049115438 -0.03614614 -0.4040729 -1.3127363
000120 1a 95 d1 bd 7b 15 95 bd 44 ae 8f 3f 69 d4 bc 3b
       -0.10233517 -0.07279488 1.1225057 0.005762626
000130 70 c8 1d bd 19 4a cb be 02 6f 85 3e 71 6d 37 bf
       -0.03852123 -0.3970497 0.26061255 -0.7165137
000140 80 a9 0c bd fb 6d 63 bc aa 05 8d 3e 88 21 1c 40
       -0.034341335 -0.013881202 0.27543384 2.4395466
000150 a0 6f e4 bd 84 55 a0 3e 74 d3 88 be ec 50 2e 3e
       -0.11154103 0.31315243 -0.26723826 0.17023057
000160 a8 a8 90 3d 1a ae c6 bd 3c c5 83 3f 7b 5c 4d bd
       0.070634186 -0.09701176 1.0294566 -0.050137024
000170 1e 27 9c 3e ac 6f 6d be 3d 23 57 3d fa be a4 3e
       0.30498594 -0.2318713 0.05252384 0.32176954
000180 3e 07 8a 3f 4d ce 9e 3f 6c d3 33 3e 25 ac 9f 3e
       1.078346 1.2406708 0.1756112 0.31186023
000190 7e 04 3d 40 8a 73 9f be 2a 90 93 3e 67 2f 2a 3d
       2.9533992 -0.31142837 0.28820926 0.041549113
0001a0 ea 27 43 3f f8 c3 e9 be 38 5f 8c bc a8 63 3d 3e
       0.7623278 -0.45657325 -0.017135248 0.18495047
0001b0 38 c8 c7 3d ba 0a e2 3d d0 15 72 be 6d 95 a6 3e
       0.097549856 0.11037202 -0.23641133 0.32535878
0001c0 12 03 a2 be 4e e1 13 bb c6 f7 32 bd d2 47 15 3f
       -0.31642967 -0.0022564712 -0.043693326 0.58312714
0001d0 72 8a 2b 3d 59 90 d0 3d 2a f6 fe 3e 51 51 a1 3e
       0.04188008 0.10183782 0.49797183 0.31507352
0001e0 7a 19 86 bd 8e 25 0b c0 70 a6 fe 3d 36 0e ec 3e
       -0.06547828 -2.1741672 0.12434089 0.46104592
0001f0 40 3e e5 3f 85 93 43 bd 3c b0 14 bd 06 16 3d 3d
       1.7909622 -0.047748107 -0.036300883 0.04616358
000200 d6 e5 19 3d 70 a1 70 bd 3a 14 19 40 6a e1 a0 3e
       0.037572704 -0.05874771 2.3918595 0.31421977
000210 1c 93 67 3d fc fc 50 3d 83 c5 b7 3e a2 ef b0 bf
       0.05653678 0.051022515 0.35892877 -1.382313
000220 54 86 0e 40 78 fe 88 bc 62 f2 33 bb b4 e0 81 3d
       2.2269487 -0.016722903 -0.0027457704 0.06341687
000230 92 a2 93 bd 52 dd 67 40 fa 7f 03 bd 6a a3 af 3e
       -0.07208742 3.6228833 -0.03210447 0.34304363
000240 37 3e 90 3d e2 1e 58 3e 55 24 9f bc d9 f6 c7 bd
       0.070431165 0.21105531 -0.019426504 -0.09763879
000250 64 47 96 be 1e cb 82 3e a4 48 92 bc 6c 4d 6c bc
       -0.29351342 0.2554559 -0.017856903 -0.014422756
000260 90 54 9a 3f 16 0b 85 bd 16 91 5c be d0 47 12 3d
       1.2057056 -0.06496255 -0.21539721 0.035713017
000270 a2 37 43 bd d4 9d ad bc be e9 71 be a8 97 bd 3d
       -0.047660477 -0.021193422 -0.23624322 0.09257442
000280 b6 ff 18 40 98 58 a6 bd ac 5d d9 be 9c 85 98 3d
       2.3906074 -0.08122367 -0.42454278 0.07447359
000290 44 b8 15 bb 9e 4f df be 94 fe 61 bd 3e 2f 38 bc
       -0.0022845427 -0.4361543 -0.055174425 -0.011241732
0002a0 66 ae b0 3f 76 18 f2 be 06 cc fc bd aa ee d1 be
       1.3803222 -0.47284287 -0.12343602 -0.410024
0002b0 1a db d9 3e a6 c3 54 3e 69 80 91 3e 2e 7a f9 bd
       0.42549974 0.20777759 0.28418282 -0.12181507
0002c0 de 8b 71 3d 3e ac 6e be 00 10 82 3e d3 b0 d0 3e
       0.05897128 -0.23307893 0.25402832 0.40759906
0002d0 cc 52 a8 3d 7e 2d 73 3d b1 a5 4b bb e4 d4 13 3d
       0.08218917 0.059369557 -0.0031074102 0.0360917
0002e0 6c db 3b c0 2c 9d 74 bc b7 00 d9 be 5c af 85 be
       -2.9352674 -0.014930051 -0.42383358 -0.2611035
0002f0 40 90 5a be 2d a3 4b bf fa 70 6b 3e ed 2d ae bd
       -0.2134409 -0.7954586 0.22992316 -0.085048534
000300 77 fb 83 3e 1f 3a f6 3e f2 54 73 40 fa 2b ef bd
       0.2577779 0.48091218 3.8020597 -0.1167831
000310 c3 96 12 3e f4 ac 49 bd 61 4c b7 be 3a f2 aa bf
       0.14315324 -0.049237207 -0.3580046 -1.3355172
000320 18 9b 9f 3e 4e 35 ca 3e 00 4b d5 3f 66 e5 33 3d
       0.31173015 0.39493793 1.6663513 0.043919943
000330 9b af 62 be b8 3d 60 be 66 09 49 be 50 f2 49 bd
       -0.221373 -0.21898544 -0.19632491 -0.049303353
000340 a2 1b 95 3d e4 aa cd 3d 2b b8 6a 3c 1d 84 81 bf
       0.07280661 0.100423604 0.014326136 -1.0118443
000350 20 c3 24 3d 62 62 bc 3e 1a eb 2d be b6 61 ce 3c
       0.04022515 0.3679381 -0.16984215 0.025193077
000360 34 2f df 3e 1e da 25 3d d3 4f 24 3f 1e 3d 94 3d
       0.435907 0.040491216 0.641843 0.0723822
000370 c8 5d 9f 3e 22 76 04 bd 1a 46 27 3e ca 87 5b bf
       0.31126237 -0.032339223 0.16335335 -0.8575407
000380 0b b0 da 3f 7e f8 92 3e 8c 94 fa 3d e8 50 86 be
       1.7084974 0.2870521 0.12235364 -0.26233602
000390 22 e7 78 40 32 5a bc 3e c1 12 b8 3e 60 bf 9a bd
       3.8891072 0.36787564 0.35951808 -0.07556033
0003a0 24 57 09 3f e6 94 a3 3e b0 7b f8 3a c0 75 6e 3e
       0.5364859 0.31949538 0.001895776 0.23287106
0003b0 4e b7 3f bd d4 40 80 3d d4 16 f7 bd aa b9 e4 3e
       -0.046805672 0.06262365 -0.12064901 0.446729
0003c0 ef e8 c3 bd 78 89 1a bf 4e ba 18 be a8 3c 01 3f
       -0.09565913 -0.6036601 -0.1491482 0.5048318
0003d0 30 e6 42 3e ee c7 dd bd 62 cc f9 3e e8 08 78 3e
       0.19033122 -0.10829149 0.48788744 0.24222147
0003e0 2e 8b 97 3d 44 91 91 bf 00 b6 66 3f 64 55 0a bf
       0.07399593 -1.1372457 0.9012146 -0.54036546
0003f0 56 e0 f4 3e d4 d3 9e bc 0d ea c8 3c ff 20 8b be
       0.47827405 -0.019388117 0.024525667 -0.27173612

bias f4 [4]
000000 f4 86 c3 40 f8 3f ae 40 0c 20 8a 3f bd 8c 61 40
       6.110224 5.4453087 1.079103 3.524215

weight f4 [128, 128]
000000 5b 81 a5 3d e4 d4 21 be 46 91 10 3d 36 66 a2 bd
       0.08081313 -0.15803868 0.035294794 -0.079296514
000010 96 1f 54 3d f6 18 19 be f0 4f d1 bb d5 09 ac bd
       0.051787935 -0.14950928 -0.006387703 -0.08400313
000020 6a 31 9b bd 7a 2d 75 be 8d e0 cd bd 1c a6 9c be
       -0.07577784 -0.23943129 -0.10052595 -0.3059548
000030 40 dd f7 bd 7a ad 49 3d c7 e8 97 bd 62 e6 4b 3d
       -0.12102747 0.049237706 -0.07417446 0.049780257
000040 a0 b5 f2 3c 5f 80 40 bd b2 af 67 3d fc 51 a6 be
       0.029627621 -0.046997424 0.05656404 -0.32484424
000050 c0 1d 19 3b f0 34 89 be 0f 95 8e 3d ca 48 63 bd
       0.002336368 -0.267982 0.069620244 -0.05548934
000060 7a 04 99 be 7c 0d 02 bf 0e a6 25 be 3a 45 77 bd
       -0.29886228 -0.50801826 -0.16176626 -0.060368754
000070 ec 5f b2 be c0 bc 29 be a8 1c af be 52 b9 97 bd
       -0.34838808 -0.16575909 -0.3420155 -0.07408394
000080 d9 12 9e be 99 c1 b1 3d 9e fa 3c be 62 fe 1a 3d
       -0.30873755 0.08679504 -0.18454978 0.037840255
000090 60 67 7d 3b 0b 79 4f bd a4 ad be 3c 1f 4c 4f bd
       0.0038666353 -0.050652545 0.023276158 -0.050609704
0000a0 26 a8 0c be 69 b6 0b bd 74 a3 d3 bc 0e b9 03 be
       -0.13736019 -0.034109507 -0.025834776 -0.12863562
0000b0 ca d7 ae be b4 7c 74 bd 04 49 ad bd 1b 8e 4e be
       -0.3414901 -0.05968924 -0.08461192 -0.20171396
0000c0 40 06 fc 3c 2c 6b 41 bd 0e 0e b9 bd ee 64 22 3d
       0.030764699 -0.047221348 -0.09035884 0.039647035
0000d0 34 25 87 bd 48 bf 39 be 3a 7e d9 bd 40 ef a3 3a
       -0.06598893 -0.18139374 -0.10619779 0.0012507215
0000e0 1a e9 40 3d 2c 03 74 bd f9 9b a0 3d 3a f9 61 be
       0.047097303 -0.059573337 0.078422494 -0.22067729
0000f0 9f c4 88 be 54 be 86 be ea 2a 3b bd d6 db 70 be
       -0.2671251 -0.26317084 -0.045695223 -0.23521361
000100 55 f8 c0 be 7a c6 71 be 12 2c 47 3d b8 b6 63 bc
       -0.37689462 -0.23610869 0.048626013 -0.013898544
000110 cb 88 53 be de d9 30 3d c0 f1 39 bb 88 e8 cc bc
       -0.20657651 0.043176524 -0.0028372854 -0.025013223
000120 4c dc b4 bd ea f7 b9 bd 66 10 a8 bd 9e 95 18 3d
       -0.08831081 -0.09080489 -0.08206253 0.03725206
000130 d0 67 8b bd d2 54 ee bc 5e 90 57 3d c0 35 81 ba
       -0.0680691 -0.02909318 0.052627914 -0.0009857938
000140 7e 7b 82 bd 15 31 9f 3d 76 47 db bd 2d f7 ac be
       -0.063712105 0.077730335 -0.107069895 -0.3378233
000150 8d ec da bd da 37 78 bd a0 b3 55 3c 00 92 c6 39
       -0.1068965 -0.06060014 0.013043314 0.0003787428
000160 9c 08 a0 be c1 5d 3c bd 46 c6 47 bd 38 d7 03 3c
       -0.31256568 -0.04598785 -0.048773073 0.008046918
000170 14 26 32 bd 40 59 8c ba 30 d2 69 bd 4c d6 20 be
       -0.043493345 -0.0010707751 -0.057085216 -0.15706748
000180 7b 63 69 bd a8 29 c5 3c 5e c9 94 bd ca f0 29 bd
       -0.056979638 0.024067715 -0.0726497 -0.0414894
000190 22 86 33 be e6 0b c9 be 80 1c 5a bb 42 35 64 be
       -0.17531636 -0.3926689 -0.0033281147 -0.22285941
0001a0 27 68 2d bd 44 9c fe bc 2a 77 72 3d 20 d2 5e bc
       -0.042335656 -0.031080373 0.059195675 -0.013599902
0001b0 6d e4 9f 3d f6 38 6a bd 92 a8 63 bd 48 2d 22 3c
       0.07807241 -0.05718323 -0.055580683 0.009898491
0001c0 35 96 4a be 86 86 4b be 58 9e c9 be 66 9a 29 bd
       -0.19783862 -0.19875535 -0.3937862 -0.04140701
0001d0 76 00 54 3d 38 f3 28 be 3a 31 1b 3d 9e bb 46 3d
       0.051758252 -0.1649903 0.037888743 0.04851877
0001e0 75 e3 33 bd 73 e4 05 bd 27 ab a8 3d 18 1b 08 3d
       -0.04391809 -0.03268857 0.0823577 0.033228964
0001f0 e8 c9 32 3c d4 f2 bd be 78 6e f3 bc 68 1c 0f 3d
       0.010912396 -0.37099326 -0.029715762 0.0349392
000200 a4 4b be 40 00 a0 14 c0 c2 aa 72 c1 bd ff 8d bc
       5.9467335 -2.3222656 -15.166689 -0.01733386
000210 ff 00 cf 3e ae 7f ed c0 1a 2c 62 bf c4 9a 01 bf
       0.40430447 -7.421836 -0.88348544 -0.5062678
000220 f6 66 f2 40 1a 8c e1 c0 26 68 b4 3f 62 ff fe c0
       7.5750685 -7.0483522 1.4094284 -7.9686747
000230 7c 1d 7e c0 49 e3 1e c1 c4 f5 67 bf f4 c0 82 c0
       -3.9705496 -9.93049 -0.90609384 -4.086054
000240 9a ee 2f be e1 1d ba bf de 29 a9 3e bc a7 44 c0
       -0.17180863 -1.4540368 0.33039755 -3.0727377
000250 5a 9d 98 bf da 0b 47 bf ac 2d 6e bf 76 d9 a3 40
       -1.192302 -0.7775246 -0.9303844 5.1202955
000260 0c 5f d6 be 72 0d 83 c0 6c ea fb c0 6f 4c 21 c1
       -0.4186939 -4.0953913 -7.872366 -10.081161
000270 a1 b4 3f c0 da 15 99 3f b4 b0 40 bf 0d 74 04 c1
       -2.9953997 1.1959794 -0.7526963 -8.278333
000280 b6 62 34 3e 8f 02 39 40 55 74 c4 3f b9 40 8e bd
       0.1761578 2.8907812 1.5348002 -0.069459386
000290 df d0 a0 be 00 e4 54 40 62 de 89 3f 48 e1 61 be
       -0.31409356 3.326416 1.0770991 -0.22058594
0002a0 68 d5 66 c1 2a 4d 5b 3e 74 ad 77 bd c9 89 b0 c0
       -14.427101 0.21416155 -0.060468152 -5.5168195
0002b0 28 30 a5 c0 e8 ef 67 c0 fc 17 f2 bf f2 09 33 bf
       -5.1621284 -3.6240177 -1.891357 -0.6993705
0002c0 c7 bc d5 3f 9e 44 53 c1 52 64 d1 c0 c2 92 9e c0
       1.6698235 -13.204252 -6.543496 -4.955415
0002d0 42 98 e1 bf 90 61 49 c0 60 3c d9 bf cf 7b ac bc
       -1.762459 -3.1465797 -1.697155 -0.02105513
0002e0 25 59 a6 40 36 de a4 3c 3c ef 7a be 5c f5 bc c0
       5.198382 0.02012549 -0.24505323 -5.904951
0002f0 60 66 cd bd fc 83 ba 3f ac 97 1e bd 4c 9c 2e bf
       -0.10029292 1.4571528 -0.038718864 -0.6820724
000300 fa ff f8 bf a2 b3 1b c0 10 09 40 c0 14 dc 63 bf
       -1.9453118 -2.432839 -3.0005531 -0.8900769
000310 8b ed 1b c0 dc fd 5d be 36 33 59 c0 96 ff c5 c0
       -2.4363735 -0.21678871 -3.3937507 -6.1874495
000320 68 d5 c3 bf 9a 60 fb c0 8e 0d 5f c0 65 b8 07 3d
       -1.5299501 -7.855542 -3.4852023 0.033134837
000330 58 8d 95 bf 08 e0 2d bf c6 8c d1 3f a3 86 14 40
       -1.168376 -0.6791997 1.6371086 2.3207176
000340 9f 82 bf be a7 c5 af c0 74 d7 89 bf 03 e1 e4 3f
       -0.37404343 -5.4928775 -1.0768876 1.7881168
000350 b5 26 de 3d 8e 6b b9 3f 00 14 88 bd 8a bb 86 be
       0.108472265 1.4485948 -0.0664444 -0.26314956
000360 7a 34 d6 c0 8c 2e 79 3e 50 10 84 bf 40 5a 0e bf
       -6.693906 0.24334162 -1.0317478 -0.5560646
000370 fa 2c 90 c0 b8 49 f2 bd 24 59 d9 c0 36 ba 66 bc
       -4.5054903 -0.11830467 -6.7921314 -0.014082482
000380 36 2c c9 3f e8 03 85 be 36 c5 2c c1 91 54 3f c0
       1.5716617 -0.25979543 -10.798147 -2.9895365
000390 44 1c 8e bf 70 51 88 3f 8b d8 59 3f e8 23 a0 c0
       -1.1102376 1.0649853 0.85096043 -5.004383
0003a0 d0 34 0e c0 b0 e2 a7 c0 9a 63 78 3e 3c bc 01 3f
       -2.2219734 -5.246422 0.24256745 0.5067785
0003b0 01 d8 8d c0 f0 81 08 40 e8 61 0a c0 b6 f0 98 c0
       -4.4326177 2.1329308 -2.1622257 -4.7793837
0003c0 de fd 22 c1 1b b0 ca bf cb 39 4d 40 c3 b7 ca be
       -10.186979 -1.5834993 3.2066524 -0.39593324
0003d0 94 f1 65 c0 e0 64 aa bf 52 6b d4 be 5c 69 30 c0
       -3.5928698 -1.3312035 -0.4148813 -2.7564306
0003e0 d8 86 4d 3d 48 25 11 3f 44 d2 fa c0 72 51 a0 3f
       0.050177425 0.5669751 -7.838167 1.2524855
0003f0 9a f8 d4 3e 78 9c dc bf 42 af d3 bf 9a d3 88 3e
       0.41595918 -1.723525 -1.653786 0.2672394

bias f4 [128]
000000 e4 d7 e1 be c6 62 86 c0 f6 ee e9 c0 65 6d 00 bf
       -0.44110024 -4.1995573 -7.31042 -0.5016692
000010 f2 65 fe bd a6 f0 52 bd 7a cc 94 bd 1c 6a 9a be
       -0.12421788 -0.05149903 -0.07265563 -0.3015908
000020 a7 6e 5f 3f a1 ad 9a be bb fe 0c c0 f0 1b c3 c0
       0.8727822 -0.30210593 -2.2030475 -6.0971603
000030 fc 51 f5 bd 84 b6 a8 be 90 5e da 3f aa 50 8a be
       -0.11978528 -0.32951748 1.7060108 -0.27014667
000040 b4 f4 00 be f2 df 6d 3f 4f fc 87 be de 64 0a 3b
       -0.12593347 0.9291984 -0.26559684 0.002111725
000050 f5 45 a5 bf e9 42 3a bc 7a a3 f2 be da 53 02 c0
       -1.2911974 -0.011368492 -0.47390348 -2.036368
000060 89 2c 87 be 00 1e 45 be f0 9c 1b c0 96 9c 6c bf
       -0.26401165 -0.19249725 -2.4314537 -0.9242643
000070 b2 fb 1d c0 97 a7 bb be ed b3 a5 be 10 7c ed bd
       -2.4684873 -0.36651298 -0.32363835 -0.11595929
000080 32 10 b2 c0 e8 d4 85 bf 48 69 9c be c5 ae b4 3d
       -5.564477 -1.0455599 -0.30549073 0.08822397
000090 7f ca 95 bd 90 00 42 40 26 aa e0 bd f0 b7 cd bc
       -0.07314014 3.0312843 -0.10969953 -0.025112122
0000a0 96 54 72 bf 0d 08 18 bd 0a e2 04 be 36 75 c8 bf
       -0.9466032 -0.037117053 -0.12976852 -1.566077
0000b0 46 c3 d9 be a1 26 40 40 6a 04 4b bd 2f 51 d4 bd
       -0.42531794 3.0023577 -0.049564756 -0.10367047
0000c0 5e 4d 19 3f 0f 15 18 be 52 c1 a3 be 1a 13 fb bf
       0.5988368 -0.14851783 -0.3198343 -1.9615204
0000d0 38 1b 08 be 3a 2c 0e bf 46 16 3f be 26 6b 41 bf
       -0.13291633 -0.55536234 -0.1866084 -0.7555412
0000e0 52 9b 98 bd 16 f8 ec bd 5a 82 17 bc b4 09 8f c0
       -0.074515 -0.11570756 -0.009247387 -4.4699345
0000f0 38 e2 be bf ac b7 ed bd dc 10 fb bd 73 b7 a0 40
       -1.4912786 -0.11607298 -0.12259075 5.0223937
000100 8e af fb bf 94 39 40 be 3d 85 ce bf 03 af d4 bd
       -1.966295 -0.18771964 -1.6134411 -0.10384943
000110 ba 4b 19 bd dc b6 9f be 1e 83 2a c0 fe 9c 46 be
       -0.037425734 -0.31194198 -2.6642528 -0.19395825
000120 03 b9 26 be 40 5f 45 be cf e3 11 40 5a f7 42 bd
       -0.16281514 -0.19274616 2.2795293 -0.047599174
000130 d2 74 4f bd 6d 48 bd bc 2c 73 f9 bd 11 2b 3b 40
       -0.050648518 -0.023105824 -0.121801704 2.9245036
000140 7a 02 b0 c0 e5 9e 87 40 64 01 76 bb e2 8c 80 bd
       -5.5003023 4.2381463 -0.003753745 -0.06276871
000150 9b d5 84 c0 5d b3 3c c0 9a be c6 be 6f 8e cf bd
       -4.151075 -2.9484475 -0.38817292 -0.10134589
000160 76 da 1a c1 d0 9c b2 be 8a 5b b1 c0 77 6f 1c be
       -9.678335 -0.34885263 -5.542424 -0.15276895
000170 06 a7 90 be bc b0 65 c0 38 a9 8f 3b 3c ab 0e 40
       -0.2825243 -3.588912 0.004384186 2.2292013
000180 98 7b cb bf 40 42 06 bf 42 28 23 bf fe f1 00 40
       -1.5897093 -0.5244484 -0.63733304 2.01477
000190 a0 92 ac 40 a0 35 7d be b1 28 b0 bf 88 5e 8b be
       5.3928986 -0.24727488 -1.3762418 -0.2722056
0001a0 86 45 87 40 2d d0 a8 be ca 80 7c c0 b4 0b 48 bf
       4.2272367 -0.32971326 -3.9453607 -0.7814286
0001b0 63 66 27 bf cc 59 12 bf 8d 1f 64 be 8c 64 11 41
       -0.65390605 -0.5716827 -0.2227766 9.087048
0001c0 69 24 18 bf f0 54 ef bf 50 fd 25 bf 99 c6 4b c0
       -0.5943056 -1.8697796 -0.6483965 -3.1839964
0001d0 4a e5 b8 be 6f f0 9b be 21 a1 ba bc 01 c7 94 be
       -0.36112434 -0.30456874 -0.02278191 -0.29058078
0001e0 c4 91 42 3f 7b 63 44 c0 18 e9 db bd 50 46 e8 bd
       0.7600367 -3.0685718 -0.107378185 -0.11341536
0001f0 7a ba 14 be c0 c1 de bd 38 27 20 bf 1c 2d c7 c0
       -0.1452426 -0.10876799 -0.62559843 -6.2242565

weight f4 [1, 128]
000000 5f f3 7c be 75 df a2 bf 78 57 45 3e 2a e1 7e 3c
       -0.24702214 -1.2724444 0.19271648 0.015556613
000010 e0 26 e1 3d f2 cd 81 3d 60 69 68 bd 1c 67 98 3e
       0.10993743 0.06338109 -0.05674112 0.29766166
000020 6b 3f 65 bf 1a a3 35 3d 6e 7e 19 3e eb 5e c1 bf
       -0.89549893 0.044345 0.14989635 -1.5107092
000030 60 48 61 bb b4 96 4e 3e 9d d6 b0 bf 3a 59 3f be
       -0.0034375414 0.20174676 -1.3815495 -0.18686381
000040 8a 5d d5 3c 8a b5 a5 bf 32 d8 68 bd 3a dc 66 bd
       0.02604558 -1.2946026 -0.056846805 -0.05636237
000050 da e7 18 3f e2 67 3c bd ec 83 8f 3d 52 0e a1 bc
       0.5972878 -0.045997508 0.07007584 -0.019660149
000060 9a ac 9b be 4a 4c 4f 3d 5e 7a a0 3a 92 7a 60 3e
       -0.30405122 0.050609864 0.00122435 0.21921757
000070 92 51 25 bf f0 c2 82 3e af 68 a2 be 88 6c 4c bd
       -0.6457759 0.2553935 -0.31720492 -0.04990819
000080 68 0d d7 bb f2 81 4e 3d a6 ff 70 3e f7 e4 14 bf
       -0.0065628774 0.050416894 0.23535022 -0.5816187
000090 bc bd 9f 3c 5c ec 5a bf 02 4e ec bc 1f 98 3b bd
       0.019499652 -0.85516906 -0.02884579 -0.04579937
0000a0 3d a1 74 3f 30 58 ca bd 9e 70 68 bd 92 07 0c bf
       0.9555853 -0.09880102 -0.056748025 -0.5469905
0000b0 86 63 98 be 93 fa 14 c0 9e 6e c9 3c a2 7e ae bc
       -0.2976343 -2.3277938 0.02458888 -0.021300618
0000c0 29 70 45 3f 38 99 17 be e2 18 33 3f 74 f8 10 3e
       0.7712427 -0.14804542 0.69959843 0.14157277
0000d0 fa fe 6e bc 7e db 9a be b8 cf bb bd 68 5b fc 3d
       -0.014587158 -0.30245584 -0.091704786 0.12322122
0000e0 30 7f 90 3c 08 72 28 bd 16 48 aa bc 4e 16 89 3e
       0.017638773 -0.041124374 -0.020786326 0.2677483
0000f0 da 02 0d 3c 22 3b bd 3d 2c 53 a6 3c fe 08 c0 bf
       0.008606637 0.09239794 0.020303331 -1.5002744
000100 e8 1a 48 3e 62 63 80 be 05 2e 42 3e 41 82 b9 bb
       0.19541514 -0.25075823 0.18962868 -0.0056612794
000110 82 46 5c 3f 77 9e 21 be b4 ac de 3f 06 89 c2 bd
       0.86045086 -0.15783106 1.7396455 -0.094987914
000120 c4 b8 08 3e 28 bf 66 bd b0 59 8e bf 6d a7 23 bd
       0.13351732 -0.056334645 -1.112112 -0.03995459
000130 60 79 53 bc 50 d8 59 bd f6 fa 45 bd 24 07 81 3f
       -0.012907356 -0.053184807 -0.048335038 1.0080304
000140 df 33 35 bf c8 88 21 bf 74 ec 12 bd 9c 18 da bc
       -0.70782274 -0.63099337 -0.03587003 -0.026623063
000150 67 02 38 bf 49 e7 13 3d d6 33 aa 3e 98 8c 84 be
       -0.71878666 0.036109243 0.33242673 -0.25888515
000160 b8 89 32 3f 1c 85 95 3e 2e 20 a2 bc 86 86 b8 3d
       0.6974139 0.29203117 -0.019790735 0.09010033
000170 62 6a d9 be 6b 8d cc bf d6 3b 22 be 5b db 54 bd
       -0.42463976 -1.5980657 -0.15843138 -0.051967006
000180 7e 0c 6b 3c 2a b2 b0 be 52 08 f2 bd b5 3d b1 bf
       0.01434624 -0.34510928 -0.11817993 -1.3846956
000190 0f 23 7b bf 6a 6c 95 3d e3 d9 25 3e 0e 72 33 3e
       -0.9810037 0.07296069 0.16196398 0.17523977
0001a0 f6 70 ce be 6c 11 8c 3e 40 e3 81 3f 34 3f 8a 3d
       -0.40320557 0.27357042 1.0147476 0.06750336
0001b0 d0 15 82 3d 9e 35 7f 3e 80 ad a4 bd 13 d7 9c bf
       0.06351817 0.24922797 -0.08040905 -1.2253135
0001c0 e4 2f d0 3d 7e 6b df bf 09 5d b0 bd 10 2f 0a bf
       0.101653844 -1.7454679 -0.08611495 -0.5397806
0001d0 a0 cd 97 3e 5c 3c c8 3d 74 90 1e 3b 86 2e 99 bd
       0.29649067 0.09777138 0.0024194987 -0.07479577
0001e0 82 db 6b bf 80 6b 30 3f d6 6f f9 3b 86 b1 b3 bc
       -0.9213182 0.6891403 0.007612209 -0.021935236
0001f0 ac 5e e8 b9 60 47 b9 bd 49 3c b3 bd 72 be 1c bf
       -0.00044321024 -0.09046817 -0.08751733 -0.61228096
