Dueling_DQN/checkpointpole.pth (torch_old, 145300 bytes, 9 tensors)

weight f4 [128, 4]
0	0xbf85f8b8	-1.0466528
1	0xbf9e9434	-1.2388978
2	0xbee8572c	-0.45379007
3	0xbf903416	-1.1265895
4	0x3f1ecc1a	0.62030184
5	0xbe357345	-0.17719753
6	0xbf2905b9	-0.6602436
7	0xbe062610	-0.13100457
8	0x3c5119c0	0.012762487
9	0x3e375480	0.17903328
10	0xbecb79c8	-0.3974135
11	0x3e379044	0.17926127
12	0xbee7fa1e	-0.45308012
13	0x3dba42d4	0.09094778
14	0xbe96f006	-0.29479998
15	0x3d88ec4a	0.066856936
16	0xbf849722	-1.0358622
17	0x3fadd45c	1.3580432
18	0x3f84b519	1.0367767
19	0x3f707a51	0.9393664
20	0xbff1bcc0	-1.8885727
21	0x3e45e7da	0.19326726
22	0x3ffb76e0	1.9645653
23	0x3f0d00de	0.5507945
24	0x3cf9d22e	0.03049573
25	0xbdb688a6	-0.08912782
26	0xbde15986	-0.11003403
27	0xbdcf32ee	-0.10117136
28	0xbe411c36	-0.18858418
29	0xbd40b21a	-0.04704485
30	0xbd2fe56a	-0.042943396
31	0xbe4c24dc	-0.19935936
32	0xbf601336	-0.87529314
33	0x3f7ef05a	0.995855
34	0x403a3ef7	2.910093
35	0x3f548a2d	0.8302334
36	0xbf14ef06	-0.5817722
37	0xbdb455ed	-0.088054515
38	0xbf1b6340	-0.6069832
39	0xbe397932	-0.18112639
40	0x3f67c10d	0.9052895
41	0x3e7b58e6	0.24545631
42	0xbf2c43c2	-0.6729089
43	0x3da44758	0.0802142
44	0x3e86fea0	0.26366138
45	0x3f260a66	0.64859617
46	0xbec33882	-0.3812905
47	0x3ef7877a	0.48345548
48	0xbf8c05aa	-1.0939229
49	0x3f5df22f	0.8669767
50	0x3f9cac00	1.223999
51	0x3f1c6baf	0.6110181
52	0xbf35cfa8	-0.71019983
53	0xbe8ac0d2	-0.27100235
54	0xbfa66154	-1.2998452
55	0xbf1bf036	-0.6091341
56	0xbeead88c	-0.45868337
57	0x3ec8374a	0.39104682
58	0xbfb9ac71	-1.450575
59	0x3eb6c784	0.35699093
60	0xbe9e1073	-0.30871925
61	0x3da6ea76	0.081501886
62	0xbea4e23c	-0.32203853
63	0xbe40ef82	-0.18841365
64	0xbdc6b57c	-0.09702584
65	0x3ec82d96	0.3909728
66	0xbec21f92	-0.3791471
67	0x3e4a4c74	0.19755727
68	0xc0294d42	-2.6453404
69	0xbf663bc9	-0.89934975
70	0xc05438d5	-3.3159688
71	0xbf206615	-0.62655765
72	0xbe80dcb0	-0.2516837
73	0x3e60a99c	0.21939701
74	0xbeba9918	-0.36444926
75	0x3a07c5d3	0.00051793194
76	0x3e00a0dc	0.12561363
77	0xbe881b56	-0.26583356
78	0x3e6b55b4	0.22981912
79	0xbe4bdf68	-0.19909441
80	0xbcb52083	-0.02211023
81	0x3e4a1720	0.19735384
82	0x3cd14764	0.025546737
83	0x3eabf640	0.3358631
84	0xbf33d86e	-0.7025212
85	0xbf12b232	-0.57303154
86	0xbd281f4c	-0.041045472
87	0xbeccf51c	-0.40030754
88	0x3d487f6d	0.048949648
89	0x3f5ae41f	0.85504335
90	0xbe0aa943	-0.1354113
91	0x3f28c296	0.65921915
92	0xbea40961	-0.32038406
93	0xbe9a3d82	-0.30125052
94	0xbf99536b	-1.1978582
95	0xbf1f7130	-0.62282085
96	0x3f0705a7	0.52743
97	0xbf1c75ce	-0.61117256
98	0xbefc9b22	-0.49337107
99	0xbf6663b4	-0.89995885
100	0xbf355486	-0.708321
101	0x3e66cbff	0.22538756
102	0xbfd58ec4	-1.6684194
103	0x3d58005e	0.052734725
104	0x404496c6	3.0717025
105	0xbf3c3a3a	-0.73526347
106	0x3ef57386	0.479397
107	0xbe401f68	-0.1876198
108	0xbef3710a	-0.4754718
109	0xbebdb4b8	-0.3705194
110	0xbcadc420	-0.021211684
111	0xbe91fbc2	-0.28512388
112	0xbf8865d4	-1.0656075
113	0xbd81bdb2	-0.0633501
114	0xbee422c0	-0.44557762
115	0xbe90d12c	-0.28284585
116	0xbf5be8e2	-0.85902226
117	0x3eb6554c	0.3561195
118	0xbfc2686e	-1.518812
119	0xbcb65b16	-0.02226023
120	0xbef9b91c	-0.4877404
121	0xbde3bc02	-0.11119844
122	0xbe9eb3ea	-0.3099664
123	0xbe884c69	-0.26620796
124	0x3f21815a	0.63088
125	0x3e94fc9e	0.29098982
126	0xbf07e9fd	-0.5309141
127	0x3e39eeb2	0.18157461
128	0xbeb04fda	-0.34435922
129	0x3f9359a8	1.1511736
130	0x3f34897a	0.7052227
131	0x3f3f9992	0.74843705
132	0xbf82d406	-1.0220954
133	0xbeb8d8e6	-0.3610298
134	0xbe430aa8	-0.19047034
135	0xbe4acff8	-0.19805896
136	0x3f2f682f	0.68518347
137	0xbe89a138	-0.26880813
138	0xbf5b3544	-0.8562815
139	0xbed8f488	-0.42374063
140	0x3f035ba4	0.5131171
141	0xbe8c17d2	-0.27361923
142	0xbf202888	-0.62561846
143	0xbebb65ae	-0.36601013
144	0xbfd4805e	-1.6601675
145	0xbed4d8ec	-0.41571748
146	0xbf8dfe35	-1.1093203
147	0xbf10ff2f	-0.5663938
148	0x3ec34ef9	0.3814619
149	0x3f080b3e	0.53142154
150	0x3fc0bf74	1.5058427
151	0x3f0b8736	0.5450319
152	0xbde1f470	-0.11032951
153	0xbeab944a	-0.33511573
154	0xbe224e6c	-0.15850228
155	0xbe67a301	-0.22620775
156	0xbf1d170c	-0.6136329
157	0xbf627a5a	-0.88467944
158	0x3f31f996	0.6952146
159	0xbf56b6f7	-0.8387293
160	0xbed16db0	-0.40903997
161	0xbeed204c	-0.46313703
162	0xbec1e402	-0.3786927
163	0xbeac2340	-0.33620644
164	0x3f4142fd	0.7549284
165	0xbd60472a	-0.054755367
166	0xbe120bac	-0.14262265
167	0xbe31f94e	-0.17380258
168	0x3e761e48	0.24034989
169	0x3ed0c214	0.4077307
170	0xbf3611aa	-0.71120703
171	0x3e9f9da2	0.31174952
172	0xbf2b2089	-0.6684652
173	0x3eb5c2aa	0.3550008
174	0x40507db6	3.2576728
175	0x3f15258c	0.58260417
176	0x3ea3ab3a	0.31966573
177	0x3e4083cc	0.18800277
178	0x3e933388	0.28750253
179	0x3e25bf3c	0.16186231
180	0xbf1e54e8	-0.61848307
181	0x3f3b0bdc	0.7306497
182	0x40183f5e	2.3788676
183	0x3e81d254	0.2535578
184	0xbfd66174	-1.674849
185	0xbf48d239	-0.78445774
186	0x3fc5a2d0	1.5440311
187	0xbf6b509e	-0.9191989
188	0xbeffad08	-0.499367
189	0xbf803c64	-1.001843
190	0x3f3cbe31	0.7372771
191	0xbf88fc9d	-1.0702091
192	0x3ed72b5c	0.42025268
193	0x3c7c14dc	0.015385833
194	0xbf0f57c0	-0.5599327
195	0x3cd76901	0.026295187
196	0xbe57b338	-0.2106446
197	0xbdb48cc8	-0.088159144
198	0xbeb41ce0	-0.3517828
199	0xbe162ef4	-0.14666349
200	0xc00c8b54	-2.196004
201	0xbf9a382c	-1.2048392
202	0x3f8d1f1b	1.1025118
203	0xbf4421a0	-0.7661381
204	0xbeb5baf2	-0.3549419
205	0xbe30c472	-0.17262438
206	0x3f144ce4	0.57929826
207	0xbc61f9d6	-0.013792476
208	0xbfff43b8	-1.9942541
209	0xbdae38c5	-0.08506922
210	0xbfad3225	-1.3530928
211	0xbf26bcfe	-0.6513213
212	0x3efadc0a	0.48996
213	0x3e59efea	0.21282926
214	0xbf9602fc	-1.1719661
215	0x3e349efd	0.17638774
216	0x3eaf7c69	0.34274605
217	0xbe7a9b60	-0.24473333
218	0xbf4e6fc0	-0.80639267
219	0xbedfa220	-0.4367838
220	0xc020fd59	-2.515463
221	0x3f3aac0a	0.7291876
222	0xbeae6444	-0.34060872
223	0x3eba8dbb	0.36436257
224	0xbf298180	-0.66213226
225	0x3ef8f642	0.4862538
226	0xbe91306a	-0.2835725
227	0x3e582923	0.21109442
228	0xc00ce07f	-2.2012022
229	0x3eae47b2	0.34039074
230	0x3f02b36a	0.51055014
231	0x3ecf0d06	0.40439624
232	0xbf078788	-0.5294118
233	0x3f15c9c4	0.58510995
234	0x3f040716	0.5157331
235	0x3e44a0e6	0.19202003
236	0x3d0d7170	0.03453201
237	0xbd2a9f90	-0.041656077
238	0xbe99de54	-0.30052435
239	0x3cc46fc0	0.023979068
240	0xbf6460b4	-0.8921006
241	0xbef76107	-0.48316213
242	0xbf279eb4	-0.65476537
243	0xbed65a76	-0.4186589
244	0xbf732328	-0.9497552
245	0x3dd38266	0.10327606
246	0xbf666356	-0.89995325
247	0xbe4949fc	-0.19657129
248	0xbfc6bf9c	-1.5527225
249	0x3f8857d0	1.0651798
250	0x3fde2ab3	1.7356781
251	0x3f41778c	0.7557304
252	0xbeefdcda	-0.46848184
253	0x3faf84d8	1.3712416
254	0x3f9d140e	1.2271745
255	0x3f487ba0	0.78313637

bias f4 [128]
0	0xbeb494fc	-0.35269916
1	0xbe90910a	-0.28235656
2	0xbe8ac194	-0.27100813
3	0xbf272a7e	-0.6529921
4	0x3ec16597	0.3777282
5	0xbe9a756f	-0.3016772
6	0xbeca5bf2	-0.39523274
7	0xbee7b612	-0.45256096
8	0xbe348f8b	-0.17632882
9	0xbec7e902	-0.39044958
10	0x3eacb68c	0.33733022
11	0x3eda2f90	0.42614412
12	0x3e1d4a7a	0.15360442
13	0xbf6d6a23	-0.92740077
14	0xbdd0305c	-0.10165474
15	0xbf40f06e	-0.75366867
16	0xbd8b0731	-0.06788481
17	0xbf30cfcd	-0.6906708
18	0xbf23a678	-0.63925886
19	0xbec0b356	-0.37636822
20	0xbf4497a4	-0.76793885
21	0xbf120c40	-0.5704994
22	0x3f0d1087	0.55103344
23	0xbf63eded	-0.8903492
24	0xbc201d0c	-0.00977255
25	0xbe5f5176	-0.21808419
26	0xbe076c47	-0.13224898
27	0xbee7e5e2	-0.45292574
28	0xbf1c9866	-0.6117004
29	0x3d94870c	0.07252321
30	0xbefefd96	-0.49802846
31	0xbda6b9d2	-0.08140911
32	0x3e0b591c	0.13608211
33	0xbf32d5b2	-0.69857323
34	0x3efb21d2	0.4904924
35	0xbf569586	-0.83821905
36	0xbf6e89f1	-0.9317923
37	0xbf1440ba	-0.57911265
38	0xbe33e7c0	-0.17568874
39	0xbeea8919	-0.45807722
40	0xbea18a66	-0.31550902
41	0xbedd6228	-0.4323895
42	0x3e23f8b4	0.16012841
43	0xbe36c7be	-0.17849633
44	0xbe8517d2	-0.25994736
45	0xbea385fa	-0.31938154
46	0xbf10ae13	-0.56515616
47	0xbe217d7c	-0.15770525
48	0xbe2e6942	-0.1703234
49	0xbe8cf71a	-0.27532274
50	0xbed7435e	-0.42043585
51	0xbf792db6	-0.97335374
52	0xbf5e8f94	-0.8693783
53	0x3e36e900	0.1786232
54	0x3b0078b0	0.0019603185
55	0xbe9a70ff	-0.30164334
56	0xbe0fc743	-0.14040856
57	0xbf34f5d5	-0.7068761
58	0xbe9bace9	-0.30405357
59	0xbe8e4414	-0.27786314
60	0xbefd760d	-0.49504128
61	0xbdbc8fda	-0.09207125
62	0x3e5d77be	0.2162771
63	0xbeb1728c	-0.34657705
64	0xbeeb09bc	-0.45905864
65	0xbe847dc2	-0.25877196
66	0xbf4a0c9c	-0.7892549
67	0xbe70530e	-0.23469183
68	0x3e8a29e6	0.2698509
69	0xbf6d05d0	-0.92586994
70	0x3d3ecd8e	0.04658275
71	0xbf24ee07	-0.644257
72	0xbf85a3bd	-1.0440594
73	0xbd2c6fa9	-0.042098675
74	0xbe5d7720	-0.21627474
75	0x3ebce2ef	0.36891887
76	0xbea3f8d8	-0.3202579
77	0x3f1287b3	0.5723831
78	0x3edf5b84	0.43624508
79	0xbee156fc	-0.44011676
80	0xbe4a8364	-0.19776684
81	0xbe249cf8	-0.16075504
82	0xbf83ec30	-1.0306454
83	0xbdae6cf0	-0.08516872
84	0xbec8cdba	-0.39219457
85	0xbf6a919f	-0.9162845
86	0xbe5baab1	-0.21451832
87	0xbe878d18	-0.26474833
88	0xbee9c188	-0.45655465
89	0xbef94260	-0.48683453
90	0xbdbe3a50	-0.09288466
91	0xbeae94f4	-0.34098017
92	0xbf1bfcd6	-0.6093267
93	0xbf25ebf4	-0.6481316
94	0xbf165fce	-0.58739936
95	0xbdb412be	-0.08792637
96	0x3e020ff8	0.12701404
97	0xbe4c76a8	-0.19967139
98	0xbf20e370	-0.6284704
99	0xbedf0b56	-0.43563336
100	0xbeb043b9	-0.34426668
101	0xbe21ad90	-0.15788865
102	0xbea77f7c	-0.3271445
103	0xbe596119	-0.21228446
104	0xbf7c1ec2	-0.9848443
105	0xbf47cef7	-0.7805018
106	0x3cbb7a52	0.022885475
107	0xbf18069c	-0.59385085
108	0xbed827a2	-0.42217737
109	0xbec94d94	-0.39317
110	0xbeec78ec	-0.46186006
111	0xbea2a3ca	-0.31765586
112	0xbeb76d6f	-0.3582568
113	0xbee088ca	-0.43854362
114	0xbf7c1838	-0.98474455
115	0xbeb096b4	-0.34489977
116	0xbe796758	-0.24355829
117	0xbf2be67c	-0.67148566
118	0xbed8e040	-0.4235859
119	0xbee0ddd2	-0.43919235
120	0xbdf98d77	-0.121851854
121	0x3d295921	0.041344766
122	0xbea46ce9	-0.32114342
123	0xbecb36c0	-0.39690208
124	0xbee49e83	-0.44652185
125	0xbe6a463c	-0.22878355
126	0xbf10abb8	-0.5651202
127	0xbf29da4b	-0.66348714

weight f4 [128, 128]
0	0xbe10611b	-0.14099543
1	0xbe371a18	-0.17881048
2	0x3cf7c4e4	0.030245252
3	0xbdad5614	-0.08463684
4	0xbe87224e	-0.2639336
5	0xbe19bee0	-0.1501422
6	0xbdb72426	-0.08942442
7	0xbd9b3e4e	-0.07580243
8	0xbe4b4476	-0.19850335
9	0xbc424052	-0.0118561555
10	0xbe3208b8	-0.17386138
11	0xbe065958	-0.1312002
12	0xbd9d3872	-0.07676782
13	0xbe1c0898	-0.15237653
14	0xbe68de5c	-0.22741073
15	0x3d0f94ca	0.035054006
16	0xbe3ffe0a	-0.18749252
17	0xbe65d086	-0.22442827
18	0xbdf179ba	-0.117907956
19	0xbc64f0c0	-0.013973415
20	0x3c6b66a8	0.014367737
21	0xbe11a3b7	-0.14222609
22	0xbe837462	-0.2567473
23	0xbe1abd32	-0.15111235
24	0xbe1aaf78	-0.15105999
25	0xbe3fa6b8	-0.18715942
26	0x3cfc1d5c	0.030775718
27	0x3cd4e018	0.025985762
28	0xbdfde722	-0.12397601
29	0xbd9a968c	-0.07548246
30	0xbe5ba236	-0.21448597
31	0xbe6fd334	-0.23420411
32	0xbd68ff16	-0.056883894
33	0xbba90710	-0.0051583126
34	0xbe777a9e	-0.24167868
35	0xbd401a18	-0.046899885
36	0xbe563ce4	-0.20921665
37	0xbd7125a6	-0.058873795
38	0xbe683496	-0.2267631
39	0xbdf4ac96	-0.11946981
40	0xbdb00780	-0.085951805
41	0xbe250c76	-0.16118035
42	0xbe20e5ce	-0.15712664
43	0xbdbe1848	-0.09281975
44	0xbd4d4915	-0.050118525
45	0xbe168ea6	-0.14702854
46	0xbe60e0ae	-0.21960708
47	0xbd70834d	-0.05871897
48	0xbe223f5e	-0.15844485
49	0x3d1de512	0.038548537
50	0xbe63b7ba	-0.22238055
51	0x3b0450c0	0.0020189732
52	0xbe2f361e	-0.17110488
53	0xbe6dcb4e	-0.23222086
54	0xbe4f1cd0	-0.20225835
55	0xbdd8df1c	-0.1058943
56	0xbe24178e	-0.1602461
57	0xbdb58702	-0.08863641
58	0xbe2ba25c	-0.16761154
59	0x3d6cb226	0.057787083
60	0xbe0cd53e	-0.1375322
61	0xbe16696e	-0.14688656
62	0xbe074d88	-0.1321317
63	0xbe16cb14	-0.14725906
64	0x3daf94d1	0.08573306
65	0xbe5d2d02	-0.215992
66	0xbe20dafa	-0.15708533
67	0xbe942c25	-0.2893993
68	0xbe6522c8	-0.22376549
69	0xbe864cee	-0.26230568
70	0xbe14b0c5	-0.14520557
71	0xbe4e8a04	-0.20169836
72	0xbe5780f8	-0.21045291
73	0xbe168c0f	-0.14701866
74	0xbce3a632	-0.027789209
75	0xbde190ec	-0.1101397
76	0xbe0cc8f3	-0.13748531
77	0xbe09dbd9	-0.13462771
78	0xbdce620a	-0.10077293
79	0xbdc8b5b7	-0.09800284
80	0xbe591a00	-0.21201324
81	0x3b08f340	0.0020896941
82	0xbde187f8	-0.11012262
83	0xbdfa7224	-0.12228802
84	0x3e1e811f	0.15478943
85	0xbde5f436	-0.1122822
86	0xbe394590	-0.18092942
87	0xbd90eb8a	-0.070761755
88	0xbe3dbde5	-0.1852947
89	0x3cc31908	0.023815647
90	0x3d414e56	0.047193848
91	0x3cc1ffdc	0.023681574
92	0xbe624e5a	-0.22100201
93	0xbe03c20b	-0.1286699
94	0x3c958104	0.018249996
95	0xbe2cbb8a	-0.16868415
96	0xbdf15ebb	-0.117856465
97	0xbe4f8db7	-0.20268904
98	0xbe68455e	-0.22682711
99	0x3de52138	0.111879766
100	0xbe486786	-0.19570741
101	0xbe344ca6	-0.17607364
102	0xbd753d0c	-0.059872672
103	0xbdc6b0a4	-0.0970166
104	0xbe17e598	-0.14833677
105	0xbbd26ef0	-0.006421916
106	0xbdb8b182	-0.09018232
107	0x3e65981c	0.22421306
108	0xbe48e9fc	-0.19620508
109	0xbd9311bf	-0.07181119
110	0xbe80e512	-0.25174767
111	0xbd47ada2	-0.048749574
112	0xbe7517bf	-0.2393484
113	0xbac637c0	-0.0015122816
114	0xbe8023f4	-0.2502743
115	0xbe0aa22e	-0.13538429
116	0xbdf091be	-0.11746548
117	0xbb9a4fba	-0.004709211
118	0xbe333352	-0.17500046
119	0x3d9cf11f	0.07663178
120	0xbe1f8b0a	-0.15580383
121	0xbe281e44	-0.16417795
122	0xbde88e88	-0.11355311
123	0x3d4ac174	0.049500898
124	0xbde3ed7a	-0.111292794
125	0xbe07a4a6	-0.13246402
126	0xbd4e9fc2	-0.050445326
127	0xbe036d46	-0.12834653
128	0xbcaaca44	-0.0208484
129	0x3d00c9bc	0.03144239
130	0x3d7c5366	0.061602972
131	0x3d4ca0c6	0.049958013
132	0xbdad4326	-0.08460073
133	0xbdab711a	-0.08371182
134	0x3b03dac0	0.0020119399
135	0x3db4aa53	0.08821549
136	0xbd673c76	-0.056454144
137	0x3bab28c0	0.0052233636
138	0xbd331c3a	-0.04372809
139	0x3da674bd	0.08127735
140	0x3caab2a4	0.020837136
141	0x3d0a0288	0.03369382
142	0x3b36eb80	0.0027911365
143	0x3d2f5782	0.042808063
144	0xbb672180	-0.003526777
145	0x3cc898b8	0.024486884
146	0x3d7bb782	0.061454304
147	0x3d945df1	0.072444804
148	0x3cc57ff4	0.024108864
149	0x3db33091	0.08749498
150	0x3c45f848	0.012083121
151	0x3d3247ae	0.04352539
152	0xbd240096	-0.04003962
153	0xbdac0a2e	-0.08400379
154	0xbd4382d7	-0.0477322
155	0xbd99c5ed	-0.075084545
156	0xbd933585	-0.071879424
157	0x3c543600	0.012952328
158	0xbcfb1012	-0.030647311
159	0xbd3b5ce9	-0.045742903
160	0x3cc77844	0.02434934
161	0xbb8a95f0	-0.0042292997
162	0xb9875300	-0.00025811046
163	0x3c92d2c0	0.017922759
164	0xbd169e1a	-0.03677187
165	0x3d0d2040	0.034454584
166	0x3d7610ca	0.060074605
167	0x3b88f9b0	0.0041801557
168	0x3d298622	0.041387685
169	0xbd440f0c	-0.047865912
170	0xbda0cbae	-0.07851349
171	0x3c272568	0.010201789
172	0xbd903aaa	-0.07042439
173	0xbdb459f9	-0.088062234
174	0x3d73794e	0.059441857
175	0x3d4e1f02	0.05032254
176	0xbc5558a8	-0.013021626
177	0xbd9881fd	-0.07446668
178	0xbd9a6cb7	-0.07540267
179	0x3cd1d538	0.025614366
180	0xbcf29672	-0.029612754
181	0xbd3c1607	-0.045919444
182	0xbd007eed	-0.031371046
183	0xbd3a6807	-0.045509364
184	0xbcf9c870	-0.030491084
185	0x3d4683de	0.048465602
186	0x3d179b6e	0.037013464
187	0xbd918d42	-0.07107021
188	0xbc0b8db8	-0.008517675
189	0xbd8774c4	-0.06614068
190	0xbcd0b920	-0.0254789
191	0x3da9b7d3	0.08287015
192	0x3da73539	0.08164448
193	0xbcacf754	-0.021114029
194	0xbd94cbf2	-0.07265462
195	0x3d3ba9c6	0.045816205
196	0xbbce4eb0	-0.0062960014
197	0x3b333980	0.0027347505
198	0x3c590ff0	0.013248429
199	0x3d0b27e2	0.033973582
200	0xbd7027c6	-0.05863168
201	0x3b2b56e0	0.002614431
202	0xbd6c24d8	-0.057652324
203	0xba94d0c0	-0.0011353716
204	0xbd8a38f3	-0.067491435
205	0x3d9fdee9	0.078061886
206	0xbc701f38	-0.014655881
207	0xbd84a203	-0.06476214
208	0x3b483ba0	0.0030553117
209	0x3ca67860	0.020321071
210	0xbd785b68	-0.060634047
211	0xbcdb13c0	-0.026742816
212	0xbd8851c9	-0.06656224
213	0x3d7fe7ae	0.062476806
214	0xbbc6fa90	-0.00607235
215	0xbd56274b	-0.052283566
216	0xbc8fcbe0	-0.01755327
217	0x3d2b5a1a	0.041833974
218	0xbc9692f0	-0.018380612
219	0xbd7d5b6a	-0.061854757
220	0x3cf95124	0.030434199
221	0xbd226a27	-0.039652016
222	0xbcbf67cc	-0.023364924
223	0xbc76c4c8	-0.015061565
224	0xbd9508e8	-0.07277089
225	0xbcdca3fa	-0.026933659
226	0x3cf48100	0.029846668
227	0xbcad8154	-0.021179833
228	0xbd1db1b0	-0.038499534
229	0xbce4f836	-0.027950387
230	0x3d0c0ce8	0.034191996
231	0x3d6f04f2	0.058354326
232	0x3c20e0b0	0.009819195
233	0x3d29c8c2	0.041451223
234	0x3d496562	0.04916895
235	0x3d940105	0.07226757
236	0xbd5b9618	-0.053609937
237	0xbbadea30	-0.0053074583
238	0x3d5e846e	0.054325514
239	0x3d9db101	0.076997764
240	0xbc1805d8	-0.009278737
241	0x3cb90ca4	0.022589035
242	0xbd904467	-0.07044297
243	0xbdaf1447	-0.085487895
244	0x3d8ffbd5	0.07030455
245	0xbd865c4f	-0.06560575
246	0x3c93e0f8	0.01805161
247	0xbac80740	-0.001526095
248	0xbd2e5c75	-0.042568643
249	0xbc862060	-0.01637286
250	0x3dacd6b7	0.08439391
251	0xbca7a39c	-0.020463757
252	0x3d1d0d8a	0.03834299
253	0xba443400	-0.0007484555
254	0x3d9aa121	0.07550264
255	0x3d256c9a	0.040386774

bias f4 [128]
0	0xbe32455c	-0.17409271
1	0xbd3cb5ec	-0.04607193
2	0xbe18b926	-0.14914379
3	0xbe3aa294	-0.18226081
4	0x3ea640a6	0.32471198
5	0xbec78d76	-0.38975114
6	0xbf4f0ba1	-0.8087712
7	0xbe3107af	-0.17288087
8	0xbe2989b0	-0.1655643
9	0xbe9c2a62	-0.30501086
10	0xbea4ad12	-0.32163292
11	0x3f1ac161	0.6045132
12	0xbe1ca8b6	-0.15298733
13	0xbeff6bd0	-0.49886942
14	0xbe68fe27	-0.22753201
15	0xbf0bd26e	-0.54617965
16	0xbe6acc9e	-0.22929618
17	0xbee1a95a	-0.44074517
18	0x3e99c32d	0.3003172
19	0xbed3dfec	-0.41381776
20	0xbe14e0ce	-0.14538881
21	0xbec030bc	-0.3753718
22	0xbf145366	-0.57939756
23	0xbe674e8c	-0.22588557
24	0xbde00e62	-0.10940243
25	0xbe6c6ef4	-0.230892
26	0xbe9acfb4	-0.3023659
27	0xbe58ba54	-0.21164829
28	0xbe668d5c	-0.22514862
29	0xbe244d86	-0.16045198
30	0xbe998f75	-0.29992262
31	0xbe045ce2	-0.12926057
32	0xbe9a510d	-0.30139962
33	0xbe5b6478	-0.21425045
34	0xbfa1da32	-1.2644713
35	0xbe06ecfd	-0.13176341
36	0xbe8318eb	-0.25604948
37	0xbf031c98	-0.51215506
38	0xbe45a47a	-0.19301024
39	0xbbe0a238	-0.0068552755
40	0xbe736c96	-0.23771891
41	0xbf6dd696	-0.9290556
42	0xbf095c50	-0.5365648
43	0xbf015b9a	-0.505304
44	0xbee55d18	-0.44797587
45	0xbe874dc8	-0.2642653
46	0xbdc4c5de	-0.09608053
47	0xbf22c5d0	-0.6358309
48	0x3ebe8bb2	0.37215954
49	0xbde118d4	-0.10991064
50	0xbe11089e	-0.14163443
51	0xbd4f4f77	-0.050612893
52	0xbea439c6	-0.32075328
53	0xbdaa9214	-0.083286434
54	0xbe4669a9	-0.19376244
55	0xbe35c9ae	-0.17752716
56	0x3dbee341	0.09320689
57	0xbed5420e	-0.41651958
58	0xbef2ade3	-0.4739829
59	0xbe5a7c50	-0.21336484
60	0xbe8784c5	-0.26468483
61	0xbe3837ae	-0.1798999
62	0xbe88db32	-0.26729733
63	0x3e81a114	0.25318205
64	0xbe971b4a	-0.29513007
65	0xbe589e5d	-0.21154161
66	0xbe741035	-0.23834307
67	0xbf390326	-0.7227043
68	0xbdc8dd55	-0.09807841
69	0xbe6156ee	-0.22005817
70	0xbef6a36d	-0.4817156
71	0x3f216d79	0.63057667
72	0xbe6d7bc8	-0.2319175
73	0xbee37b9a	-0.44430238
74	0xbe0bbd75	-0.13646491
75	0x3f1bdff0	0.60888577
76	0xbe9cc380	-0.30617905
77	0xbd99cf0a	-0.07510193
78	0xbef1d674	-0.47233927
79	0xbeb97a09	-0.36225918
80	0xbf16c480	-0.58893585
81	0x3ee36d64	0.44419396
82	0xbdc1fab4	-0.09471646
83	0xbe22ef0a	-0.15911499
84	0xbee8dd0f	-0.45481154
85	0xbdae077d	-0.08497522
86	0xbea1531a	-0.31508714
87	0xbe7646d9	-0.24050464
88	0xbdf74e08	-0.1207543
89	0xbd7f67ea	-0.06235496
90	0xbe6a348b	-0.22871606
91	0xbd930181	-0.07178021
92	0x3eced496	0.40396565
93	0x3e8935ca	0.2679885
94	0xbf3b512c	-0.73170733
95	0xbe3fe02e	-0.18737862
96	0xbed33846	-0.4125387
97	0x3dfbab11	0.12288488
98	0xbebcfb02	-0.36910254
99	0x3e22b2d2	0.15888527
100	0xbecff40e	-0.40615886
101	0xbe570d0c	-0.2100107
102	0xbf1bd011	-0.6086436
103	0xbe52df24	-0.20592934
104	0x3ef94700	0.4868698
105	0xbe856049	-0.26050022
106	0xbe59f324	-0.21284157
107	0xbf05afdf	-0.52221483
108	0x3c8812ba	0.016610492
109	0xbe1efbe6	-0.15525779
110	0xbcfac9de	-0.030613836
111	0xbde045e2	-0.10950829
112	0xbf7c4d58	-0.9855552
113	0xbe6858ce	-0.22690126
114	0xbeaaf160	-0.3338728
115	0xbf059a20	-0.521883
116	0xbd4a657b	-0.049413186
117	0xbeb32789	-0.349911
118	0x3ef8d416	0.4859931
119	0xbf00b108	-0.5027013
120	0xbe8c5549	-0.27408817
121	0xbe494b62	-0.19657663
122	0xbe9def24	-0.30846512
123	0xbeca90de	-0.3956365
124	0xbd717db8	-0.058957785
125	0xbea03936	-0.31293648
126	0xbe6f8ea8	-0.23394263
127	0xbe53fa09	-0.2070085

weight f4 [2, 128]
0	0xbd489326	-0.048968457
1	0x3bbd92e0	0.005785331
2	0xbe069360	-0.13142157
3	0xbe423a8e	-0.1896765
4	0xbf13846d	-0.5762394
5	0xbea558f4	-0.32294428
6	0xbe182b9d	-0.14860387
7	0xbe858356	-0.26076764
8	0x3cd5fd2f	0.026121704
9	0x3ca2665a	0.019824196
10	0xbdeaa2a4	-0.114568025
11	0xbe2e8154	-0.17041522
12	0xbce7ab12	-0.028279815
13	0x3e0986bc	0.13430303
14	0xbddc837e	-0.10767268
15	0x3d0651ac	0.032792732
16	0xbe3baef2	-0.18328455
17	0x3e20363f	0.15645693
18	0xbf1ef6aa	-0.6209513
19	0x3e0b6a79	0.13614835
20	0x3df4ed00	0.11959267
21	0xbe4c6000	-0.19958496
22	0xbdfb2ad6	-0.1226403
23	0x3def256e	0.11677061
24	0xbdd7c7c1	-0.10536147
25	0xbdaf0922	-0.08546664
26	0xbe5fed30	-0.21867824
27	0xbdf56456	-0.11982028
28	0xbd8cd49b	-0.06876489
29	0xbd89b558	-0.06724042
30	0xbdc7604f	-0.09735166
31	0xbde61251	-0.11233962
32	0xbd8f745f	-0.07004618
33	0xbe2fae46	-0.17156324
34	0xbe54ac64	-0.20768887
35	0xbdb5f446	-0.08884482
36	0x3e24a512	0.16078594
37	0x3de84bb0	0.11342561
38	0xbe1e4e1b	-0.15459482
39	0xbd505dd1	-0.05087072
40	0x3dc3d62e	0.09562336
41	0x3eb02398	0.34402156
42	0xbe02b7ca	-0.12765422
43	0xbeea98ba	-0.45819646
44	0xbcae0ee3	-0.021247333
45	0xbe03607e	-0.12829778
46	0xbf1f143b	-0.62140244
47	0x3d9126dd	0.07087491
48	0xbde55c4c	-0.11199245
49	0x3e6f0ca4	0.23344666
50	0x3dcb1844	0.09916738
51	0x3dd95c2b	0.10613283
52	0xbc88474f	-0.016635565
53	0xbe436c72	-0.19084337
54	0x3e470a23	0.1943746
55	0xbdbf16ef	-0.09330546
56	0xbf6589e2	-0.8966352
57	0xbde275ee	-0.110576496
58	0xbcdb56da	-0.026774812
59	0xbde6b0d9	-0.112642
60	0xbc2adc78	-0.01042854
61	0xbd3c3be2	-0.045955546
62	0xbe0df0e6	-0.13861427
63	0xbe6eee6c	-0.23333138
64	0xbdebacc2	-0.1150756
65	0xbdf2cbaa	-0.11855252
66	0xbe39316b	-0.18085258
67	0x3f016d47	0.5055737
68	0x3e079dc0	0.1324377
69	0xbe5734c8	-0.21016228
70	0x3d9d59eb	0.07683166
71	0x3e126c0b	0.14299028
72	0x3e75958b	0.23982827
73	0x3db26314	0.08710304
74	0xbdc3e636	-0.095653936
75	0xbf58fa53	-0.84756964
76	0xbd9ca196	-0.076480076
77	0x3b4d0470	0.0031283163
78	0xbda66302	-0.08124353
79	0x3e809ec1	0.2512112
80	0x3e58c34d	0.21168251
81	0xbe437221	-0.19086505
82	0x3d1cb69f	0.0382601
83	0xbdc12530	-0.09430921
84	0x3d03ef46	0.03221061
85	0x3dd15c65	0.10222701
86	0x3ea69a00	0.32539368
87	0xbe1ecd08	-0.155079
88	0x3ad5991a	0.0016296238
89	0xb9ed5cd8	-0.00045273337
90	0xbe51eb0c	-0.2049982
91	0xbe6d740a	-0.23188797
92	0x3c521218	0.012821697
93	0xbda306b8	-0.07960266
94	0xbeda7792	-0.4266935
95	0xbdc8654a	-0.09784944
96	0xbea05e78	-0.31322074
97	0xbf1ee4a3	-0.6206762
98	0xbd0acd7f	-0.033887383
99	0x3dea7728	0.114485085
100	0x3d81100e	0.0630189
101	0x3dacad12	0.08431448
102	0x3e49c400	0.19703674
103	0xbe794305	-0.24341972
104	0xbd75ffd0	-0.060058415
105	0xbe305a1c	-0.17221874
106	0xbd5de92a	-0.05417744
107	0xbd88b13d	-0.066744305
108	0xbec0dfc0	-0.37670708
109	0xbe0f4716	-0.13991961
110	0xbd5ada24	-0.05343069
111	0x3de43f31	0.11144865
112	0x3f130442	0.5742837
113	0xbdcd2112	-0.10016073
114	0xbd8bb260	-0.06821132
115	0x3d89142f	0.06693303
116	0x382dfe8c	4.148348e-05
117	0xbc75b0fa	-0.014995808
118	0xbf161648	-0.5862775
119	0xbca52caa	-0.020162899
120	0xbe9891c0	-0.29798698
121	0xbd4ed8c0	-0.050499678
122	0x3e31597e	0.17319295
123	0xbe57928d	-0.21051998
124	0xbde151a0	-0.11001897
125	0xbcae5504	-0.021280773
126	0x3e145e96	0.14489207
127	0xbdb1fa1e	-0.08690284
128	0xbe00f2ca	-0.12592617
129	0xbc637288	-0.013882287
130	0xbe3497ac	-0.17635983
131	0xbdd1fb38	-0.10252994
132	0xbf2be626	-0.67148054
133	0xbec0f542	-0.37687117
134	0xbe10c137	-0.14136206
135	0x3d8ac787	0.06776338
136	0xbe629b4c	-0.22129554
137	0x3d0c5050	0.03425628
138	0x3d59efae	0.053207092
139	0xbfbda65e	-1.4816396
140	0xbd534692	-0.051580973
141	0xbec8eab6	-0.3924157
142	0x3cb53ee1	0.02212471
143	0xbdc5803a	-0.09643598
144	0x3decc5b2	0.11561145
145	0xbecb210c	-0.3967365
146	0xbd8551e8	-0.06509763
147	0xbe9655b6	-0.29362267
148	0x3e3ffd18	0.18748891
149	0xbce03548	-0.027369156
150	0xbe2773e4	-0.16352803
151	0xbdaed237	-0.08536189
152	0x3e38aea6	0.18035373
153	0xbdbe64a0	-0.092965364
154	0x3dccb79a	0.09995957
155	0x3e71144c	0.23542899
156	0xbea47b1d	-0.32125178
157	0xbc32fd6e	-0.01092468
158	0xbd6a4064	-0.057190314
159	0xbdc11294	-0.094273716
160	0x3d8dfe18	0.0693323
161	0xbdee8219	-0.11645908
162	0xbea5570c	-0.32292974
163	0xbe42506c	-0.18975991
164	0xbe94aa44	-0.29036152
165	0xbe8f69c0	-0.28010368
166	0xbe51e476	-0.20497307
167	0xbdfda8de	-0.123857245
168	0x3d8e639a	0.06952591
169	0xbc848603	-0.016177183
170	0x3d57c353	0.05267651
171	0xbec9c631	-0.3940902
172	0x3ca0c686	0.019625913
173	0xbe7a0564	-0.24416119
174	0xbf069c64	-0.52582383
175	0xbeb67841	-0.3563862
176	0xbe08560e	-0.13314077
177	0x3e20d218	0.15705144
178	0xbf73b15a	-0.9519249
179	0x3d99733a	0.07492681
180	0xbe0b51da	-0.13605443
181	0xbde65634	-0.11246911
182	0xbe47976c	-0.19491357
183	0x3dfd13ac	0.12357268
184	0xbe32d1ce	-0.17462847
185	0xbdecdac6	-0.11565165
186	0xbdbc26ca	-0.09187086
187	0x3e1e6c40	0.15470982
188	0xbcfe444a	-0.031038422
189	0x3d1288ac	0.03577487
190	0xbdc152ac	-0.094395965
191	0xbf2b9096	-0.67017496
192	0xbdc10c86	-0.09426217
193	0xbe0f4438	-0.13990867
194	0x3dca09de	0.09865163
195	0xbeb25e15	-0.34837404
196	0xbf2d3726	-0.67662275
197	0x3dbccb56	0.09218471
198	0x3c744cf5	0.014910926
199	0xbf07f6fe	-0.53111255
200	0xbea5ede6	-0.32408065
201	0xbe2db244	-0.16962534
202	0x3d82c77c	0.06385705
203	0x3e44b77e	0.19210622
204	0x3d72c0af	0.05926579
205	0x3e34fbaa	0.17674127
206	0xbd53bfc4	-0.051696554
207	0xbeba0bba	-0.36337072
208	0xbe209db2	-0.15685156
209	0x3f32dd6c	0.6986911
210	0xbdd0a082	-0.101868644
211	0xbe3bb12a	-0.18329301
212	0xbe1cf872	-0.1532915
213	0x3e46b179	0.19403638
214	0x3e658954	0.22415668
215	0xbe23d686	-0.15999803
216	0xbc3dbc01	-0.011580468
217	0x3dede7be	0.11616467
218	0x3e73cd3a	0.23808756
219	0xbc938b3c	-0.018010728
220	0x3f42c510	0.76081944
221	0xbe8b2754	-0.27178442
222	0xbc2d7db9	-0.010589057
223	0x3e3e83d6	0.18604979
224	0x3e907d6f	0.28220698
225	0xbf1c5109	-0.6106115
226	0xbdd95cfa	-0.10613437
227	0x3d8bb774	0.068221
228	0xbdfe8b06	-0.1242886
229	0xbe4352c4	-0.19074541
230	0xbd385eb2	-0.045012183
231	0x3d8118ac	0.06303534
232	0x3e11dea1	0.14245082
233	0xbe0b3f60	-0.13598394
234	0x3d9b1f40	0.0757432
235	0x3cd743a1	0.026277365
236	0xbf4b061a	-0.79306185
237	0xbdc70b2d	-0.097189285
238	0x3bbb1856	0.005709688
239	0x3e0d49bc	0.13797659
240	0xbe101b13	-0.14072828
241	0xbe1ded42	-0.15422538
242	0xbd8ed92a	-0.069750145
243	0x3d19494a	0.03742341
244	0x3dbe6bae	0.09297882
245	0x3e9479b7	0.2899911
246	0x3d1bd084	0.038040653
247	0x3dc9c95a	0.09852858
248	0xbeda2e90	-0.4261365
249	0xbe06cc73	-0.13163929
250	0x3e74fbf4	0.23924237
251	0x3e83ab9a	0.2571686
252	0x3d9d9527	0.07694464
253	0xbe1db649	-0.15401568
254	0x3dcabb04	0.09898952
255	0xbe3e0a76	-0.18558678

bias f4 [2]
0	0xbe83a84e	-0.25714344
1	0x3e93a9ae	0.28840393

weight f4 [128, 128]
0	0xbf4ed412	-0.80792344
1	0x3c240652	0.0100112725
2	0xbd12999a	-0.035791017
3	0x3dd25bc4	0.10271409
4	0x3df9b3bf	0.12192487
5	0xbe0249a9	-0.12723412
6	0xbe1f444a	-0.15553394
7	0x3e073934	0.13205415
8	0xbfbc10c8	-1.4692621
9	0xbd9f9111	-0.07791341
10	0xbd9f2c5d	-0.077721335
11	0x3c01971e	0.007909564
12	0x3c808f56	0.015693348
13	0xbeb488f2	-0.3526073
14	0xbd011f69	-0.031524096
15	0x3e397d30	0.18114161
16	0x3bb47d74	0.0055081192
17	0xbf045945	-0.51698714
18	0xbe9d5856	-0.30731457
19	0xbc72cdd0	-0.014819577
20	0xbb13b5a0	-0.0022538677
21	0xbea22c5c	-0.3167447
22	0x3d26840e	0.04065328
23	0xbe628d3e	-0.22124192
24	0xbe2bb31e	-0.16767547
25	0xbca18f1f	-0.019721566
26	0x3e1695ac	0.14705533
27	0xbd0de1c1	-0.034639124
28	0x3bd97470	0.006636195
29	0xbccd3898	-0.0250514
30	0xbe97c6a4	-0.29643738
31	0x3cadf48d	0.021234775
32	0xbe4137e8	-0.18868983
33	0xbe65e69b	-0.2245125
34	0x3d13d7c8	0.036094457
35	0x3e4697ec	0.19393891
36	0xbed41747	-0.4142401
37	0xbeae56f4	-0.34050715
38	0xbdc63fd6	-0.096801445
39	0xbe24d800	-0.16098022
40	0x3b5ee860	0.0034013018
41	0xbd1d12d1	-0.038348023
42	0xbe1ff433	-0.15620498
43	0xbec33dd0	-0.38133097
44	0x3cb88854	0.022525944
45	0xbef8fdf8	-0.48631263
46	0xbe832ea7	-0.2562153
47	0xbe0ab477	-0.13545404
48	0xbdc4fd20	-0.09618592
49	0x3d5b359e	0.05351793
50	0xbf004478	-0.50104475
51	0x3e3bd0b6	0.18341336
52	0xbe412bfe	-0.18864438
53	0xbd5bf864	-0.05370368
54	0xbe36a0fa	-0.17834845
55	0x3e7ce6f8	0.24697483
56	0x3d992d33	0.07479324
57	0xbd25a78e	-0.040442996
58	0xbb9ddbbe	-0.004817455
59	0xbc925744	-0.017863877
60	0xbe3d18bc	-0.18466467
61	0xbd4517ab	-0.048118275
62	0x3df84f44	0.12124494
63	0xbf2a9b00	-0.6664276
64	0xbe11ac60	-0.14225912
65	0x3c6959b7	0.014242581
66	0x3e1f4c48	0.15556443
67	0xbf85f406	-1.0465095
68	0x3c4c2888	0.012460835
69	0x3d2761ce	0.04086476
70	0x3dc07ed2	0.09399189
71	0xbebcf2e5	-0.36904064
72	0xbf23fea6	-0.6406044
73	0xbcd932b8	-0.026513442
74	0x3cee96fc	0.02912473
75	0xbba519d0	-0.0050384775
76	0x3e1ed850	0.15512204
77	0x3d098c1d	0.033580888
78	0x3bdcc0ac	0.0067368355
79	0x3d3d47f3	0.046211194
80	0x3e219a90	0.15781617
81	0x3d727d2a	0.059201397
82	0xbdfe6f27	-0.124235444
83	0xbc152062	-0.009101959
84	0xbd9c2970	-0.07625091
85	0xbe16e1b2	-0.14734533
86	0x3dfacc8d	0.12246046
87	0x3c0a5770	0.008443698
88	0x3e24cdac	0.16094083
89	0xbd85e876	-0.06538479
90	0x3c939934	0.018017389
91	0xbcd8f8ea	-0.026485879
92	0x3da39c50	0.079887986
93	0x3da629fe	0.08113478
94	0xbe9a1474	-0.3009373
95	0xbbfb1d79	-0.0076634255
96	0xbbd852b8	-0.0066016577
97	0xbea8c0f9	-0.32959726
98	0xbe14ca84	-0.14530379
99	0x3cba0962	0.022709552
100	0x3d9875c4	0.07444337
101	0xbe85eeb3	-0.26158676
102	0xbd95ddf8	-0.07317728
103	0xbee52549	-0.4475501
104	0xbe42fdb4	-0.19042093
105	0xbefed495	-0.49771562
106	0xbd584755	-0.052802403
107	0xbe8234ec	-0.25431
108	0x3b386112	0.002813403
109	0x3d85eb3d	0.06539009
110	0xbcd0ed38	-0.02550374
111	0xbc049618	-0.008092426
112	0xbdee5926	-0.116380975
113	0x3d7e1aaa	0.062037148
114	0xbe09d250	-0.13459134
115	0xbda6c9a0	-0.08143926
116	0xbe861ff2	-0.26196247
117	0xbed35e90	-0.41283083
118	0xbca82895	-0.020527164
119	0xbde9255a	-0.11384077
120	0xbd9be8f0	-0.07612789
121	0xbcdd9b28	-0.027051523
122	0xbdf0bf60	-0.11755252
123	0xbd7a2bc2	-0.061076887
124	0xbd5aa1c6	-0.053376935
125	0x3de5e748	0.11225754
126	0xbcd25a66	-0.025677871
127	0xbe4be5dc	-0.19911903
128	0x3d3b4422	0.045719273
129	0xbe36e3e6	-0.17860374
130	0x3d690afa	0.056895234
131	0x3e2489b8	0.1606816
132	0xbe23d33e	-0.15998551
133	0x3b325cd6	0.002721598
134	0xbe02f1e1	-0.12787582
135	0x3db2b709	0.087263174
136	0x3dd6d02e	0.10488926
137	0xbdb54c24	-0.08852413
138	0xbeade5f8	-0.33964515
139	0xbe633014	-0.22186309
140	0xbdaaefc4	-0.08346513
141	0x3cbf21ac	0.023331486
142	0xbe9ec6d2	-0.31011063
143	0x3d9bd2d0	0.07608569
144	0xbe322ed3	-0.17400675
145	0x3d4e4d02	0.05036641
146	0xbbad40f0	-0.005287282
147	0xbd03e1b2	-0.03219766
148	0xbd8118f4	-0.063035876
149	0xbd650ae2	-0.05591858
150	0xbea5a8f0	-0.32355452
151	0xbc7e2980	-0.015512824
152	0xbe763786	-0.24044618
153	0xbea425d4	-0.3206011
154	0xbefffe6b	-0.49998793
155	0xbda95167	-0.082674794
156	0xbe702780	-0.23452568
157	0xbe7930cc	-0.24335021
158	0xbde6b0f0	-0.11264217
159	0xbe806a3b	-0.25081047
160	0xbe0b6ddc	-0.13616127
161	0xbe2d7e14	-0.16942626
162	0xbe4d3e04	-0.20043188
163	0x3ce087c4	0.027408488
164	0xbe11a82c	-0.14224309
165	0xbd80aaca	-0.062825754
166	0xbde9937e	-0.11405085
167	0xbe567118	-0.2094158
168	0xbd91c9bb	-0.07118555
169	0xbe48a7d1	-0.19595267
170	0xbe653b96	-0.22386011
171	0xbe318e26	-0.17339382
172	0xbcfa6f12	-0.03057054
173	0x3e712296	0.2354835
174	0xb9557200	-0.00020355731
175	0xbe086686	-0.1332036
176	0xbdec0117	-0.11523645
177	0x3d433abe	0.047663443
178	0xbe9e5f97	-0.30932304
179	0x3dabba15	0.08385102
180	0x3da97635	0.08274499
181	0xbe1fab81	-0.15592767
182	0xbe6896c2	-0.2271376
183	0xbe85290a	-0.26007873
184	0xbe7e12fe	-0.24811932
185	0xbd96eca2	-0.07369353
186	0xbe32130c	-0.17390078
187	0x3b7e4200	0.0038796663
188	0xbe7c7c88	-0.2465688
189	0xbefbed38	-0.4920442
190	0xbe4c7bee	-0.1996915
191	0xbe356960	-0.17715979
192	0x3e1abd64	0.1511131
193	0xbe234bc0	-0.15946865
194	0x3c7635c6	0.015027469
195	0xbcf75ef0	-0.030196637
196	0xbdcb0502	-0.099130645
197	0xbdbbac52	-0.09163727
198	0xbe3fa4d9	-0.18715228
199	0x3c1119c8	0.008856244
200	0xbc2470a0	-0.0100366175
201	0xbe232f8c	-0.15936106
202	0xbd910615	-0.07081238
203	0xbe42ad6c	-0.19011468
204	0xbe75b196	-0.23993525
205	0xbe834972	-0.25641972
206	0xbe34a398	-0.17640531
207	0xbe6e1074	-0.23248464
208	0xbed47da7	-0.41502115
209	0xbd623241	-0.055223707
210	0xbbbcbc70	-0.005759768
211	0xbe8866a6	-0.26640815
212	0xbdc5efd2	-0.09664883
213	0x3c143080	0.009044766
214	0xbdbb36b6	-0.09141295
215	0xbcf1bd46	-0.029509198
216	0xbe2b38ca	-0.16720882
217	0xbcf33876	-0.029690009
218	0xbdaa25ca	-0.08307989
219	0x3dac0f03	0.08401301
220	0x3d9667c3	0.0734401
221	0x3d41adae	0.047284774
222	0xbcd812fa	-0.026376236
223	0xbe2a2478	-0.16615474
224	0xbe2827b6	-0.16421399
225	0x3b9e7bb9	0.0048365262
226	0xbcfdf90e	-0.031002548
227	0x3eb64a87	0.35603735
228	0xbdf52186	-0.11969285
229	0xbe83dca2	-0.25754267
230	0xbe1a6c5c	-0.15080398
231	0xbdc4a2ac	-0.0960134
232	0x3d6ff63a	0.05858443
233	0x3eb29190	0.3487668
234	0xbe407ebe	-0.18798348
235	0x3d98f281	0.07468129
236	0xbe88c572	-0.2671314
237	0xbd8915a0	-0.06693578
238	0x3ddacdba	0.106837705
239	0xbc311e20	-0.010810405
240	0xbe0e669e	-0.13906333
241	0x3d0eecde	0.034893863
242	0x3d30c1ca	0.04315356
243	0xbd515857	-0.051109638
244	0xbe5411da	-0.20709935
245	0xbe2e4752	-0.17019394
246	0x3e26104a	0.16217151
247	0xbd6f38ea	-0.058403887
248	0xbe29658c	-0.16542643
249	0xbe434ac0	-0.19071484
250	0xbe7be450	-0.24598813
251	0xbd81f558	-0.06345624
252	0x3cd0b908	0.025478855
253	0xbe687190	-0.2269957
254	0x3ddf096f	0.10890471
255	0xbe5b13fc	-0.21394342

bias f4 [128]
0	0x3f02c95e	0.5108851
1	0xbe9bee22	-0.30455118
2	0x3f463782	0.7742845
3	0xbe8a9941	-0.27070048
4	0xbe41e6ff	-0.18935774
5	0xbe97a388	-0.29616952
6	0xbe68971c	-0.22713894
7	0xbc25ca31	-0.010119007
8	0x3ef995ce	0.48747104
9	0xbe3710f0	-0.17877555
10	0xbe6db944	-0.23215204
11	0xbf0a932c	-0.54130816
12	0xbe7552a6	-0.23957309
13	0xbe1dc32a	-0.1540648
14	0x3f012c18	0.50457907
15	0xbe4f5c24	-0.20249993
16	0xbec364a2	-0.38162714
17	0xbe276ea2	-0.16350797
18	0xbd2e310c	-0.042527243
19	0x3c8a6912	0.016895805
20	0xbea173f2	-0.31533772
21	0xbe6bee41	-0.23040105
22	0x3f548904	0.8302157
23	0xbe396990	-0.18106675
24	0x3dc65d7e	0.09685801
25	0xbeda7447	-0.42666838
26	0xbe2d4052	-0.16919068
27	0xbed602bc	-0.4179896
28	0x3f55cde1	0.8351727
29	0x3f65d891	0.8978358
30	0xbf1f8350	-0.6230974
31	0xbe978d8f	-0.29600188
32	0x3f4c3b01	0.7977753
33	0x3f563aa4	0.8368323
34	0xbe53db08	-0.20689023
35	0x3f192342	0.59819424
36	0x3f5627d8	0.83654547
37	0xbeb38dd4	-0.35069144
38	0x3f0135da	0.50472796
39	0x3f78e39e	0.97222316
40	0x3f7011bc	0.9377706
41	0xbed9082c	-0.42389047
42	0xbe21ad72	-0.1578882
43	0xbeb0df48	-0.3454535
44	0xbf28a726	-0.6588005
45	0x3f4065ed	0.75155526
46	0xbeb3950a	-0.35074645
47	0xbed5310c	-0.41638982
48	0xbed58a94	-0.4170729
49	0xbe0906eb	-0.13381545
50	0xbf176178	-0.591331
51	0xbe046a42	-0.12931159
52	0xbcb49310	-0.022042781
53	0x3f6e4b61	0.9308377
54	0x3f5ba266	0.85794675
55	0xbec9d838	-0.39422774
56	0xbdff3f32	-0.124632254
57	0xbea6e2e8	-0.3259499
58	0xbe967396	-0.2938506
59	0x3e616216	0.22010073
60	0xbe751c74	-0.23936635
61	0x3f6c15ee	0.9222096
62	0x3f647ef8	0.8925624
63	0x3e58c3fc	0.21168512
64	0x3f17aebd	0.59251004
65	0xbef733a0	-0.48281574
66	0x3e0b0e41	0.13579656
67	0x3f551caa	0.8324686
68	0x3f484b24	0.78239655
69	0x3f5a8766	0.8536285
70	0xbe9d6408	-0.3074038
71	0xbd013167	-0.031541254
72	0x3fa29caf	1.2704066
73	0xbef56d3b	-0.479349
74	0x3f6e0bd8	0.9298682
75	0xbe44be0e	-0.19213125
76	0xbe7a4da1	-0.24443676
77	0x3e6bfc39	0.23045434
78	0xbe36a824	-0.17837578
79	0x3f6f2300	0.9341278
80	0x3e6c34e0	0.23067045
81	0xbda42f81	-0.08016873
82	0xbe433b94	-0.19065696
83	0xbea33aa2	-0.3188067
84	0xbf01d085	-0.507088
85	0xbef0d7ee	-0.4703974
86	0x3f4a5650	0.7903795
87	0xbeba80e6	-0.36426467
88	0x3f4b26a6	0.7935585
89	0x3f70e958	0.94106054
90	0xbeacf036	-0.33777016
91	0xbea737be	-0.32659715
92	0xbe54e2e2	-0.20789674
93	0xbe404fdc	-0.18780464
94	0xbec8fad3	-0.39253864
95	0xbf781718	-0.9691024
96	0xbdf606a3	-0.120129846
97	0xbe5ed078	-0.21759212
98	0x3f6ad36c	0.91728854
99	0xbf0c16f2	-0.5472251
100	0x3e0385bd	0.12843986
101	0x3e9b8eb1	0.30382302
102	0xbe745d30	-0.23863673
103	0x3cbaaac8	0.022786513
104	0x3f6c99f7	0.9242243
105	0xbf2ec87c	-0.68274665
106	0xbe3552e5	-0.17707403
107	0xbe04f215	-0.12982972
108	0x3df434b3	0.11924114
109	0xbe552a7f	-0.20816992
110	0xbf0b12b6	-0.54325426
111	0xbe1de9d7	-0.15421234
112	0xbe3d4382	-0.18482783
113	0x3f35928c	0.7092674
114	0xbe188640	-0.14894962
115	0xbeaedc6c	-0.34152544
116	0x3f7aa818	0.9791274
117	0x3f82f1a4	1.0229993
118	0x3f194e8e	0.5988549
119	0x3f6fb818	0.9364028
120	0xbed85a44	-0.42256367
121	0xbdf7bfbb	-0.120971166
122	0xbe1da3f7	-0.15394579
123	0xbe25e2fa	-0.16199866
124	0xbf8440aa	-1.0332234
125	0xbf105e8c	-0.5639427
126	0xbebeac4d	-0.3724083
127	0xbd625c7c	-0.05526398

weight f4 [1, 128]
0	0x3d85ea08	0.065387785
1	0xbe43e97a	-0.19132033
2	0x3e4dec78	0.20109737
3	0xbc640616	-0.013917467
4	0xbe1b2d4e	-0.15154001
5	0x3e090224	0.13379723
6	0x3e358318	0.1772579
7	0xbd27983c	-0.040916666
8	0x3dc2d801	0.09513856
9	0xbdfd4ef8	-0.12368578
10	0x3e172300	0.14759445
11	0xbe27aa7b	-0.16373627
12	0x3e03ac8c	0.1285879
13	0xbc212ecd	-0.009837818
14	0x3da10dcc	0.0786396
15	0x3db9ac66	0.090660855
16	0x3d5dbdb2	0.054135986
17	0x3dc31db6	0.09527151
18	0x3c4a641e	0.012352971
19	0xbd2e8b7d	-0.042613495
20	0x3e004d39	0.12529458
21	0x3b14f758	0.0022730436
22	0x3ea3e2af	0.32008883
23	0x3dd1183b	0.102097
24	0xbaf42619	-0.0018627077
25	0x3d694cb4	0.056957915
26	0x3e364726	0.17800578
27	0xbcdfea3a	-0.027333368
28	0x3e8f3834	0.27972567
29	0x3ea0c912	0.31403404
30	0xbe38aace	-0.18033907
31	0x3e5d9fa9	0.21642937
32	0x3e585438	0.21125877
33	0x3e85c404	0.2612611
34	0x3dc53646	0.096294925
35	0x3de9ab8f	0.11409675
36	0x3e9a26f2	0.30107838
37	0x3e7ce238	0.2469567
38	0x3dbb4224	0.09143475
39	0x3ee43015	0.44567934
40	0x3ea3f233	0.3202072
41	0xbe03699a	-0.12833253
42	0x3d867f7f	0.06567287
43	0x3d7c743e	0.061634295
44	0xbe4fd05b	-0.20294325
45	0x3e57435e	0.21021792
46	0x3de0e38a	0.109809
47	0xbe7b106f	-0.24517988
48	0xbe29c594	-0.16579276
49	0x3dbea734	0.09309235
50	0x3dbb9f36	0.091612265
51	0x3b192a0d	0.0023371011
52	0xbb3fe780	-0.0029282272
53	0x3ec077bd	0.37591353
54	0x3eb7e70a	0.35918456
55	0xbe3b3274	-0.18280965
56	0x3e03b756	0.12862906
57	0x3d3e0de1	0.046399955
58	0x3d02c6b2	0.031927772
59	0x3c986764	0.018603988
60	0x3e151c34	0.1456154
61	0x3ea3c142	0.31983382
62	0x3ea08dee	0.31358284
63	0x3cd94eea	0.026526887
64	0x3ded620f	0.11590969
65	0xbe0b3f0a	-0.13598266
66	0x3c09fc15	0.008421917
67	0x3e6d83c8	0.23194802
68	0x3e82c6a7	0.25542185
69	0x3e98bb5a	0.29830438
70	0x3e8b6e0e	0.27232403
71	0x3a146ef4	0.0005662285
72	0x3f0ade62	0.5424558
73	0x3d78b662	0.06072081
74	0x3ebb91c4	0.36634648
75	0x3e431f96	0.19055018
76	0xbe337c64	-0.1752792
77	0x3cc27e9a	0.023742009
78	0x3e259c59	0.16172923
79	0x3ec8e7a4	0.39239228
80	0x3cf53c02	0.02993584
81	0xbcac3b1c	-0.02102428
82	0xbc4ba200	-0.0124287605
83	0x3e9d2c41	0.30697826
84	0x3e1c9970	0.15292907
85	0xbcb236fa	-0.02175473
86	0x3e718236	0.23584828
87	0x3d7b6872	0.061378904
88	0x3e76763b	0.24068539
89	0x3e9a968c	0.30192983
90	0xbcca41ce	-0.024689581
91	0xbe4787ef	-0.19485448
92	0x3dfac4b6	0.12244551
93	0xbdd3d4ba	-0.10343309
94	0xbe0fa7b6	-0.1402882
95	0xbe8b052c	-0.27152383
96	0x3de84d2a	0.11342843
97	0x3df30a48	0.11867195
98	0x3ee98e8c	0.45616567
99	0xbe85523d	-0.26039305
100	0x3f31b632	0.69418633
101	0x3cf9dedc	0.030501775
102	0x3d9effc4	0.07763627
103	0xbc21f3ec	-0.009884816
104	0x3ed2ac04	0.41146863
105	0xbe3bfd98	-0.18358457
106	0x3e23fdea	0.1601483
107	0x3e092bf2	0.1339567
108	0xba3e6264	-0.0007262586
109	0x3c8052fe	0.015664574
110	0x3eeda2cf	0.46413276
111	0x3e079714	0.13241225
112	0xbe35d24c	-0.17756003
113	0x3e481e88	0.19542897
114	0x3dd7fafe	0.1054592
115	0x3d856d6a	0.0651501
116	0x3ee5d94c	0.44892347
117	0x3ef499c2	0.47773558
118	0x3dbeecfa	0.093225434
119	0x3eca2544	0.39481556
120	0xbdc321a8	-0.09527904
121	0x3ca21e7e	0.01978993
122	0xbdabfade	-0.083974585
123	0xbdf40643	-0.11915257
124	0xbe6cffb7	-0.23144422
125	0x3efe906e	0.49719566
126	0x3e1344ca	0.1438171
127	0x3d1ced90	0.038312495
