DQL/61lunar_checkpoint.pth (torch_old, 143262 bytes, 8 tensors)

weight f4 [128, 8]
0.6301179 0.5149495 -0.62254566 -0.45982164 2.2863252 3.1793306 -2.950855 -0.44691432
0.32188222 0.103877015 -0.2846162 0.9441304 2.079236 -3.065771 -1.8150191 -1.8580768
-1.729789 -3.349349 1.19117 -1.1590838 -0.8630186 -0.68834317 -1.0169296 -2.266059
-0.0121065825 0.36440152 -1.1969383 1.1886157 0.6600037 3.5945573 0.13651149 -0.45578015
0.9317771 -4.15149 1.6234541 -1.3513895 4.2363625 0.57016116 0.481368 0.6419828
1.9617245 -2.0699687 1.2861437 0.118828356 -0.44574302 -0.2470739 0.77237564 0.80253136
-0.5034318 -0.106241256 -0.041123863 0.25168884 -0.17735758 0.15186283 0.24947244 -0.8346511
0.117806 -0.13939643 -0.29209268 0.27216196 0.2336722 0.12413953 -0.4660303 -0.3126094
0.09353058 -0.62641543 0.14883539 0.18073213 -0.038028747 -0.39657015 -0.53109896 -0.32625592
-0.27451414 -0.17578466 -0.217572 0.3229534 -0.061444823 -0.22818443 -0.4119487 -0.42835528
-1.4773092 -0.9465529 -0.1823882 1.7073798 1.5146971 0.1011708 -1.3777401 1.2470188
-0.90371406 1.1917026 0.5776982 0.82329047 1.998615 -1.321077 -0.04306551 -1.149636
-0.13566115 -1.0115825 0.11845323 0.3615719 0.5365251 0.20939898 0.3065278 -0.768765
-0.24220628 -1.3011295 -0.010309935 -0.44621044 -1.2739384 -0.7444477 0.0248193 -1.4965103
-0.48653406 -2.5357308 0.32130966 0.10347526 -1.0014012 0.85011744 0.19566628 -1.2229278
1.5039444 -0.1750763 -1.1384867 2.067734 0.8857392 -0.17000327 -0.6828432 0.880798
0.07461311 -0.43703657 -0.20876575 0.23944262 0.21519902 -0.2611938 0.09742628 -0.27718702
-0.8633466 -0.32627538 0.054464087 0.5543815 0.7086237 -0.6121385 -0.7192935 -0.35151964
-0.20139782 -0.2822015 3.0978255 1.9975791 2.979124 -0.41821504 0.24834993 0.97432506
0.0563329 0.874627 -1.4298372 0.09786337 -0.007156357 -2.0164037 -1.6738088 1.8345568
1.1550566 -0.7010002 -1.9138718 1.16606 3.3298023 -1.4334086 0.728595 -0.57308614
-0.36083174 -0.8687781 0.1682556 0.53127414 0.2623235 -0.08222531 -0.36879814 -0.15558885
-0.35490274 0.12829079 0.009147735 0.85889256 0.18378581 -0.83215904 -0.78330255 -0.9214225
-0.09484711 -0.455464 0.031902052 0.08086152 0.16759762 0.06287022 -0.43434638 -0.1805875
0.79495585 -0.090537384 0.5541809 0.2630277 0.32244188 2.1663532 0.857811 -1.035792
0.14628454 -0.31378856 -0.43401963 -2.1470227 -0.16684927 2.2625847 1.167709 -0.3279818
0.27097815 -2.9779434 -0.2689731 -0.83442295 -0.2559516 1.3891158 0.1632731 -2.1770902
-0.12603636 -2.6122887 -0.40414917 -0.7802472 0.997326 1.2671229 1.302655 -1.7707369
-0.032891117 -0.54881936 -0.12111354 0.5330367 -0.38641024 0.3787011 -0.062249124 0.16512926
-0.5370841 -2.5642734 0.018428994 0.031406738 0.4641682 0.128434 -0.6901517 -1.1516339
-0.81714225 -0.44265908 0.10706177 0.29578868 0.1323319 0.34830332 0.038477145 0.6151231
-0.2867819 -1.8279283 -0.03926917 -0.54067993 -1.1052233 -0.08889117 -0.2997495 -2.2495818
00000000: 684f 213f bbd3 033f 275f 1fbf be6d ebbe
00000010: 2753 1240 277a 4b40 cfda 3cc0 f4d1 e4be
00000020: bfcd a43e 79bd d43d 37b9 91be 88b2 713f
00000030: 3412 0540 9835 44c0 8c52 e8bf 76d5 edbf
00000040: ba69 ddbf bc5b 56c0 4278 983f dc5c 94bf
00000050: c9ee 5cbf 4237 30bf c02a 82bf 1c07 11c0
00000060: b05a 46bc d692 ba3e 4635 99bf 8f24 983f
00000070: 01f6 283f 3a0d 6640 abc9 0b3e 045c e9be
00000080: f288 6e3f 02d9 84c0 58cd cf3f 55fa acbf
00000090: 4890 8740 15f6 113f de75 f63e fc58 243f
000000a0: ca19 fb3f 5e7a 04c0 5ba0 a43f 485c f33d
000000b0: 6e38 e4be f100 7dbe 69ba 453f b272 4d3f
000000c0: e8e0 00bf 0495 d9bd 7f71 28bd 5cdd 803e
000000d0: 3a9d 35be ee81 1b3e b475 7f3e b2ab 55bf
000000e0: 4644 f13d f0bd 0ebe 2c8d 95be d058 8b3e
000000f0: c447 6f3e de3c fe3d 869b eebe 570e a0be
00000100: f68c bf3d c35c 20bf 4e68 183e d811 393e
00000110: 08c4 1bbd 3e0b cbbe 1af6 07bf 040b a7be
00000120: 1e8d 8cbe e500 34be 32cb 5ebe 265a a53e
00000130: 91ad 7bbd 2ea9 69be f1ea d2be 6251 dbbe
00000140: 7818 bdbf 4a51 72bf f9c3 3abe 6c8b da3f
00000150: 98e1 c13f a332 cf3d ca59 b0bf 509e 9f3f
00000160: ce59 67bf b689 983f 07e4 133f 2ac3 523f
00000170: 9ed2 ff3f 0d19 a9bf 7665 30bd 4627 93bf
00000180: c2ea 0abe 897b 81bf 9b97 f23d f41f b93e
00000190: b559 093f b06c 563e 36f1 9c3e c8cd 44bf
000001a0: ec04 78be 698b a6bf 00eb 28bc b275 e4be
000001b0: 6a10 a3bf 2094 3ebf d851 cb3c a68d bfbf
000001c0: fe1a f9be 6a49 22c0 b382 a43e d6ea d33d
000001d0: ea2d 80bf 4ca1 593f be5c 483e e688 9cbf
000001e0: 4081 c03f 3447 33be efb9 91bf c155 0440
000001f0: cebf 623f 5615 2ebe d0ce 2ebf fa7b 613f
00000200: c2ce 983d 42c3 dfbe b0c6 55be 7230 753e
00000210: 225d 5c3e 32bb 85be 6e87 c73d 75eb 8dbe
00000220: 4804 5dbf 910d a7be bc15 5f3d f2eb 0d3f
00000230: 5d68 353f 1cb5 1cbf 9e23 38bf 62fa b3be
00000240: 3b3b 4ebe b77c 90be c642 4640 acb0 ff3f
00000250: f8a9 3e40 4820 d6be 724f 7e3e 5e6d 793f
00000260: 54bd 663d 8ee7 5f3f e804 b7bf 976c c83d
00000270: e07f eabb c20c 01c0 5e3f d6bf c2d2 ea3f
00000280: e5d8 933f c074 33bf c0f9 f4bf 7441 953f
00000290: 7b1b 5540 ef79 b7bf 3485 3a3f c6b5 12bf
000002a0: f0be b8be 3e68 5ebf 324b 2c3e 9501 083f
000002b0: 444f 863e be65 a8bd 1cd3 bcbe af52 1fbe
000002c0: d0b5 b5be a95e 033e 62e0 153c 62e0 5b3f
000002d0: 5932 3c3e 6008 55bf 8486 48bf 58e2 6bbf
000002e0: 343f c2bd 9432 e9be baab 023d b99a a53d
000002f0: b69e 2b3e 1ac2 803d a662 debe eeeb 38be
00000300: 3a82 4b3f aa6b b9bd cdde 0d3f 91ab 863e
00000310: 1a17 a53e 88a5 0a40 8099 5b3f d594 84bf
00000320: 9dcb 153e e5a8 a0be d237 debe d268 09c0
00000330: 89da 2abe 30ce 1040 7d77 953f 3bed a7be
00000340: a6bd 8a3e a096 3ec0 d8b6 89be be9c 55bf
00000350: 170c 83be 8cce b13f 1031 273e 7255 0bc0
00000360: ad0f 01be bd2f 27c0 a4ec cebe 48be 47bf
00000370: c250 7f3f 1531 a23f 66bd a63f 82a7 e2bf
00000380: d6b8 06bd 6d7f 0cbf 600a f8bd 1875 083f
00000390: 90d7 c5be 1ce5 c13e f0f8 7ebd a517 293e
000003a0: 587e 09bf 0e1d 24c0 67f8 963c 5aa4 003d
000003b0: 74a7 ed3e 3484 033e c8ad 30bf bd68 93bf
000003c0: 3c30 51bf 36a4 e2be 3443 db3d 9d71 973e
000003d0: 0382 073e d054 b23e 369a 1d3d b578 1d3f
000003e0: 14d5 92be 8ef9 e9bf b6d8 20bd 006a 0abf
000003f0: f577 8dbf 930c b6bd c478 99be 26f9 0fc0

bias f4 [128]
-0.64378625 0.060659632 0.12072568 0.65582234 -1.2272146 -0.8650131 -1.1672254 -0.80311394
-1.3448588 -0.79483235 0.87373555 -0.2872429 -0.6595727 -1.603154 -1.7482095 -0.72678167
-0.9051602 -1.515635 -0.19477919 -0.80012155 0.71224165 -0.8177657 -1.167575 -0.36010945
-1.1398818 -0.07634665 -1.4153306 -0.64370674 -0.98015773 -1.0778549 -1.2268133 -1.2298378
0.03695322 -0.13101502 0.6055699 -1.0509799 -0.9192128 -0.33865905 0.15251982 -0.55212986
-1.3630524 -0.959582 -0.9419563 -1.5175896 -1.7487977 0.6699291 -0.8583816 -0.951851
-0.5873952 -0.62330675 -0.27050903 -0.64028174 0.19021702 -0.7899622 -0.6893433 0.5997469
-0.03693595 -0.4474018 -1.7954152 -0.57016045 -0.41860527 -1.3012475 -0.38304254 -0.45254487
-0.5727435 -0.15405142 -1.4626617 -0.6292075 1.0810168 -0.35768792 -0.60044396 -2.116455
-0.5256872 -0.80927694 -0.8254741 -0.8335911 0.47462517 -0.34401947 -0.93616796 0.24894802
0.66900694 -1.2559332 -0.95154834 -0.14656584 -0.9554558 -1.0315361 -0.98817515 -0.44223675
-0.6882382 0.65362024 -0.7408507 -0.42002404 -0.5643888 0.3697004 0.16995677 -1.0486395
0.05735992 -0.33615953 -0.51794314 -0.94806826 -0.6908282 -1.1434457 -0.6037518 -1.3788294
-0.29886672 -1.0925858 -0.22874337 0.40387085 0.07139926 -0.30150557 -0.66402256 -1.1339955
-1.682447 -0.49491 -0.11676575 -0.41303807 -1.074994 -0.27852136 -1.1727176 -0.57901704
-1.096281 -1.3227341 -0.41782147 -0.8254416 -1.2579036 0.2214533 -0.6103315 -0.17191774
00000000: 2dcf 24bf 3c76 783d 063f f73d f9e3 273f
00000010: 5e15 9dbf 8071 5dbf a467 95bf e098 4dbf
00000020: 5524 acbf 227a 4bbf 22ad 5f3f 8011 93be
00000030: c2d9 28bf 2634 cdbf 54c5 dfbf 5d0e 3abf
00000040: 94b8 67bf 5400 c2bf 3274 47be c4d4 4cbf
00000050: 7855 363f 1859 51bf 1973 95bf 4460 b8be
00000060: a6e7 91bf a25b 9cbd 8e29 b5bf f7c9 24bf
00000070: 9eeb 7abf 26f7 89bf 3808 9dbf 536b 9dbf
00000080: 425c 173d cd28 06be a106 1b3f 8286 86bf
00000090: 8851 6bbf b864 adbe 282e 1c3e 6258 0dbf
000000a0: 8078 aebf 2aa7 75bf 0c24 71bf 6040 c2bf
000000b0: 9ad8 dfbf 7980 2b3f e6be 5bbf 82ac 73bf
000000c0: 885f 16bf 0891 1fbf 2980 8abe 81e9 23bf
000000d0: 40c8 423e f63a 4abf cd78 30bf 0389 193f
000000e0: 274a 17bd d911 e5be 2ad0 e5bf 09f6 11bf
000000f0: 6e53 d6be 478f a6bf 271e c4be f6b3 e7be
00000100: 519f 12bf a8bf 1dbe 8038 bbbf be13 21bf
00000110: c25e 8a3f df22 b7be b2b6 19bf 0074 07c0
00000120: 7093 06bf c62c 4fbf 4552 53bf 3a66 55bf
00000130: 1202 f33e 5223 b0be b4a8 6fbf 3bec 7e3e
00000140: 0a44 2b3f 6bc2 a0bf ac98 73bf 5b15 16be
00000150: c098 74bf 6009 84bf 0cf9 7cbf db6c e2be
00000160: 6130 30bf a853 273f 64a8 3dbf 640d d7be
00000170: c97b 10bf 5f49 bd3e 2609 2e3e d239 86bf
00000180: 3cf2 6a3d 1a1d acbe ec97 04bf 9ab4 72bf
00000190: 1eda 30bf 6e5c 92bf 7a8f 1abf 7b7d b0bf
000001a0: 0f05 99be dad9 8bbf b43b 6abe 29c8 ce3e
000001b0: c639 923d f05e 9abe 62fd 29bf c426 91bf
000001c0: 6c5a d7bf d864 fdbe e222 efbd ba79 d3be
000001d0: 6799 89bf 5a9a 8ebe 9c1b 96bf 763a 14bf
000001e0: f052 8cbf 5a4f a9bf b2ec d5be 2450 53bf
000001f0: fc02 a1bf a7c4 623e af3e 1cbf 340b 30be

weight f4 [128, 128]
-0.10762113 -0.021273695 0.054784335 -0.062831014 -0.065359056 0.087667085 -0.030628745 0.0009407699
-0.067841135 -0.052406505 0.0037075747 -0.05760149 -0.18053092 0.08338269 0.027829595 -0.050049864
0.16390836 -0.038269043 -0.14259082 -0.043713477 -0.106080905 -0.07244804 0.080044664 -0.028350767
-0.07512211 -0.044139452 -0.07732354 -0.028733876 -0.17098168 -0.11833808 -0.100888655 -0.03753025
-0.09337096 -0.053989448 -0.09952765 -0.12740779 -0.12765974 -0.03711036 -0.0992485 -0.08751893
-0.02193613 -0.06736156 -0.0104845315 0.025080614 -0.01716613 -0.06954013 -0.11885254 -0.010177466
0.0635333 -0.14975926 0.03455694 -0.0005912706 -0.031934198 -0.16718225 0.007683374 -0.18145916
-0.16733098 -0.09727208 -0.051555984 -0.051796272 -0.04929291 -0.11436106 0.036311023 -0.043847684
-0.048029877 -0.012127563 -0.17213145 -0.030234713 -0.0297147 -0.09805477 0.0013389513 0.08239237
-0.096411094 -0.06328351 -0.059319146 -0.015204227 0.01208806 -0.09671481 0.082717694 -0.041178484
-0.09678601 -0.14346895 -0.18158498 -0.107153594 -0.14854512 -0.047411926 -0.074326515 -0.11125168
-0.0109317005 -0.117962494 -0.09223919 -0.019671047 -0.023041047 -0.015667744 -0.18246062 -0.12226854
-0.03628268 -0.0030773133 -0.051561546 -0.16146322 0.0032873377 -0.110113084 -0.16337594 0.01380185
-0.014272884 -0.08657644 -0.13524306 -0.108704284 -0.1810928 -0.04241682 0.018368974 -0.078852095
-0.018053591 -0.0776439 -0.042138588 -0.12705144 -0.17394924 -0.044441205 -0.05788482 0.088224016
-0.0029121563 -0.15883908 0.08441422 -0.13505295 -0.1738722 -0.015767131 -0.0043030977 -0.17047931
-0.028193336 0.038691126 -0.06533962 -0.05712644 0.0072738193 -0.017797 -0.045712 -0.022218898
-0.04476754 -0.095822126 -0.11665182 0.016908534 -0.14002466 -0.24557921 -0.23147437 0.01714369
0.088230826 -0.08039979 -0.1146747 -0.35503823 -0.13302878 -0.019717857 -0.2137019 0.0039479136
0.004995592 -0.056594938 0.017085519 -0.050048187 -0.12821847 -0.024479903 -0.31735596 -0.26765507
0.038812928 -0.0015234301 -0.11876391 -0.11005247 -0.1063077 0.028149534 -0.07227282 0.08355432
-0.07388435 0.06202195 -0.2894938 0.03699655 0.07988303 -0.05229818 0.008017177 -0.123392954
-0.041819252 -0.07700877 -0.21988797 0.079078026 -0.061975136 0.017310787 -0.12683117 -0.07839188
0.0671136 0.045762114 -0.25483382 -0.30430532 -0.011557117 -0.052912503 -0.2827196 -0.14783701
-0.06600717 -0.086231306 0.058812045 -0.3533715 -0.061889984 -0.29994944 -0.07840803 -0.043356605
-0.10259865 0.01151825 -0.10982396 0.018914938 -0.06364091 0.0069978237 -0.27526122 -0.017421097
-0.012952991 0.08452491 -0.08914605 -0.03361736 -0.3544855 -0.20081095 -0.016043127 0.02585201
0.03984215 -0.14769511 -0.06935266 -0.2977577 -0.0689394 -0.40811008 -0.097749725 -0.2875824
-0.08332956 -0.29957056 0.041958265 -0.03009617 -0.008373618 -0.30644923 0.010370531 -0.3408993
-0.02365125 -0.077372015 -0.019023582 -0.030175023 -0.33567262 0.014727227 -0.3535879 -0.084813565
-0.3338151 -0.28442422 -0.023106229 -0.009527378 -0.14745554 0.082294695 0.06370456 0.04951722
-0.280258 -0.13651446 0.06690615 -0.14041659 -0.05598492 0.0022721025 -0.104971394 -0.19772671
00000000: 7868 dcbd 2c46 aebc 8a65 603d 8cad 80bd
00000010: f8da 85bd cd8a b33d 22e9 fabc 009e 763a
00000020: 4bf0 8abd 34a8 56bd c8fa 723b 8aef 6bbd
00000030: 19dd 38be 8bc4 aa3d e4fa e33c 1601 4dbd
00000040: 98d7 273e 00c0 1cbd 5403 12be e70c 33bd
00000050: f240 d9bd a35f 94bd 75ee a33d de3f e8bc
00000060: 9fd9 99bd 92cb 34bd ce5b 9ebd 4e63 ebbc
00000070: d215 2fbe 3c5b f2bd b69e cebd 52b9 19bd
00000080: 4639 bfbd 0a24 5dbd 27d5 cbbd 3077 02be
00000090: 3cb9 02be 0801 18bd cc42 cbbd 203d b3bd
000000a0: 66b3 b3bc dcf4 89bd 50c7 2bbc dc75 cd3c
000000b0: fc9f 8cbc 0e6b 8ebd f668 f3bd 63bf 26bc
000000c0: bf1d 823d 7e5a 19be 948b 0d3d 80ff 1aba
000000d0: 6fcd 02bd d331 2bbe d0c4 fb3b 6ed0 39be
000000e0: d058 2bbe 9636 c7bd 5e2c 53bd 5428 54bd
000000f0: 5de7 49bd 2236 eabd deba 143d a199 33bd
00000100: faba 44bd b0b2 46bc 3a43 30be caae f7bc
00000110: 3e6c f3bc f0d0 c8bd c07f af3a 55bd a83d
00000120: 2e73 c5bd c99a 81bd a2f8 72bd 261b 79bc
00000130: 000d 463c 6a12 c6bd e567 a93d c5aa 28bd
00000140: be37 c6bd 86e9 12be 6af1 39be 5873 dbbd
00000150: 361c 18be 0233 42bd 8038 98bd ecd7 e3bd
00000160: e01a 33bc 5296 f1bd e7e7 bcbd 2d25 a1bc
00000170: 94c0 bcbc a459 80bc f5d6 3abe ee67 fabd
00000180: 269d 14bd c0ac 49bb 3332 53bd 9d56 25be
00000190: 6070 573b f882 e1bd 064c 27be 2821 623c
000001a0: d0d8 69bc fd4e b1bd 287d 0abe 5aa0 debd
000001b0: 6470 39be 42bd 2dbd 887a 963c 357d a1bd
000001c0: 20e5 93bc c403 9fbd 8399 2cbd c619 02be
000001d0: c01f 32be fb07 36bd a218 6dbd cbae b43d
000001e0: e0d9 3ebb b6a6 22be 5de1 ac3d 524b 0abe
000001f0: 8e0b 32be 122a 81bc 0001 8dbb 2192 2ebe
00000200: b6f5 e6bc 967a 1e3d c7d0 85bd 6afd 69bd
00000210: 3859 ee3b 04cb 91bc 823c 3bbd 6804 b6bc
00000220: 2b5e 37bd 643e c4bd 26e7 eebd c483 8a3c
00000230: a062 0fbe 1e79 7bbe 9e07 6dbe ec70 8c3c
00000240: 5db2 b43d a5a8 a4bd 92da eabd 92c7 b5be
00000250: b238 08be 5887 a1bc acd4 5abe 805d 813b
00000260: 10b2 a33b 18d0 67bd eef6 8b3c 54ff 4cbd
00000270: b44b 03be 148a c8bc 7b7c a2be 160a 89be
00000280: 4efa 1e3d d5ad c7ba 7e3a f3bd 3063 e1bd
00000290: dab7 d9bd da99 e63c c603 94bd 871e ab3d
000002a0: ae50 97bd ba0a 7e3d 8838 94be b289 173d
000002b0: b799 a33d 9e36 56bd 7a5a 033c 72b5 fcbd
000002c0: aa4a 2bbd c6b6 9dbd 502a 61be a9f3 a13d
000002d0: a4d9 7dbd 5acf 8d3c 08e0 01be ec8b a0bd
000002e0: db72 893d 0e71 3b3d 9479 82be e8cd 9bbe
000002f0: 105a 3dbc c8ba 58bd a0c0 90be 9662 17be
00000300: c42e 87bd 0a9a b0bd e6e4 703d 1ced b4be
00000310: 5a80 7dbd f992 99be 6494 a0bd b296 31bd
00000320: 3e1f d2bd 0bb7 3c3c 62eb e0bd 80f3 9a3c
00000330: 2a56 82bd 004e e53b 0aef 8cbe b0b6 8ebc
00000340: c838 54bc 651b ad3d 3492 b6bd 5bb2 09bd
00000350: 207f b5be 63a1 4dbe e06c 83bc 98c7 d33c
00000360: 8631 233d 633d 17be c408 8ebd b273 98be
00000370: 1a30 8dbd cef3 d0be 0231 c8bd 003e 93be
00000380: b0a8 aabd 5061 99be 6edc 2b3d 3e8c f6bc
00000390: 8031 09bc eae6 9cbe 29e9 293c 5a8a aebe
000003a0: 44c0 c1bc 3875 9ebd 58d7 9bbc 9c31 f7bc
000003b0: 48dd abbe 784a 713c 7909 b5be bcb2 adbd
000003c0: d0e9 aabe 0da0 91be 4649 bdbc b818 1cbc
000003d0: 96fe 16be 1f8a a83d 8977 823d 92d2 4a3d
000003e0: fa7d 8fbe 72ca 0bbe 1706 893d 5ec9 0fbe
000003f0: 7250 65bd 8ee7 143b 3efb d6bd df78 4abe

bias f4 [128]
-0.1730415 -0.30288845 -0.5904982 -1.7675798 1.1902151 0.65173763 -0.111546725 0.09981075
-0.6489984 -0.352153 -0.33168596 -0.5094921 -0.29198575 -0.21145487 0.057246298 -0.59064484
-0.061640374 -0.79122794 -0.32531214 -0.043455135 -0.20936298 -0.6139399 -0.06852881 1.3942828
-0.13640885 0.9402572 -0.14325881 0.03988965 -0.12433334 -0.055798598 -1.5472798 -1.3873607
-0.36076748 -0.15632501 -0.2959595 -0.27679205 -0.056440353 -0.407808 -0.004090403 -0.33902818
-0.16580641 -0.8349615 -0.8694409 -0.052156866 -2.4172363 -0.11939554 0.5816347 -1.1590729
-1.1491618 1.0420685 2.3809469 -1.7598879 -0.45966572 -1.3932667 -0.34583297 -0.5292827
-0.44786638 -0.3332139 -0.0990693 -0.2849273 -0.89462006 1.0039581 -0.4456331 -1.3855687
-0.037664622 0.22410977 0.83339024 -0.3628657 0.023931962 -0.06126263 -0.20825472 -0.21040557
0.07515112 -0.19453403 -0.24551544 -0.39172125 0.28209475 -1.7503097 0.6387815 -0.11847018
-0.25762382 -0.4168617 -0.34832367 -0.46829677 -0.20568219 -0.09701556 -0.40939218 -0.10147635
-1.7578619 1.145678 -0.13607827 -0.47683483 -0.36820298 -0.76726633 -0.310637 0.7153102
-0.23408824 -0.22259074 -0.14669773 -0.48655128 -0.8956777 -0.16839345 -0.061798103 -0.098037064
-0.07847893 -0.5295775 0.019721266 -0.38444185 -1.765235 -1.1745002 -0.867085 -0.9324521
-0.090880975 -0.17410918 -0.14910245 0.19367847 -1.8776546 -0.4067452 -0.64009476 -0.054219395
-0.42128885 -0.24609995 0.7481302 -0.30277106 -0.013686756 -0.5035693 -0.36237377 0.69582975
00000000: ca31 31be 3214 9bbe e42a 17bf 0e40 e2bf
00000010: f858 983f 47d8 263f 9c72 e4bd 9469 cc3d
00000020: c224 26bf 664d b4be bed2 a9be 136e 02bf
00000030: 287f 95be a087 58be 187b 6a3d 8034 17bf
00000040: 9e7a 7cbd ea8d 4abf 508f a6be 03fe 31bd
00000050: 4063 56be 2a2b 1dbf d558 8cbd dc77 b23f
00000060: c3ae 0bbe b2b4 703f 70b2 12be 5463 233d
00000070: 7aa2 febd 128d 64bd 440d c6bf 0995 b1bf
00000080: 84b6 b8be aa13 20be 0188 97be b0b7 8dbe
00000090: 002e 67bd 36cc d0be ca08 86bb 1a95 adbe
000000a0: 28c9 29be 09c0 55bf ae93 5ebf 70a2 55bd
000000b0: 00b4 1ac0 a685 f4bd 03e6 143f 805c 94bf
000000c0: bc17 93bf 8062 853f 6f61 1840 0244 e1bf
000000d0: 4e59 ebbe 9056 b2bf 0511 b1be 127f 07bf
000000e0: be4e e5be 039b aabe d8e4 cabd fee1 91be
000000f0: d205 65bf b381 803f 062a e4be 515a b1bf
00000100: 3846 1abd 087d 653e 1059 553f 88c9 b9be
00000110: f60c c43c 86ee 7abd ba40 55be 8f74 57be
00000120: d5e8 993d ee33 47be 6668 7bbe b08f c8be
00000130: b96e 903e 260a e0bf 2f87 233f 7ea0 f2bd
00000140: 45e7 83be e66e d5be 7b57 b2be 98c4 efbe
00000150: 5a9e 52be 18b0 c6bd da9b d1be d5d2 cfbd
00000160: 9e01 e1bf 94a5 923f 1a58 0bbe b223 f4be
00000170: 1a85 bcbe 916b 44bf d00b 9fbe 921e 373f
00000180: d4b4 6fbe d4ee 63be ee37 16be 401d f9be
00000190: 224b 65bf 556f 2cbe 0220 7dbd a8c7 c8bd
000001a0: 90b9 a0bd 6492 07bf 7e8e a13c 90d5 c4be
000001b0: 38f3 e1bf 0656 96bf 48f9 5dbf 2eb5 6ebf
000001c0: ce1f babd ad49 32be 50ae 18be a653 463e
000001d0: fc56 f0bf e840 d0be 40dd 23bf 2815 5ebd
000001e0: 2cb3 d7be a001 7cbe 7685 3f3f cf04 9bbe
000001f0: 6a3e 60bc ebe9 00bf 0e89 b9be e621 323f

weight f4 [128, 128]
0.04603099 0.07660671 -0.038807932 -0.19295457 -0.28087068 -0.61170137 -0.025310338 -0.4633739
-0.058254424 -0.042389814 0.061969392 -0.07940291 -0.003542222 -0.031651944 -0.14170906 0.075981
-0.055229284 -0.044570997 0.0012320504 -0.459458 -0.07419884 -0.75340223 -0.011494443 -0.3112412
-0.16291235 0.03343097 -0.061500143 0.0349429 -0.010687619 -0.05582762 -0.14580303 -0.10121009
0.0023247898 0.057734422 -0.013442494 0.07335194 -0.08310529 -0.052845083 -0.06256544 -0.078865886
-0.06507761 -0.065870896 0.030288324 0.07292507 -0.08253795 0.026847571 -0.84409463 -0.48714834
0.07223786 -0.49505508 0.03128075 -0.07254711 -0.17532569 -0.16347042 0.057329543 -0.07720947
-0.015460372 -0.06537338 0.006934695 0.0006650016 -0.20277509 -0.36332443 -0.3110348 0.0700519
0.029015489 0.08506111 -0.06343998 -0.07754021 0.019251466 0.070517085 0.08247242 -0.2799974
-0.07617776 -0.006078385 -0.08835965 -0.06328271 -0.76437104 -0.45034873 -0.7207273 0.077401645
0.021916792 -0.051245973 0.0874862 0.045690857 -0.037884194 -0.06941253 -0.03263518 -0.07558655
-0.1091135 -0.45921212 -0.007778518 0.048701383 0.015081666 -0.08556753 -0.023554452 -0.009208173
0.06558689 -0.022721976 0.023295186 -0.058856122 0.05284413 -0.044223644 0.0116365105 -0.034803107
0.075364314 0.034393005 0.0064426437 -0.0074354187 -0.22206652 -0.11388457 -0.007313177 0.03662143
-0.038153507 0.042747237 0.025846608 -0.1828314 -0.17232305 -0.2651832 -0.13469131 -0.011942416
-0.00016211718 0.007173218 -0.7534169 -0.04845285 0.01971148 0.037882008 -0.49755758 -0.38904285
-0.049180493 -0.13576916 -0.029468514 -0.0873887 -0.15840577 -0.35248232 -0.025619306 -0.050583053
-0.05086621 -0.13929938 0.078948416 -0.08458498 -0.12912512 -0.027800698 -0.08361945 0.02575925
0.020566992 -0.014199918 -0.0046402207 -0.46283412 -0.036012985 -0.22811249 -0.056172498 -0.04503971
-0.12449321 0.05890564 -0.05368741 -0.13165352 0.020142704 0.07989777 -0.08392975 0.1243161
-0.025022486 -0.07444613 -0.13419804 0.03718333 -0.035978276 -0.0040998217 -0.12848732 0.0657207
0.031017296 -0.090331 -0.14290616 0.020790353 -0.05386798 -0.13012764 -0.1983479 -0.055313643
0.010260754 -0.15563849 -0.15970534 0.023530569 -0.42003167 -0.76894844 0.02191417 0.018544942
-0.08089821 0.07980994 0.06349427 0.02494349 -0.18451546 -0.51019174 -0.18972802 -0.24012941
0.027122721 -0.33523655 -0.27595884 -0.10663687 -0.0058565764 -0.108266786 -0.0658005 -0.22601551
-0.08243746 0.047123067 0.013934841 -0.047343913 -0.061981574 0.20019907 -0.08056704 -0.073866345
0.04939861 0.06859461 0.035539158 -0.10145161 0.08125558 0.14143975 -0.044348452 -0.037344202
-0.07916773 -0.2105597 -0.005761549 0.052523606 -0.060620762 -0.06573747 0.0072235996 -0.2512125
0.07301321 -0.052082017 -0.06364179 -0.006528333 -0.21995258 -0.06325281 0.033216923 0.08837556
-0.05381082 0.026550252 -0.027091857 -0.04906902 -0.18312973 -0.16395874 -0.014443357 -0.021011524
-0.049799003 0.018654153 0.08457344 -0.23999 0.37871292 -0.40973812 -0.059484422 -0.2709844
-0.06303924 0.0038300152 -0.2624769 0.019797217 -0.028261997 -0.033599935 -0.06934261 -0.19760832
00000000: fe8a 3c3d fbe3 9c3d 11f5 1ebd e295 45be
00000010: 48ce 8fbe 7698 1cbf a057 cfbc 583f edbe
00000020: 319c 6ebd f1a0 2dbd 9ed3 7d3d fe9d a2bd
00000030: a024 68bb 78a5 01bd 2e1c 11be ed9b 9b3d
00000040: 1a38 62bd 1490 36bd c07c a13a 143e ebbe
00000050: 90f5 97bd f8de 40bf 3053 3cbc 025b 9fbe
00000060: 7fd2 26be eaee 083d 93e7 7bbd 4920 0f3d
00000070: 201b 2fbc 81ab 64bd 644d 15be 3c47 cfbd
00000080: 805b 183b ee7a 6c3d e83d 5cbc 8b39 963d
00000090: 1b33 aabd 1674 58bd 4f22 80bd 7084 a1bd
000000a0: 6947 85bd 52e7 86bd 381f f83c bd59 953d
000000b0: a809 a9bd 70ef db3c 9616 58bf 826b f9be
000000c0: 71f1 933d dc77 fdbe 3e20 003d 9493 94bd
000000d0: 9488 33be ca64 27be 62d2 6a3d 0020 9ebd
000000e0: 804d 7dbc 7be2 85bd 703c e33b 8053 2e3a
000000f0: 46a4 4fbe a905 babe f43f 9fbe 5f77 8f3d
00000100: e4b1 ed3c 8534 ae3d d2ec 81bd 67cd 9ebd
00000110: 40b5 9d3c 436b 903d 4de7 a83d d25b 8fbe
00000120: 1603 9cbd 302d c7bb e7f5 b4bd 5e9a 81bd
00000130: d2ad 43bf 1c94 e6be 9681 38bf c184 9e3d
00000140: d88a b33c 4ce7 51bd f72b b33d 5626 3b3d
00000150: 752c 1bbd 2828 8ebd 77ac 05bd 1fcd 9abd
00000160: e676 dfbd da1d ebbe f0e2 febb 1a7b 473d
00000170: 1819 773c 073e afbd 44f5 c0bc e0dd 16bc
00000180: 6b52 863d 7023 babc 8cd5 be3c 1e13 71bd
00000190: 1673 583d da23 35bd 10a7 3e3c b48d 0ebd
000001a0: 9b58 9a3d aedf 0c3d d01c d33b d0a4 f3bb
000001b0: 6865 63be 503c e9bd 60a3 efbb 5a00 163d
000001c0: da46 1cbd ba17 2f3d 44bc d33c 2838 3bbe
000001d0: 7475 30be 18c6 87be 85ec 09be 20aa 43bc
000001e0: 00fe 29b9 500d eb3b eedf 40bf 7f76 46bd
000001f0: f879 a13c 2a2a 1b3d debf febe a030 c7be
00000200: 7c71 49bd 1207 0bbe f467 f1bc d9f8 b2bd
00000210: 1f35 22be 9078 b4be 94df d1bc 2d30 4fbd
00000220: 1659 50bd 7fa4 0ebe b5af a13d e43a adbd
00000230: 6039 04be 4abe e3bc ad40 abbd 1005 d33c
00000240: 1c7c a83c c6a6 68bc fe0c 98bb 98f8 ecbe
00000250: 5a82 13bd 5296 69be 2215 66bd 8f7b 38bd
00000260: 4cf6 febd 0a47 713d 54e7 5bbd 2ed0 06be
00000270: 5002 a53c 71a1 a33d 5ce3 abbd 7099 fe3d
00000280: f5fb ccbc 3677 98bd 366b 09be 8c4d 183d
00000290: f55d 13bd cc57 86bb 2e92 03be 9398 863d
000002a0: fc17 fe3c 76ff b8bd fe55 12be 8850 aa3c
000002b0: aca4 5cbd 2e40 05be b61b 4bbe 8f90 62bd
000002c0: b91c 283c b25f 1fbe cc89 23be 2ec3 c03c
000002d0: 640e d7be ced9 44bf 5885 b33c 90eb 973c
000002e0: f6ad a5bd 6573 a33d 4909 823d 4a56 cc3c
000002f0: 9ff1 3cbe ed9b 02bf 1048 42be 7ce4 75be
00000300: 7830 de3c 20a4 abbe 7a4a 8dbe 6e64 dabd
00000310: 86e8 bfbb faba ddbd 6ac2 86bd 9c70 67be
00000320: f9d4 a8bd 1e04 413d f64e 643c b1eb 41bd
00000330: 64e0 7dbd fc00 4d3e 5500 a5bd 3d47 97bd
00000340: 3256 4a3d 557b 8c3d 8291 113d ddc5 cfbd
00000350: 5369 a63d 95d5 103e b9a6 35bd 3cf6 18bd
00000360: b122 a2bd f69c 57be 60cb bcbb fe22 573d
00000370: 7a4d 78bd 5ea1 86bd f2b3 ec3b ed9e 80be
00000380: f387 953d f453 55bd a056 82bd a0eb d5bb
00000390: 403b 61be b08a 81bd 780e 083d 3ffe b43d
000003a0: bc68 5cbd ea7f d93c beef ddbc 99fc 48bd
000003b0: 5c86 3bbe cde4 27be d4a3 6cbc 5c20 acbc
000003c0: 0afa 4bbd 98d0 983c d734 ad3d f0bf 75be
000003d0: a9e6 c13e 32c9 d1be f0a5 73bd 78be 8abe
000003e0: b81a 81bd fe00 7b3b 5f63 86be c62d a23c
000003f0: b485 e7bc 16a0 09bd 8003 8ebd d659 4abe

bias f4 [128]
-0.44289732 -0.114987485 -0.47701535 3.1255348 -0.6340557 1.943579 -0.49826688 -0.24898788
-0.87515163 2.3879938 -0.36958253 -0.8739847 -0.46483988 -0.47533804 -0.2880507 -0.41170642
-0.08724597 -0.6297014 -0.36188936 2.799494 1.516735 1.1382492 1.5508046 -0.83339775
-0.8002129 -0.9456384 -0.4308101 0.9211153 -0.5332079 -0.3269419 -1.3186034 -0.115577474
-0.14213642 -0.66506404 -0.6204208 0.812045 -0.9917977 -0.38421977 -0.34688297 -0.23775646
1.7472749 1.3091944 -0.1118657 -0.5636555 -0.4270861 -0.18432406 0.027534008 -0.5588252
-0.61499643 2.7286158 0.121627524 -0.27634007 -0.26789337 -0.689204 -0.2979553 -0.3227151
-0.26933563 -0.5336907 -0.2461206 -0.41019753 0.3925311 0.23765782 -0.47934264 -0.67231566
-0.6776207 1.172372 1.7569344 -0.041376974 -0.31783438 1.129089 -0.41715348 -0.04506103
0.8463397 -0.5311131 -0.573331 -0.08158478 1.4260052 2.9891615 0.24323022 -0.6496751
1.5200796 -0.7203304 0.011042032 -0.19702432 -0.41331637 0.39909792 -0.33320725 0.22230765
-0.18257223 -0.72067356 1.6786702 -0.4857561 -0.43677795 -0.5759706 -0.45035672 -0.034854434
-0.37170663 0.7631619 -0.4991628 -0.47952896 -0.3400622 -0.45661885 1.3365374 -0.6203886
-0.26422918 1.8857808 -0.41148996 0.4201687 -0.0060066814 -0.27729326 0.21281177 -0.3356306
-0.30392382 -0.19791968 -0.2488766 -0.3055399 -0.36008433 2.0956345 0.54073846 0.573081
-0.273481 -0.2564566 -0.37318045 -0.06757435 0.14175864 -0.13408072 1.2724462 1.6505377
00000000: 70c3 e2be 8f7e ebbd 5b3b f4be c308 4840
00000010: 7951 22bf 32c7 f83f d61c ffbe aef6 7ebe
00000020: f009 60bf e4d4 1840 ec39 bdbe 76bd 5fbf
00000030: 7eff edbe 825f f3be 627b 93be 2fcb d2be
00000040: 04ae b2bd 1c34 21bf 9049 b9be e92a 3340
00000050: 5f24 c23f 26b2 913f c480 c63f 8e59 55bf
00000060: c1da 4cbf 5c15 72bf 2493 dcbe 36ce 6b3f
00000070: 5080 08bf ee64 a7be ffc7 a8bf e2b3 ecbd
00000080: 368c 11be a341 2abf e6d3 1ebf 2ee2 4f3f
00000090: 74e6 7dbf 74b8 c4be a59a b1be 6e76 73be
000000a0: b4a6 df3f af93 a73f d819 e5bd ba4b 10bf
000000b0: 08ab dabe 72bf 3cbe 008f e13c 2b0f 0fbf
000000c0: 6870 1dbf a4a1 2e40 da17 f93d 727c 8dbe
000000d0: 5229 89be ac6f 30bf 998d 98be ea3a a5be
000000e0: 5ce6 89be f49f 08bf 0a07 7cbe 6905 d2be
000000f0: d6f9 c83e 925c 733e 666c f5be e11c 2cbf
00000100: 8d78 2dbf 4910 963f 3ae3 e03f e77a 29bd
00000110: 30bb a2be fd85 903f 2495 d5be ea91 38bd
00000120: b8a9 583f 07f7 07bf d2c5 12bf ec15 a7bd
00000130: 5787 b63f 6c4e 3f40 5811 793e 1b51 26bf
00000140: f891 c23f 9367 38bf a4e9 343c bec0 49be
00000150: 349e d3be 9056 cc3e 249a aabe 9ea4 633e
00000160: 37f4 3abe 107e 38bf aade d63f 06b5 f8be
00000170: 5ca1 dfbe cf72 13bf 2895 e6be 86c3 0ebd
00000180: 5550 bebe 945e 433f 4492 ffbe d284 f5be
00000190: a21c aebe f2c9 e9be a813 ab3f cad1 1ebf
000001a0: 0c49 87be 4461 f13f d0ae d2be 5a20 d73e
000001b0: b2d3 c4bb 62f9 8dbe 54eb 593e c6d7 abbe
000001c0: e79b 9bbe 75ab 4abe 82d9 7ebe ba6f 9cbe
000001d0: f95c b8be e01e 0640 d66d 0a3f 70b5 123f
000001e0: b405 8cbe 484e 83be 8211 bfbe 6c64 8abd
000001f0: 2d29 113e 754c 09be 84df a23f d244 d33f

weight f4 [4, 128]
-0.17847392 -0.17614006 0.021546708 -0.87245953 -0.32601237 0.5879849 0.15701622 -0.015527017
0.5243343 1.8280151 -0.39928892 -0.34689623 0.007200539 -0.025156423 -0.025743768 0.22410882
-0.053468682 -0.13218169 -0.024531938 -1.3389429 -0.74900144 0.40743703 -0.5526018 -0.11282152
-0.18520701 0.056192137 -0.0059908293 0.08223574 0.12666386 0.013740923 -0.78178084 0.006471157
-0.078498796 0.30135763 -0.24775946 -0.3269418 -0.2377258 -0.44724232 0.008278383 0.10871908
-0.009263868 -1.1745979 -0.123860866 -0.06929225 0.0023184328 -0.17777109 -0.46412033 0.19199488
0.14626321 -0.7850818 -0.16099584 -0.06737618 -0.18342428 -0.37771752 0.01499054 -0.80938095
0.022980299 0.13021225 -0.014460646 0.1254954 -0.9095727 1.9132433 0.048978727 -0.06843652
0.18136132 -0.56856906 1.5553868 -0.17798463 -0.18833376 -0.31981558 0.071681246 -0.24176094
0.18793154 0.11246623 0.23016658 -0.04211834 -0.7454275 1.9177465 -0.69747806 -0.9579866
-0.57619226 -0.014667276 -0.18317205 -0.04355665 0.0763962 -1.5088533 -0.040144645 -0.025264066
0.10335957 0.16453938 0.73284817 0.16369185 0.39818722 -0.07256922 -0.01571476 -0.232225
-0.27009416 -0.855072 -0.07372971 -0.033622526 0.027025893 -0.24847212 0.03387104 -0.63917637
0.019400548 1.2704796 -0.35702422 0.32267627 0.034637574 -0.20421647 -0.549153 -0.13511053
-0.2556131 -0.0541856 -0.029903878 0.06670976 0.20702335 -0.4327107 1.2770053 -0.4175129
-0.2237648 -0.15569428 -0.06546652 -0.043144118 0.06475276 -0.016172323 -0.0635352 -0.17331441
-0.01484891 -0.1542821 -0.04126478 -1.2543247 0.36550766 0.91231006 0.08792492 -0.045900702
-0.103812926 1.8249779 0.10755409 -0.12658611 -0.29696557 0.25120485 -0.016236223 -0.005873534
0.046749093 0.29335225 0.005993895 -1.238052 -0.5517475 0.02147342 -0.5368045 0.025501745
0.0120849125 0.0680676 0.27822757 -0.34224534 0.07793472 -0.09233013 1.0004497 0.07095938
-0.08983713 -0.07786506 0.031306796 0.72935545 0.1517036 0.32919383 -0.05416646 0.22359091
-0.6446042 -1.1744775 -0.17630042 -0.19145964 -0.02658375 -0.07910116 -0.15667348 -0.030793343
-0.24833767 -0.9905087 0.20412591 -0.10579537 -0.10373529 -0.022244396 -0.07326047 -0.6576363
0.0091551 0.15600863 0.02588752 -0.009819172 -0.11925587 1.886924 0.89485323 -0.07597874
-0.104616374 -0.680945 1.7388012 0.03834696 0.18928078 -0.3475503 0.121165484 -0.04178697
-0.5709169 0.18478535 -0.22752073 -0.10813987 -0.8900405 1.5504489 -0.47342557 -0.11699996
-0.47702515 0.25224185 -0.023159955 0.07245464 0.01509461 0.24690908 -0.07153417 0.22549596
-0.041960523 -0.05434093 0.48318857 -0.09178893 0.41523165 0.29344356 -0.034535408 -0.5962887
-0.28299928 -0.43771157 -0.2584219 0.041394748 0.0033659572 0.26464668 -0.024076268 0.082099594
0.17013124 1.1867837 0.22322033 0.6104934 0.10216108 0.122292474 -0.7818557 0.309761
-0.022596534 0.053750828 0.0026802989 0.17132689 0.22997189 -0.63783264 1.358564 -0.0121514425
-0.24421269 -0.24031559 0.25064522 -0.03993711 0.11882226 0.04158649 -0.09061455 0.08836733
00000000: dec1 36be 0f5e 34be b982 b03c 8259 5fbf
00000010: 18eb a6be 2e86 163f dcc8 203e 0865 7ebc
00000020: c63a 063f 66fc e93f 996f ccbe 629c b1be
00000030: 80f2 eb3b d814 cebc 98e4 d2bc c87c 653e
00000040: fa01 5bbd a35a 07be 34f7 c8bc 7b62 abbf
00000050: 8fbe 3fbf 969b d03e 5077 0dbf f80e e7bd
00000060: e8a6 3dbe ba29 663d b84e c4bb 366b a83d
00000070: 2cb4 013e 9c21 613c ca22 48bf 000c d43b
00000080: fac3 a0bd 8c4b 9a3e a8b4 7dbe ea64 a7be
00000090: 646e 73be f2fc e4be 0ea2 073c 1ca8 de3d
000000a0: 7bc7 17bc 3959 96bf c4aa fdbd 18e9 8dbd
000000b0: d9f0 173b a009 36be 2ea1 edbe 4e9a 443e
000000c0: 06c6 153e 1ffb 48bf 18dc 24be 86fc 89bd
000000d0: 93d3 3bbe 3164 c1be e29a 753c 9733 4fbf
000000e0: 2e41 bc3c 5c56 053e 58ec 6cbc de81 003e
000000f0: c2d9 68bf 28e5 f43f eb9d 483d 7228 8cbd
00000100: c8b6 393e be8d 11bf ea16 c73f 9a41 36be
00000110: 91da 40be debe a3be 9ecd 923d 2e90 77be
00000120: 2071 403e b254 e63d cab0 6b3e 4884 2cbd
00000130: 56d4 3ebf b878 f53f ec8d 32bf 9c3e 75bf
00000140: 5681 13bf 044f 70bc 7491 3bbe 7568 32bd
00000150: 9c75 9c3d 1b22 c1bf b66e 24bd 96f6 cebc
00000160: 2fae d33d 037d 283e f09b 3b3f d69e 273e
00000170: 32df cb3e 2c9f 94bd 3ebc 80bc 64cc 6dbe
00000180: c849 8abe 00e6 5abf 9aff 96bd c6b7 09bd
00000190: 6865 dd3c 7a6f 7ebe 5cbc 0a3d 10a1 23bf
000001a0: e6ed 9e3c 139f a23f e1cb b6be d335 a53e
000001b0: 21e0 0d3d 1f1e 51be 4a95 0cbf 6a5a 0abe
000001c0: b8df 82be b8f1 5dbd faf8 f4bc 209f 883d
000001d0: eefd 533e 428c ddbe e974 a33f 40c4 d5be
000001e0: 9a22 65be 526e 1fbe 5013 86bd e3b7 30bd
000001f0: 189d 843d d27b 84bc be1e 82bd 5579 31be
00000200: d848 73bc 20fc 1dbe 4205 29bd b68d a0bf
00000210: d223 bb3e 278d 693f fb11 b43d 6002 3cbd
00000220: df9b d4bd e098 e93f 5245 dc3d ca9f 01be
00000230: df0b 98be ec9d 803e d401 85bc c676 c0bb
00000240: fa7b 3f3d 4432 963e 7068 c43b 7d78 9ebf
00000250: 533f 0dbf 07e9 af3c 056c 09bf 09e9 d03c
00000260: ccff 453c 0767 8b3d d873 8e3e c83a afbe
00000270: 3d9c 9f3d 9417 bdbd bc0e 803f 2753 913d
00000280: 87fc b7bd b777 9fbd 8e3b 003d 0ab7 3a3f
00000290: 3058 1b3e 188c a83e a6dd 5dbd 04f5 643e
000002a0: c804 25bf 4755 96bf 1988 34be ff0d 44be
000002b0: 2ac6 d9bc caff a1bd 036f 20be 5242 fcbc
000002c0: 3b4c 7ebe fa91 7dbf 6206 513e 3eab d8bd
000002d0: 2b73 d4bd e139 b6bc 9609 96bd da5a 28bf
000002e0: 46ff 153c bac0 1f3e 1012 d43c 98e0 20bc
000002f0: 6c3c f4bd ba86 f13f 1a15 653f be9a 9bbd
00000300: 1c41 d6bd 6952 2ebf 0a91 de3f b411 1d3d
00000310: d2d2 413e 1df2 b1be 9c25 f83d d028 2bbd
00000320: 9c27 12bf 5f38 3d3e 32fb 68be 7078 ddbd
00000330: b2d9 63bf 1c75 c63f d664 f2be ad9d efbd
00000340: a43c f4be d825 813e f2b9 bdbc 1963 943d
00000350: 624f 773c bcd5 7c3e 8280 92bd 6ae8 663e
00000360: ccde 2bbd 9894 5ebd 7e64 f73e d6fb bbbd
00000370: 3e99 d43e 3c3e 963e 0075 0dbd 60a6 18bf
00000380: 48e5 90be bb1b e0be e04f 84be 8a8d 293d
00000390: 6497 5c3b c57f 873e 983b c5bc d523 a83d
000003a0: e236 2e3e 87e8 973f df93 643e 4c49 1c3f
000003b0: d439 d13d 7a74 fa3d b227 48bf fe98 9e3e
000003c0: 5e1c b9bc d429 5c3d f4a7 2f3b 5170 2f3e
000003d0: c07d 6b3e 0049 23bf 6de5 ad3f d816 47bc
000003e0: e412 7abe 4a15 76be 9254 803e 1895 23bd
000003f0: 1659 f33d 9856 2a3d 1f94 b9bd eef9 b43d

bias f4 [4]
-0.8468653 -0.382186 -2.9662309 -2.2342768
00000000: 2acc 58bf e2ad c3be bad6 3dc0 64fe 0ec0
