DQL/checkpointpole.pth (torch_old, 140182 bytes, 8 tensors)

weight f4 [128, 4]
0	0x3eb6ce8a	0.35704452
1	0xbe13b470	-0.144243
2	0xbfaa37ea	-1.3298314
3	0xbea53112	-0.32264
4	0xbeb519ea	-0.35371333
5	0xbc71ed30	-0.014766023
6	0x3f959110	1.1684895
7	0xbe69327f	-0.22773169
8	0x3e78e17a	0.24304762
9	0xbe940322	-0.2890864
10	0xbee9cfce	-0.45666355
11	0xbe883e80	-0.26610184
12	0x3f218d58	0.631063
13	0xbe9016ca	-0.28142387
14	0xbd56378e	-0.052299075
15	0x3f185a74	0.5951302
16	0x3ee8787b	0.4540442
17	0xbea7f0f2	-0.32801014
18	0xbe33d17b	-0.17560379
19	0xbe849090	-0.25891542
20	0xc05c188d	-3.4389985
21	0x3f14c5be	0.5811423
22	0xbfe63ae7	-1.7986726
23	0x3ec7e1e4	0.39039528
24	0xbeeb2c86	-0.45932406
25	0x3e94f6a0	0.2909441
26	0x40355612	2.8333783
27	0x3e3d7502	0.18501666
28	0xbef7ff48	-0.48436952
29	0x3e46ea86	0.19425401
30	0xbde0333c	-0.10947272
31	0xbeaf85cf	-0.34281775
32	0xbf11999b	-0.5687501
33	0x3e197a02	0.14987949
34	0x411a4c25	9.64359
35	0x3f43871c	0.76378036
36	0xbf23538f	-0.63799375
37	0x3e4cf620	0.20015764
38	0x402d732f	2.7101552
39	0xbd2b8b6e	-0.041881017
40	0xbd88fa56	-0.06688373
41	0x3e01560b	0.12630479
42	0x3e822120	0.25415897
43	0x3dde4916	0.10853784
44	0xc01d723c	-2.4600973
45	0x3f3f6bbc	0.74773765
46	0x4102aebf	8.167663
47	0x3f82f129	1.0229846
48	0xbcf69d90	-0.030104429
49	0x3eaa3e78	0.33250785
50	0xc000f5ca	-2.0150018
51	0x3e655588	0.22395909
52	0x3f58cd74	0.84688497
53	0xbf140536	-0.5782045
54	0xbe33320c	-0.1749956
55	0xbf0311ee	-0.51199234
56	0x3e315996	0.1731933
57	0xbe08b7a1	-0.13351299
58	0x3f2aecd4	0.6676762
59	0xbe322e2e	-0.17400429
60	0x3f82b8e4	1.0212674
61	0xbdc737f5	-0.0972747
62	0x407e8a59	3.977194
63	0x3e52d7a0	0.20590067
64	0xc021f0ae	-2.530315
65	0xbe86af38	-0.26305556
66	0x3f58e3a2	0.8472234
67	0xbf34626c	-0.7046268
68	0xbfe55d74	-1.7919145
69	0xbfb0e1f0	-1.3818951
70	0x3e8e20ce	0.27759403
71	0xbed16059	-0.4089382
72	0x3e1a39a8	0.15061057
73	0xbc867f00	-0.01641798
74	0xbe50ace8	-0.20378458
75	0xbe2cd4f8	-0.16878116
76	0xbf4c6f7c	-0.7985761
77	0x3f2e6512	0.6812297
78	0xbeae88d8	-0.34088778
79	0x3efb3492	0.49063545
80	0x3db893ec	0.09012589
81	0x3d6e6442	0.058201082
82	0xbda37720	-0.07981706
83	0xbe285fed	-0.16442843
84	0x3f514acc	0.81754756
85	0xbebc2977	-0.36750385
86	0xbf92d75e	-1.1471975
87	0xbe2cbb42	-0.16868308
88	0xbd19ffc2	-0.037597425
89	0x3dd99285	0.106236495
90	0xbdccfd92	-0.10009302
91	0x3e0be28a	0.13660637
92	0xbfeaee85	-1.835404
93	0xbc91ef7f	-0.017814396
94	0x40a83a14	5.2570896
95	0x3e2409e9	0.16019405
96	0xbffed2fe	-1.990814
97	0x3f65b472	0.8972846
98	0x3fab0c28	1.3363085
99	0x3f19c94a	0.6007277
100	0xbe4a260a	-0.19741073
101	0x3d9eba54	0.07750383
102	0x40101098	2.2510128
103	0x3e8f0813	0.27935848
104	0x3f088db2	0.5334121
105	0xbe16d1a9	-0.14728417
106	0xc0110056	-2.2656455
107	0x3c5c7c58	0.01345738
108	0xbfd88806	-1.6916511
109	0xbf0bd1b0	-0.5461683
110	0x3d7010f5	0.05860992
111	0xbe3d9b95	-0.18516381
112	0xbda1fb2c	-0.07909235
113	0x3e44f5bf	0.1923437
114	0xbeb171dc	-0.3465718
115	0x3e00de8d	0.12584896
116	0xbea588b5	-0.32330862
117	0x3df7ddb7	0.121028356
118	0x3e2df46c	0.16987771
119	0xbe766f98	-0.24066007
120	0xbea2caae	-0.31795257
121	0xbcd89b42	-0.02644122
122	0xc010fd54	-2.265462
123	0xbd813e64	-0.06310728
124	0xbd8f65cd	-0.07001839
125	0xbe963ea0	-0.29344654
126	0x3e2bf168	0.16791308
127	0xbe6df33e	-0.23237321
128	0x3f25b5aa	0.6473032
129	0xbdee7f60	-0.116453886
130	0x3f8465ac	1.0343528
131	0xbe223888	-0.15841877
132	0xbf3dc86a	-0.7413393
133	0x3f1dcf78	0.616447
134	0x3db99838	0.090622365
135	0x3ed269c6	0.41096324
136	0x4012da70	2.2945824
137	0xbf4405b0	-0.7657118
138	0xbf6a13db	-0.9143655
139	0x3f8cae52	1.0990698
140	0xbff2638a	-1.8936627
141	0x3e9a97a7	0.30193827
142	0x4084fbf4	4.155756
143	0x3f18eb34	0.5973389
144	0xbf232554	-0.63728833
145	0x3ebde5f2	0.37089497
146	0x3fef22a0	1.8682442
147	0x3edaac0c	0.42709386
148	0x3f75910b	0.95924443
149	0xbc76c6da	-0.015062058
150	0xc0550b68	-3.3288212
151	0xbf46eeae	-0.77707946
152	0x3edce330	0.4314208
153	0xbd2d9196	-0.04237517
154	0x3e3e591a	0.18588677
155	0xbe8721c4	-0.2639295
156	0xbdd2c9bc	-0.10292384
157	0xbc43058e	-0.01190318
158	0xbe4d0da4	-0.20024735
159	0x3dd02a8e	0.10164367
160	0xbf1dd8c2	-0.6165887
161	0x3eeba613	0.46025142
162	0x401b7ca4	2.4294825
163	0x3f146ec8	0.5798154
164	0x3e5a9041	0.21344091
165	0xbd95abbb	-0.073081456
166	0xbfa3d3f8	-1.2799063
167	0xbde466dc	-0.11152431
168	0xbf2d4339	-0.676807
169	0x3f359caa	0.70942175
170	0xbf0c8804	-0.54895043
171	0x3ef8142a	0.48452884
172	0xbfabbb0e	-1.341646
173	0x3e505fe5	0.20349081
174	0x408c3b7a	4.3822603
175	0xbc8053aa	-0.015664894
176	0x3c79d8a8	0.015249409
177	0x3e071c1a	0.13194314
178	0xbe560bcf	-0.20902942
179	0xbe3012c2	-0.17194656
180	0xbeb5d0b8	-0.35510802
181	0x3e14e95a	0.14542142
182	0x3f08cf76	0.5344156
183	0xbd549a28	-0.051904827
184	0xbf60099e	-0.87514675
185	0x3ed22264	0.41041863
186	0x3db511a4	0.08841255
187	0xbe3441b2	-0.17603186
188	0xbcca3e9a	-0.024688054
189	0x3dccaf06	0.099943206
190	0x4000af1e	2.0106883
191	0x3d957130	0.072969794
192	0x3e42dcc0	0.19029522
193	0xbda9c2d6	-0.08289115
194	0xc0202a2e	-2.5025744
195	0xbe5fee20	-0.21868181
196	0xbf4eb85e	-0.8075007
197	0x3ead52f0	0.3385234
198	0x3e02c46e	0.12770244
199	0x3e1e6592	0.15468433
200	0x3ef8a06e	0.48559898
201	0xbc98f548	-0.018671647
202	0xbf18472a	-0.5948359
203	0xbe7dc802	-0.24783328
204	0xbe9ef9a2	-0.3104983
205	0x3e5a411c	0.213139
206	0x3dd30736	0.1030411
207	0x3d2af588	0.041738063
208	0xbefa6fda	-0.4891346
209	0x3e34c488	0.17653096
210	0xbe320994	-0.17386466
211	0x3e144a90	0.14481568
212	0xbd49a4f0	-0.049229562
213	0xbd96d5e9	-0.07365019
214	0xbf8ce7b9	-1.1008216
215	0xbea9a858	-0.3313625
216	0xbf759376	-0.9592813
217	0x3ea63684	0.32463467
218	0x3f6b2371	0.91850954
219	0xbd706401	-0.05868912
220	0xbf9b4089	-1.212907
221	0x3f52354a	0.8211256
222	0x40367f03	2.8515022
223	0x3ee3656c	0.44413316
224	0x3edf2fc0	0.43591118
225	0xbedc318a	-0.43006545
226	0xbed9d0a8	-0.42542005
227	0xbea50374	-0.32229197
228	0x3eb5456c	0.35404527
229	0x3ce07289	0.027398365
230	0xbf056e4c	-0.52121425
231	0xbea05347	-0.31313536
232	0xc0117c92	-2.2732282
233	0x3f07c2fe	0.5303191
234	0x40b4e39e	5.6527853
235	0x3ec061f0	0.3757472
236	0xbf2dcad8	-0.6788764
237	0x3eb4e694	0.35332167
238	0x3ed6ed55	0.41977945
239	0x3ed16eb4	0.40904772
240	0x3f34d729	0.7064081
241	0xbee941a8	-0.45557904
242	0xbf78c61a	-0.9717728
243	0xbea6b5c6	-0.32560557
244	0xbf249bba	-0.6430012
245	0x3e95aabe	0.29231828
246	0xbf13fb70	-0.5780554
247	0x3d16ab4e	0.036784463
248	0x3dcca538	0.099924505
249	0xbcc89434	-0.024484731
250	0xbdb07910	-0.08616841
251	0xbe0b20f8	-0.13586795
252	0xbef997b5	-0.48748556
253	0x3ebb802f	0.36621234
254	0x40344aca	2.8170648
255	0x3e368e78	0.17827785

bias f4 [128]
0	0xbee9e96b	-0.45685896
1	0xbf4f6fbc	-0.8102987
2	0xbef393ba	-0.47573644
3	0xbfb04a5c	-1.3772693
4	0xbec6f10c	-0.3885578
5	0x3dee4fd6	0.11636321
6	0xbd933c11	-0.07189191
7	0xbf995472	-1.1978896
8	0xbee38485	-0.44437042
9	0xbe7c73c8	-0.24653542
10	0xbeb81bea	-0.35958797
11	0xbf16eb52	-0.5895282
12	0xbe944088	-0.28955483
13	0xbf0125de	-0.50448406
14	0xbe372172	-0.17883852
15	0xbe57ffc3	-0.21093659
16	0xbff47f34	-1.9101319
17	0xbff56a32	-1.9173033
18	0xbee19d10	-0.44065142
19	0xbdcc492f	-0.09974896
20	0xbee79959	-0.45234182
21	0xbf175fc0	-0.5913048
22	0xbe94d3f2	-0.2906795
23	0xbeafdafc	-0.3434676
24	0xbf5566e0	-0.833601
25	0xbeda6714	-0.42656767
26	0xbe8c4850	-0.2739892
27	0xbfe19060	-1.7622185
28	0xbe098266	-0.1342865
29	0xbf503a5c	-0.8133905
30	0xbf2399ae	-0.6390637
31	0xbfab9454	-1.3404641
32	0xbfc42c38	-1.5325994
33	0xbe2bcb15	-0.16776688
34	0xbfe35c04	-1.7762456
35	0xbe9de73e	-0.30840486
36	0xbdc07668	-0.09397584
37	0xbf184c1a	-0.5949112
38	0xbf2b6d63	-0.66963786
39	0xbf0dbca6	-0.5536598
40	0x3f44255e	0.7661952
41	0xbea82666	-0.32841796
42	0xbe483a62	-0.19553521
43	0xbed45ecc	-0.41478574
44	0xbf020df2	-0.5080253
45	0xbf51d6dc	-0.81968474
46	0xbf984ea8	-1.1899004
47	0xbd4d591c	-0.05013381
48	0xbf34db32	-0.70646966
49	0xbf11f7ef	-0.5701894
50	0xbf206251	-0.6265002
51	0xbea63b6c	-0.3246721
52	0xbf1adbd2	-0.6049167
53	0xbfcef69a	-1.6169007
54	0xbf81947d	-1.012344
55	0xbf107faf	-0.5644483
56	0xbed621a0	-0.4182253
57	0xc009d43a	-2.1535783
58	0xbf06c37a	-0.52642024
59	0xbf196c8e	-0.59931266
60	0xbeefc3f8	-0.468292
61	0xbf0c5370	-0.54814816
62	0xbea38ef0	-0.3194499
63	0xbd87129a	-0.06595345
64	0xbebc4072	-0.36767918
65	0xbe9e0cc8	-0.30869126
66	0xbe0e56fa	-0.13900366
67	0xbef5fed6	-0.48045987
68	0xbea68554	-0.32523596
69	0xbf33b848	-0.70203066
70	0xbeb56b06	-0.35433215
71	0xbf35c8e6	-0.7100967
72	0xbf1e31ea	-0.6179491
73	0xbe5cd8e8	-0.21567118
74	0xbfc05f6a	-1.5029118
75	0xbf104bb8	-0.5636554
76	0xbf4c35ea	-0.79769766
77	0xbff1dd40	-1.8895645
78	0xbfc89cf2	-1.5672896
79	0xbe9e90eb	-0.3096994
80	0x3efa2294	0.48854506
81	0xbe6b3b10	-0.2297175
82	0x3ed48750	0.41509485
83	0xbe33b928	-0.175511
84	0xbfbf0490	-1.4923267
85	0xbeefa990	-0.46809053
86	0xbee1ecfe	-0.44126123
87	0xbe03e084	-0.12878615
88	0xbf3fa4b2	-0.7486068
89	0xbf7e25d6	-0.99276483
90	0xbfcd4fc4	-1.6039968
91	0xbe079be4	-0.13243061
92	0xbf1476f6	-0.5799402
93	0xbf3311a6	-0.69948804
94	0xbf1a3820	-0.6024189
95	0xbedb8ef9	-0.42882517
96	0xbfeaf49a	-1.8355896
97	0xbfaacde6	-1.3344085
98	0xbf31beb4	-0.69431615
99	0xbf39cda8	-0.7257943
100	0xbecd8c2a	-0.40146
101	0xbf4c4d32	-0.7980529
102	0xbe49f540	-0.19722462
103	0xbfa05cc4	-1.252831
104	0xbc97d261	-0.018532934
105	0xbf5c0ecc	-0.8596008
106	0xbed7b93e	-0.42133516
107	0xbe9ccbc4	-0.3062421
108	0xbf011a46	-0.50430715
109	0xbe50965a	-0.20369855
110	0xbeab336d	-0.33437672
111	0xbfd0d392	-1.6314566
112	0xbf5fa92e	-0.8736752
113	0xbee827f5	-0.45342985
114	0xbe462045	-0.19348247
115	0xbfdaa3ac	-1.7081199
116	0xbed286d6	-0.41118497
117	0xbefb1d2a	-0.49045688
118	0xbf3e0b84	-0.7423632
119	0xbf022785	-0.5084155
120	0xbf3c7483	-0.7361528
121	0xbf596fcc	-0.84936213
122	0xbfadc7e2	-1.3576624
123	0xbf77a3ee	-0.9673451
124	0xbee01ae4	-0.43770516
125	0x3e27e860	0.16397238
126	0xbf223ec4	-0.6337702
127	0xbf47c680	-0.7803726

weight f4 [128, 128]
0	0xbed8e3c6	-0.42361277
1	0xbe28d87e	-0.16488835
2	0xbd9324ba	-0.071847394
3	0xbe9e184f	-0.3087792
4	0x3d690366	0.056888007
5	0xbe378548	-0.17921937
6	0xbeb91129	-0.36145905
7	0xba22df77	-0.00062131084
8	0x3da66de1	0.081264265
9	0xbe649ead	-0.22326155
10	0xbc1cac84	-0.009562615
11	0xbd80bc27	-0.06285887
12	0xbebb669c	-0.36601722
13	0xbe014098	-0.12622297
14	0xbe894a03	-0.2681428
15	0xbe8cb23e	-0.27479738
16	0xbe1fc3e9	-0.15602078
17	0xbf43b1a8	-0.76442957
18	0xbc90416c	-0.01760932
19	0xbe680873	-0.22659473
20	0xbc81a944	-0.015827782
21	0x3cfa869d	0.030581767
22	0xbe1d527e	-0.153635
23	0x3c98ce74	0.018653132
24	0xbdb8050e	-0.08985339
25	0xbe73e0ca	-0.23816219
26	0xbf29a8a2	-0.6627294
27	0xbccbe52c	-0.024889551
28	0xbe4eb384	-0.20185667
29	0xbcc7184e	-0.024303582
30	0xbdf3d0c5	-0.11905054
31	0x3d5d5ad2	0.05404169
32	0x3d7afe98	0.061277956
33	0xbea1153c	-0.31461513
34	0x3c570162	0.013122888
35	0xbf5b4f9c	-0.8566835
36	0xbe9238c8	-0.28558946
37	0xbeb0e804	-0.34552014
38	0x3bd09430	0.0063653216
39	0xbc6c7040	-0.014431059
40	0xbf5198c4	-0.81873727
41	0xbe678bbc	-0.22611898
42	0xbe9f0754	-0.31060278
43	0xbe4ae105	-0.198124
44	0x3dbce524	0.092233926
45	0x3c1afda2	0.009459885
46	0xbd9b0a2a	-0.07570298
47	0xbe96789e	-0.293889
48	0x3d02a0a4	0.03189148
49	0xbeaa3785	-0.33245483
50	0xbc97a970	-0.018513411
51	0xbe12dba0	-0.14341593
52	0x3cf88ca0	0.030340493
53	0x3d248e82	0.04017497
54	0xbe1c6fd6	-0.15277037
55	0xbd08dd51	-0.03341419
56	0x3db8555a	0.090006545
57	0xbd47b991	-0.048760954
58	0x3d62fa26	0.05541434
59	0x3d39a5de	0.0453242
60	0xbd828364	-0.06372717
61	0xbe8928ac	-0.26788843
62	0xbdd323d9	-0.10309572
63	0xbe7ce736	-0.24697575
64	0xbd36ff92	-0.044677325
65	0xbe9de10e	-0.30835766
66	0xbe0cd2ea	-0.13752332
67	0xbe30d7d4	-0.17269832
68	0xbce280e6	-0.027649354
69	0x3c558eea	0.013034562
70	0xbcdb7b1a	-0.026792098
71	0x3d8f04db	0.06983348
72	0x3df86198	0.121279895
73	0xbe317968	-0.17331469
74	0x3d603d06	0.054745696
75	0xbe2bc32e	-0.16773674
76	0xbcc8858c	-0.024477743
77	0x3c191518	0.009343408
78	0xbd92e618	-0.07172793
79	0xbe6f5317	-0.2337154
80	0xbf38171c	-0.7191026
81	0xbe9816c6	-0.29704875
82	0xbe935388	-0.28774667
83	0xbf366b90	-0.7125788
84	0xbe13b0a8	-0.14422858
85	0xbcd7e66e	-0.026354995
86	0x3e7b6400	0.24549866
87	0xbea96b58	-0.3308971
88	0x3d0ab8a6	0.0338675
89	0x3cf896e0	0.03034538
90	0xbc797d28	-0.0152275935
91	0xbe62c296	-0.22144541
92	0x3e403a1c	0.18772167
93	0x3cc557dc	0.024089746
94	0xbe3325c8	-0.17494881
95	0xbf5d88b2	-0.86536705
96	0xbe540dfe	-0.20708463
97	0xbc7b1cf8	-0.015326731
98	0x3d836751	0.064161904
99	0x3da3a3e9	0.07990248
100	0x3c8ac620	0.016940176
101	0xbdbe8208	-0.09302145
102	0xbe96f3d0	-0.2948289
103	0xbcabe320	-0.020982325
104	0xbea776e2	-0.32707888
105	0xbd9c2a56	-0.076252624
106	0xbde33c3b	-0.110954724
107	0xbd9b66e8	-0.07587987
108	0xbe12de96	-0.14342722
109	0xbdfbc776	-0.122939035
110	0x3ccf8f6e	0.025336947
111	0xbdd3f554	-0.10349527
112	0x3db12f21	0.08651567
113	0xbf01783e	-0.505741
114	0xbe72817e	-0.2368221
115	0xbd6f6f6e	-0.058455877
116	0xbe0b4af8	-0.13602817
117	0xbebd1fbc	-0.36938274
118	0xbe5467ca	-0.20742717
119	0x3ccfb2f0	0.025353879
120	0xbd7e8f45	-0.06214835
121	0xbe9a17e8	-0.30096364
122	0x3d977661	0.07395626
123	0x3bccf5e8	0.0062549002
124	0x3d7be1ce	0.06149464
125	0xbf4413ca	-0.76592696
126	0xbc97ed00	-0.018545628
127	0xbdfd8024	-0.123779565
128	0xbdd400d7	-0.10351723
129	0xbe4dcf08	-0.20098507
130	0xbe326994	-0.17423087
131	0xbe4a9094	-0.19781715
132	0xbdf86516	-0.121286556
133	0xbe8f855c	-0.28031433
134	0x3e3c2cca	0.1837646
135	0xbe0d24f2	-0.13783625
136	0xbd0180bc	-0.03161691
137	0xb9e2ccfa	-0.00043258799
138	0xbe0ba914	-0.13638717
139	0xbbfb8920	-0.0076762587
140	0xbe38dd2c	-0.1805312
141	0xbe39e869	-0.18155064
142	0xbe365c28	-0.17808592
143	0xbd7928b7	-0.060829844
144	0xbe364088	-0.17798054
145	0xbd024fcb	-0.031814378
146	0xbda90039	-0.082519956
147	0xbd0232d4	-0.031786755
148	0xbe8a44d7	-0.27005646
149	0xbe444352	-0.19166306
150	0xbe883f43	-0.26610765
151	0x3d0c1b34	0.03420563
152	0xbe42029e	-0.18946311
153	0xbe12f5fc	-0.14351648
154	0xbe898bea	-0.26864558
155	0xbe90ad40	-0.2825718
156	0xbde4a85e	-0.11164926
157	0xbdc7665c	-0.097363204
158	0xbd5a5260	-0.053301215
159	0x3e1d86ad	0.15383406
160	0xbdeac0d2	-0.11462559
161	0xbe8c5605	-0.27409378
162	0xbe61ef34	-0.22063905
163	0x3b9b5340	0.004740149
164	0xbe5a7f9b	-0.2133774
165	0xbe64842d	-0.22316046
166	0x3d156858	0.036476463
167	0xbe5f5e18	-0.21813238
168	0x3cfaf3e8	0.030633882
169	0xbe0302da	-0.12794057
170	0xbde5df1a	-0.11224194
171	0xbd9d3678	-0.07676405
172	0xbe14ecec	-0.14543504
173	0xbe4d8916	-0.20071825
174	0xbe2cf450	-0.16890073
175	0xbe663a7d	-0.22483249
176	0xbdabdeba	-0.08392091
177	0xbe561fee	-0.20910618
178	0xbd21c9d1	-0.039499108
179	0xbe7a2e1e	-0.24431655
180	0xbe4a53cb	-0.19758527
181	0x3da2702b	0.079315506
182	0xbd84a8c2	-0.064775005
183	0x3d13d83c	0.03609489
184	0xbe2ba6fe	-0.16762921
185	0xbc8a3ef0	-0.016875714
186	0x3d5e44a2	0.054264672
187	0x3cab9b8c	0.020948194
188	0xbe10d982	-0.14145473
189	0xbe00c7ce	-0.1257622
190	0xbe46bf9a	-0.19409028
191	0x3d2113a4	0.03932537
192	0xbe2b1758	-0.16708124
193	0xbe8727ad	-0.26397458
194	0xbe4de0c2	-0.2010527
195	0xbe8d3e7c	-0.27586734
196	0x3c07df20	0.008292943
197	0xbdf60cdc	-0.120141715
198	0xbdadf33f	-0.08493661
199	0xbd884a3c	-0.06654784
200	0xbe23f7d4	-0.16012508
201	0xbdf748f4	-0.120744616
202	0xbc8132b4	-0.015771247
203	0xbdd3fd4e	-0.103510484
204	0xbca9fe4c	-0.020751141
205	0xbc82c35c	-0.015962295
206	0x3d426722	0.047461636
207	0xbe929e30	-0.28636312
208	0xbd9754e0	-0.073892355
209	0x3e974242	0.29542738
210	0xbe02a832	-0.12759474
211	0xbe55d581	-0.20882227
212	0xbe0852b6	-0.13312802
213	0x3d694c82	0.05695773
214	0xbdc90ca0	-0.09816861
215	0xbe821664	-0.25407708
216	0xbe42f29c	-0.1903786
217	0xbd201c76	-0.039089642
218	0x3c558280	0.013031602
219	0xbde304ec	-0.11084923
220	0xbe5ba620	-0.2145009
221	0x3cdbc208	0.02682592
222	0xbe88f9f0	-0.26753187
223	0xbe3e0e40	-0.18560123
224	0xbdd920d0	-0.106019616
225	0xbc050e08	-0.008121021
226	0xbd665e21	-0.056242112
227	0xbe06ffb8	-0.13183486
228	0x3c67a028	0.014137305
229	0xbe121c5c	-0.1426863
230	0x3d84dd35	0.064875044
231	0xbb9eff70	-0.004852228
232	0x3caaeadc	0.020863943
233	0xbe642957	-0.22281395
234	0xbdba3b44	-0.09093335
235	0x3cc4a448	0.024004117
236	0xbe2c056a	-0.1679894
237	0xbdec503e	-0.115387425
238	0xbe01d4f2	-0.12678888
239	0xbe2d219c	-0.16907352
240	0x3d67f516	0.056630217
241	0xbdd3533d	-0.10318611
242	0xbd998dfc	-0.074977845
243	0x3d989d05	0.07451824
244	0xbe4cb6a3	-0.19991545
245	0xbda7acdf	-0.081872694
246	0xbd8c36b2	-0.0684637
247	0xbcfea6c2	-0.031085376
248	0x3d65bfb6	0.056091033
249	0xbe84c18c	-0.25928915
250	0xbb9888a0	-0.004654959
251	0xbe33e124	-0.17566353
252	0xbd4c426a	-0.049868025
253	0xbcded938	-0.027203187
254	0x3e2c24ac	0.16810864
255	0xbe5b88d0	-0.21438909

bias f4 [128]
0	0xbf5a84cc	-0.8535888
1	0xbe326178	-0.17419994
2	0xbe7ffaee	-0.24998066
3	0xbea7517a	-0.3267935
4	0xbe8190b8	-0.25305724
5	0xbf541118	-0.82838583
6	0xbf4b1258	-0.79324865
7	0xbde20962	-0.11036946
8	0xbf1dd294	-0.6164944
9	0x3ce833c6	0.028345
10	0xbe665a0a	-0.22495285
11	0xbf11fa9e	-0.57023036
12	0xbed2f3c6	-0.4120161
13	0xbe7580ec	-0.23974961
14	0xbf21160e	-0.6292428
15	0xbe30ef0d	-0.1727869
16	0xbdbd945c	-0.09256813
17	0xbe144134	-0.14477998
18	0xbebf02ff	-0.37306973
19	0xbe7f3c04	-0.24925238
20	0xbce8096e	-0.028324809
21	0x3ee66d32	0.45005184
22	0x3fefd0b4	1.8735566
23	0xbe930294	-0.28712904
24	0xbe22ee5e	-0.15911242
25	0xbc5a3c1c	-0.013319995
26	0xbe801acd	-0.25020447
27	0x3f2516b6	0.6448778
28	0xbe1fe520	-0.15614748
29	0xbe63b0f0	-0.22235465
30	0xbe5a55ae	-0.21321747
31	0xbdd59dd4	-0.10430494
32	0xbe841090	-0.25793886
33	0xbebc03c2	-0.36721617
34	0xbf0e1db2	-0.5551406
35	0xbe96bd44	-0.29441273
36	0xbebb6388	-0.36599374
37	0xbe750ba0	-0.23930216
38	0x3d1a56e1	0.03768051
39	0xbd9c98ac	-0.07646307
40	0xbf87209c	-1.0556827
41	0xbe608348	-0.2192508
42	0xbe5606ba	-0.20901003
43	0xbdff9cce	-0.1248108
44	0xbdeb8282	-0.11499502
45	0xbf6f42c8	-0.93461275
46	0xbe82c58a	-0.25541335
47	0xbdee2d1a	-0.11629696
48	0xbe88e6e6	-0.26738662
49	0xbfc993f2	-1.5748274
50	0xbe038416	-0.12843356
51	0xbe7ac7ac	-0.24490231
52	0xbe22e2e4	-0.15906864
53	0xbed84508	-0.42240167
54	0xbe51c2bc	-0.20484442
55	0xbec73f5c	-0.38915527
56	0xbdfbddfb	-0.12298199
57	0xbedf8682	-0.4365731
58	0xbf33c6dd	-0.70225316
59	0xbe0bfeb8	-0.13671386
60	0xbdeef070	-0.116669536
61	0xbecc2176	-0.3986928
62	0xbeae4d8c	-0.3404354
63	0xbf70bd7f	-0.9403915
64	0xbde2fc08	-0.110832274
65	0xbda48474	-0.08033076
66	0xbf0674b5	-0.5252183
67	0xbd342ab4	-0.043986037
68	0xbe66c118	-0.22534597
69	0x3bf27300	0.007398963
70	0xbf6365e3	-0.8882734
71	0xbe4740e1	-0.19458343
72	0xbe903e50	-0.2817254
73	0x3f5801c8	0.8437772
74	0xbdef7206	-0.1169167
75	0xbe2f3fec	-0.17114228
76	0xbea9912a	-0.33118564
77	0xbe822cb7	-0.2542474
78	0xbed18bbc	-0.4092692
79	0xbf1a5b9f	-0.6029605
80	0xbf81314a	-1.0093167
81	0xbf12e15a	-0.5737511
82	0xbf281129	-0.65651184
83	0xbe109b34	-0.14121705
84	0xbe799916	-0.24374804
85	0xbd9eaa1e	-0.07747291
86	0xbe83f888	-0.25775552
87	0x3e6f8f9c	0.23394626
88	0xbe899fb6	-0.26879662
89	0xbe6bf9e3	-0.23044543
90	0x3fc44988	1.533494
91	0xbda88ca8	-0.08229953
92	0xbf43d1b8	-0.7649188
93	0xbe08d784	-0.13363463
94	0xbe11b1bc	-0.14227957
95	0xbf533390	-0.82500553
96	0xbe079935	-0.13242038
97	0xbd53538c	-0.05159335
98	0x3ddac5f3	0.10682287
99	0xbd88a1dc	-0.06671497
100	0xbe56d208	-0.20978558
101	0xbee0818f	-0.43848845
102	0xbe86973e	-0.26287264
103	0xbe04207c	-0.12903017
104	0xbde512fa	-0.1118526
105	0xbdddc50e	-0.10828601
106	0xbe328b84	-0.17436033
107	0xbfa6941e	-1.3013952
108	0xbf0391e6	-0.513945
109	0xbe66a99c	-0.22525638
110	0xbf646d42	-0.89229214
111	0xbea132c7	-0.31484053
112	0xbf3ed130	-0.74537945
113	0xbe2a4f36	-0.16631779
114	0xbe0ef50c	-0.13960665
115	0xbea76254	-0.32692206
116	0x3e665d8c	0.22496623
117	0x3bb8992a	0.005633493
118	0xbe895672	-0.26823765
119	0xbfe5f301	-1.7964784
120	0xbe1d2fe6	-0.15350303
121	0xbe0623c4	-0.13099581
122	0xbe8b9076	-0.27258652
123	0xbdfa02c5	-0.122075595
124	0xbf03d85d	-0.5150202
125	0xbf5ba045	-0.85791427
126	0xbd5e998e	-0.05434566
127	0x3e8d6370	0.27614927

weight f4 [128, 128]
0	0xbda7b8f8	-0.08189577
1	0xbd94672c	-0.07246241
2	0xbe469f6c	-0.19396752
3	0x3da1fb40	0.0790925
4	0xbd9daf5b	-0.07699462
5	0x3d9d22c3	0.07672646
6	0x3e1803e6	0.14845237
7	0x3e18bc12	0.14915493
8	0xbe7f18ac	-0.24911755
9	0xbeb16ed1	-0.3465486
10	0x3e5e2412	0.21693447
11	0xbe695a26	-0.22788295
12	0x3dce08fe	0.10060309
13	0x3e921283	0.28529748
14	0x3cb27974	0.021786429
15	0x3d01c0fe	0.031678192
16	0x3e35523c	0.17707151
17	0x3dc0c4a4	0.09412506
18	0xbe9e7364	-0.3094741
19	0xbea4c41c	-0.3218087
20	0x3e3c088e	0.18362638
21	0xbebdbcc1	-0.3705807
22	0xbef3b6eb	-0.47600493
23	0xbe085818	-0.13314855
24	0x3ddc6dfa	0.10763164
25	0xbef75e7c	-0.48314273
26	0xbe7cd2c8	-0.24689782
27	0x3e03898b	0.12845437
28	0xbe5bcf98	-0.2146591
29	0x3e268d73	0.16264896
30	0xb9feab00	-0.0004857406
31	0x3e1268ae	0.14297745
32	0xbe719e50	-0.23595548
33	0xbdca7284	-0.09885123
34	0xbe790937	-0.24319921
35	0x3eb0afca	0.34509116
36	0xbdc7272e	-0.0972427
37	0xbe0a7a12	-0.13523129
38	0xbec6b8bf	-0.38812825
39	0xbd9d78b8	-0.07689041
40	0xbe3086ae	-0.17238876
41	0x3cb6ca18	0.022313163
42	0xbe5d1458	-0.21589792
43	0x3e811ea6	0.25218695
44	0xbd74ef61	-0.059798602
45	0xbee5cb4c	-0.44881666
46	0x3da0815d	0.07837174
47	0xbda6ee06	-0.08150868
48	0x3e85c484	0.26126492
49	0xbcc55416	-0.024087947
50	0xbe099f62	-0.13439706
51	0xbd90209e	-0.07037471
52	0xbd2a8477	-0.041630235
53	0xbf2509a3	-0.6446783
54	0x3d21cf2a	0.039504208
55	0x3cdfba64	0.027310558
56	0xbda9906c	-0.082794994
57	0x3c9d16cc	0.01917591
58	0xbdb3b5de	-0.08774923
59	0x3e6234e8	0.22090495
60	0x3e2bf29c	0.16791767
61	0xbdaa8482	-0.08326055
62	0xbe12ea30	-0.14347148
63	0x3d9137f8	0.07090753
64	0x3e7b599c	0.24545902
65	0xbebe7f90	-0.37206697
66	0xbea4d8f9	-0.32196787
67	0xbeb68363	-0.35647115
68	0x3d898d6b	0.067164265
69	0xbe844fae	-0.2584204
70	0xbe2d6052	-0.16931275
71	0xbdb46756	-0.08808772
72	0x3c82fd38	0.015989885
73	0xbf0017a5	-0.5003608
74	0x3e43d754	0.1912511
75	0xbe721550	-0.23640943
76	0xbda2eac0	-0.07954931
77	0xbe81f550	-0.2538247
78	0x3c494ea8	0.0122868195
79	0xbe76f61d	-0.24117322
80	0x3c1903f0	0.009339318
81	0x3e344a96	0.17606577
82	0xbe8cc474	-0.27493632
83	0x3dafe659	0.08588857
84	0x3e04c712	0.12966564
85	0xbe204918	-0.15652883
86	0x3d0ad260	0.033892035
87	0x3d383c34	0.04497929
88	0xbda494b6	-0.08036177
89	0xbd2b2c72	-0.041790433
90	0xbefb453c	-0.4907626
91	0xbf0ee582	-0.5581895
92	0xbe66b2ce	-0.22529146
93	0x3e251fd6	0.16125426
94	0xbe38c7d2	-0.18044975
95	0xbe7f5456	-0.24934515
96	0xbe064de0	-0.13115644
97	0xbe6bca47	-0.23026381
98	0xbde4abc4	-0.11165574
99	0xbdfda2f4	-0.123845965
100	0xbe5ac06a	-0.21362463
101	0xbf287622	-0.65805256
102	0xbe459b68	-0.19297564
103	0x3e8709a0	0.2637453
104	0x3da015a0	0.07816625
105	0xbd34d81a	-0.044151403
106	0x3d9bc129	0.07605202
107	0x3d02da30	0.03194636
108	0xbdbf8422	-0.09351374
109	0xbe957570	-0.2919116
110	0xbe5e599a	-0.21713868
111	0x3e8e9cf8	0.27854133
112	0xbd2a5b6b	-0.04159109
113	0xbde448f0	-0.11146724
114	0x3d545986	0.05184319
115	0xbee60cf6	-0.44931763
116	0xbdbe2b6e	-0.09285627
117	0xbf0ac90c	-0.54213023
118	0xbcbb7771	-0.022884103
119	0xbd550545	-0.05200698
120	0xbe7c7faa	-0.24658075
121	0xbe61ea14	-0.2206195
122	0x3d3db462	0.046314605
123	0xbe4e46f6	-0.20144257
124	0x3e2b27c2	0.16714385
125	0xbe367f8c	-0.17822093
126	0x3db0599a	0.0861084
127	0x3ddec44e	0.10877286
128	0xbd873178	-0.06601232
129	0xbd72c258	-0.059267372
130	0x3d9ae2b9	0.07562775
131	0x3db5db55	0.08879725
132	0x3ebfa10c	0.37427557
133	0x3d9ca575	0.07648746
134	0xbdaf0a40	-0.08546877
135	0xbd205096	-0.039139353
136	0x3d68694e	0.05674105
137	0xbe847855	-0.25873056
138	0xbcf975c6	-0.030451667
139	0x3d3291ee	0.0435962
140	0x3d414f36	0.047194682
141	0xbe1cbde7	-0.15306817
142	0x3daa9317	0.083288364
143	0x3d9b475f	0.07581972
144	0xbca4b160	-0.02010411
145	0xbd89f382	-0.067358986
146	0x3cd930b8	0.026512489
147	0xbe4ec97c	-0.20194048
148	0x3d862ebb	0.06551882
149	0xbe7615b0	-0.2403171
150	0xbe2ce976	-0.16885933
151	0xbda4ba0f	-0.080433
152	0xbd4abb95	-0.0494953
153	0xbe35171c	-0.17684597
154	0xbda8c625	-0.08240918
155	0xbe56a525	-0.20961435
156	0xbd8fbb36	-0.070181295
157	0x3bd68e30	0.006547712
158	0x3d880b03	0.06642725
159	0xbd4748df	-0.04865348
160	0x3da5d8ad	0.08097968
161	0x3d82933d	0.0637574
162	0xbe9a5124	-0.3014003
163	0x3da6f54b	0.08152255
164	0x3d45b9fe	0.04827308
165	0x3cad0d8c	0.021124624
166	0xbe885930	-0.26630545
167	0xbcfc9616	-0.030833285
168	0xbe0485f2	-0.12941721
169	0xbdac5e04	-0.084163696
170	0xbc575a48	-0.013144083
171	0xbdef197c	-0.11674783
172	0x3cdae794	0.026721753
173	0xbcc155b8	-0.023600444
174	0x3da3aa87	0.0799151
175	0x3cbf1c8c	0.023329042
176	0xbe8723b6	-0.26394433
177	0x3cb6d218	0.022316977
178	0xbd2fd6e4	-0.042929545
179	0xbd788a7e	-0.06067895
180	0xbd7856a8	-0.060629517
181	0xbe6ea2c5	-0.23304279
182	0x3d6dfe5a	0.058103897
183	0x3caddcf4	0.021223523
184	0xbc93b8e4	-0.018032499
185	0xbdab9084	-0.083771735
186	0x3d9a8857	0.07545536
187	0xbbc13d30	-0.0058971867
188	0x3dad376b	0.08457836
189	0x3cbc61fc	0.022995941
190	0x3e7cb716	0.24679217
191	0xbe637804	-0.22213751
192	0x3cd1b4f0	0.025598973
193	0xbe84d5e2	-0.2594443
194	0xbe8e20c5	-0.27759376
195	0xbe85bdea	-0.26121455
196	0x3e7a7d7c	0.24461931
197	0xbe6f494e	-0.23367807
198	0xbd9c2174	-0.07623568
199	0x3c272a88	0.010203011
200	0xbdede7ce	-0.11616479
201	0xbe5af1e2	-0.21381333
202	0x3da48625	0.080333985
203	0x3d583f09	0.05279449
204	0xbe3cd03c	-0.1843881
205	0xbd855d37	-0.0651192
206	0xbd2bf67d	-0.041983116
207	0xbc290e38	-0.010318331
208	0xbd67a5bc	-0.05655454
209	0x3c970e9c	0.018439583
210	0xbd8fbc20	-0.07018304
211	0xbd86f00b	-0.06588753
212	0x3cd1ed04	0.025625713
213	0x3d7639de	0.06011378
214	0xbdb0377d	-0.086043335
215	0xbe6a1c94	-0.22862464
216	0xbd8652d7	-0.06558769
217	0x3e9d7f90	0.30761385
218	0xbe77e4ba	-0.24208346
219	0xbe53153a	-0.20613566
220	0xbc114b2b	-0.008868019
221	0x3d0d114a	0.034440316
222	0xbd13f71d	-0.036124337
223	0x3ceb47ee	0.028720822
224	0xbdad4c62	-0.084618345
225	0xbd9e8c52	-0.07741608
226	0xbe5a35b5	-0.2130955
227	0xbc152990	-0.009104148
228	0x3bd61930	0.0065337643
229	0xbe6957b2	-0.2278736
230	0x3d48ad82	0.048993595
231	0xbcac1eb4	-0.021010734
232	0xbe5f246d	-0.21791239
233	0xbce81a40	-0.02833283
234	0xbd95e838	-0.07319683
235	0xbc40a378	-0.011757724
236	0xbe5882a0	-0.2114358
237	0xbeaa6984	-0.33283627
238	0xbc442e70	-0.011973962
239	0xbd0473a6	-0.032336853
240	0x3d7c3a82	0.061579235
241	0x3d7e7c06	0.062129997
242	0xbe122310	-0.14271188
243	0xbebd4338	-0.36965346
244	0xbe203aac	-0.15647382
245	0xbe261098	-0.16217268
246	0xbe87f0b4	-0.2655083
247	0xbc413d92	-0.011794465
248	0x3dfc56a4	0.12321213
249	0x3daa363f	0.08311128
250	0xbdde1e00	-0.10845566
251	0x3c5e6230	0.013573214
252	0x3d7b7d86	0.061399005
253	0xbcb6e524	-0.02232606
254	0xbdfa2be6	-0.12215404
255	0xbe7ffb8e	-0.24998304

bias f4 [128]
0	0xbf0ac53e	-0.5420722
1	0xbe2ba127	-0.16760693
2	0xbe7b2b26	-0.24528179
3	0xbf214b1e	-0.63005245
4	0xbf321bc6	-0.6957363
5	0xbe8a25f1	-0.26982072
6	0x3f43f3a3	0.76543635
7	0xbf3dbb28	-0.741137
8	0xbf523a38	-0.82120085
9	0xbf1c48c3	-0.61048526
10	0xbf2f0363	-0.6836454
11	0x40105734	2.2553225
12	0xbe73d0b0	-0.23810077
13	0xbea7f9a4	-0.32807648
14	0xbebd5c8c	-0.3698467
15	0x3fe11477	1.758437
16	0x403009ba	2.7505937
17	0x400fd51f	2.2473829
18	0xbec553e5	-0.3854057
19	0x3f664376	0.8994669
20	0xbe62c4fa	-0.22145453
21	0x401011c1	2.2510836
22	0x4020892a	2.5083718
23	0xbd67718c	-0.05650477
24	0xbe6988d2	-0.22806099
25	0xbf427bce	-0.7597016
26	0xbdd3553e	-0.10318993
27	0xbe5720ae	-0.2100856
28	0xbf67a56e	-0.904868
29	0xbeff5650	-0.4987054
30	0xbead3e02	-0.3383637
31	0xbe85b746	-0.2611639
32	0xbf0743aa	-0.5283762
33	0xbe9f85f0	-0.31156874
34	0xbe2f76c4	-0.17135149
35	0xbe8ca369	-0.27468422
36	0xbecd9300	-0.40151215
37	0xbf06d21e	-0.52664363
38	0x3fc3dd36	1.5301883
39	0xbe8ead7a	-0.27866727
40	0x4009fb9a	2.1559815
41	0xbe549836	-0.20761189
42	0xbe8aae0b	-0.2708591
43	0x3f350e90	0.70725346
44	0x3fbd692a	1.4797719
45	0x3fae2190	1.3603992
46	0xbf88d246	-1.068917
47	0x3f37c00a	0.71777403
48	0x40143852	2.3159375
49	0xbe627913	-0.22116499
50	0xbd95f612	-0.07322325
51	0xbf4ceea0	-0.8005161
52	0x3fe61ff5	1.7978503
53	0xbee887dc	-0.45416152
54	0xbe694f88	-0.22784245
55	0xbf863aba	-1.0486672
56	0xbe973a4a	-0.2953666
57	0x3fc080c6	1.5039299
58	0x401648fe	2.348205
59	0x401ff7ec	2.499507
60	0xbe4172da	-0.18891469
61	0xbe3c7804	-0.18405157
62	0xbe12bd62	-0.14330056
63	0x3fd7dd3c	1.686439
64	0xbf54ae02	-0.83078015
65	0x3f45d89e	0.77283657
66	0xbeb5f69e	-0.35539716
67	0xbe40ab70	-0.18815398
68	0xbeec2d8a	-0.46128494
69	0xbe0998b0	-0.13437152
70	0xbe2789f2	-0.16361216
71	0xbd93a35a	-0.07208891
72	0xbe50e4a2	-0.20399716
73	0xbe197a89	-0.1498815
74	0x3fa90f04	1.3207707
75	0xbe9bf89b	-0.30463108
76	0xbecc5644	-0.39909565
77	0xbe75543b	-0.23957913
78	0xbe0ca9c6	-0.13736638
79	0xbf5bf126	-0.8591484
80	0x402071d0	2.5069466
81	0xbf317b56	-0.6932882
82	0xbd1254bd	-0.035725344
83	0xbf3d54b2	-0.7395736
84	0x3edf974a	0.43670112
85	0x4007a88e	2.1196628
86	0x3f5d08c9	0.8634153
87	0xbe034352	-0.1281865
88	0xbee37508	-0.44425225
89	0x3fb87870	1.4411755
90	0xbdc332b9	-0.09531159
91	0xbd1d4b7a	-0.03840206
92	0xbedf5680	-0.43620682
93	0xbe665ff7	-0.22497545
94	0x3e6ab3d5	0.22920163
95	0xbf5e758c	-0.8689811
96	0xbee8e6c0	-0.45488548
97	0xbe0f42a8	-0.13990271
98	0xbe991776	-0.29900712
99	0xbea40aca	-0.3203948
100	0xbe9a78f0	-0.30170393
101	0x402e6e31	2.7254755
102	0xbdccda6c	-0.10002598
103	0x4016b63a	2.3548722
104	0xbeb9f348	-0.3631842
105	0x3f93f8c6	1.1560295
106	0x3eae0292	0.33986336
107	0xbeb5edde	-0.3553304
108	0xbe84c13a	-0.2592867
109	0xbf23717a	-0.63845026
110	0x3fe1aaae	1.7630212
111	0xbe48feca	-0.19628444
112	0xbee732bc	-0.45155895
113	0x3f9a4912	1.2053549
114	0xbd867763	-0.0656574
115	0x3ff19d72	1.8876173
116	0xbec287b4	-0.37994158
117	0x40263cb8	2.597456
118	0xbe83c895	-0.2573897
119	0x3fcd9d46	1.6063621
120	0xbefa6362	-0.48903948
121	0xbe94f944	-0.29096425
122	0xbe245520	-0.16048098
123	0x3fc4e01e	1.5380895
124	0x3f4d7e30	0.8027067
125	0xbf201a82	-0.6254045
126	0xbe78221a	-0.24231759
127	0xbe51ac10	-0.20475793

weight f4 [2, 128]
0	0xbd6ad241	-0.05732942
1	0x3d29ad5a	0.041425087
2	0xbd45dd8d	-0.04830699
3	0xbec60620	-0.38676548
4	0x3f1496f8	0.5804286
5	0xbd63550c	-0.05550103
6	0xbdc7523f	-0.09732484
7	0xbe5ad361	-0.21369697
8	0x3d9a0310	0.075201154
9	0xbe8d84b8	-0.2764032
10	0x3e5090b6	0.20367703
11	0x3f6e21ba	0.9302021
12	0xbde6cd35	-0.11269609
13	0xbec1e855	-0.37872568
14	0x3db21531	0.08695448
15	0xbed464be	-0.4148311
16	0x3f5c5484	0.8606646
17	0x3d8860b8	0.06659073
18	0x3d238f19	0.03993139
19	0xbc967846	-0.018367898
20	0x3e384062	0.1799331
21	0x3e38eb16	0.18058428
22	0x3f1e8a86	0.6193012
23	0xbd3a27c2	-0.045448072
24	0x3cb53f85	0.022125015
25	0xbf3a0300	-0.7266083
26	0x3dac52ae	0.084142074
27	0xbd564c3c	-0.052318797
28	0x3e0f8330	0.14014888
29	0xbd220ac6	-0.039561056
30	0xbdc13290	-0.09433472
31	0xbacef6d4	-0.0015790113
32	0xbd1abeb5	-0.03777953
33	0x3d07144c	0.03297834
34	0xbd8b1684	-0.06791404
35	0xbd80e8b4	-0.062943846
36	0x3d0e9c48	0.03481701
37	0x3df79a40	0.12089968
38	0x3f663415	0.8992322
39	0x3c9b26f6	0.018939476
40	0x3f649782	0.8929368
41	0x3dc88e9c	0.097928256
42	0x3d6aae2d	0.057295013
43	0xbe7c0cb4	-0.24614221
44	0x3f6d943a	0.928043
45	0x3f0a9c48	0.54144716
46	0xbe3d0526	-0.18458995
47	0xbe8c5dda	-0.27415353
48	0x3f88ac5d	1.0677601
49	0x3ea3e0fb	0.32007584
50	0x3dc32e30	0.09530294
51	0x3c969479	0.018381344
52	0xbe9064de	-0.28201956
53	0xbe51c5ea	-0.20485654
54	0x3db49d0a	0.08819015
55	0xbd95732a	-0.072973564
56	0xbd3aa36e	-0.045566015
57	0xbe501236	-0.20319447
58	0x3f62a2a4	0.8852942
59	0x3f89c875	1.07643
60	0x3c3b7e1e	0.011443643
61	0xbda47c7a	-0.080315545
62	0x3df7c248	0.12097603
63	0xbe6aee5a	-0.22942486
64	0xbf05b1a4	-0.52224183
65	0xbe2d2b01	-0.16910936
66	0xbd3a2f5a	-0.045455314
67	0xbba24a1c	-0.004952682
68	0xbdb622d4	-0.08893362
69	0xbde0f960	-0.109850645
70	0xbdf76456	-0.120796844
71	0xbdd8f66f	-0.105938785
72	0x3e59328a	0.21210685
73	0x3d8b5358	0.06803006
74	0xbde500b7	-0.11181777
75	0xbe49117a	-0.19635573
76	0xbd58d5e7	-0.05293837
77	0x3e38d120	0.18048525
78	0xbe0998af	-0.1343715
79	0x3e7372a0	0.23774195
80	0x3f588ac3	0.84586734
81	0x3eaa1e31	0.3322616
82	0x3d6e8a71	0.058237497
83	0x3ea4ca39	0.32185534
84	0xbe1fc81d	-0.15603681
85	0x3eda6cf2	0.42661244
86	0xbe266042	-0.16247657
87	0x3cedebd6	0.02904312
88	0xbd3f3312	-0.046679564
89	0xbf914f0d	-1.1352249
90	0x3d4ac820	0.04950726
91	0xbd055938	-0.03255579
92	0xbd6723ee	-0.05643075
93	0xbe063d9e	-0.13109443
94	0xbd0e4ffa	-0.03474424
95	0x3ea17ae2	0.31539065
96	0xbf2a1ee0	-0.6645336
97	0xbc7f39c0	-0.0155777335
98	0xbd0b24d8	-0.033970684
99	0x3c701014	0.014652271
100	0xbe161f0a	-0.14660278
101	0x3f558082	0.8339921
102	0xbe85f392	-0.26162392
103	0x3f310690	0.6915064
104	0xbe97ef68	-0.2967484
105	0xbdd6e390	-0.10492623
106	0xbcf68be2	-0.030095998
107	0x3d39418e	0.045228533
108	0xbd80e5e4	-0.06293848
109	0xbf4ae35d	-0.7925318
110	0x3f14008e	0.57813346
111	0xbdccc0ee	-0.09997736
112	0xbdbd6998	-0.09248656
113	0xbdc4cd2a	-0.096094444
114	0xbdaa20fb	-0.08307072
115	0xbef583e7	-0.47952196
116	0xbc243b1a	-0.010023857
117	0x3f47778e	0.779168
118	0x3d7b7578	0.061391324
119	0xbe8ea0eb	-0.27857146
120	0x3e41c810	0.18923974
121	0xbcd1e61a	-0.025622416
122	0xbdf74748	-0.12074143
123	0xbe066b26	-0.13126811
124	0xbee85762	-0.45379168
125	0xbd9182be	-0.07105015
126	0xbe035d63	-0.12828593
127	0xbdcbd974	-0.09953585
128	0xbcaac9ae	-0.020848121
129	0xbd16ca00	-0.036813736
130	0x3e218838	0.1577462
131	0x3e48c2fe	0.19605634
132	0x3e18208e	0.14856169
133	0x3d18e1f8	0.037324876
134	0xbe37c08a	-0.17944542
135	0xbe7961bd	-0.2435369
136	0x3c280788	0.010255702
137	0xbeb1b298	-0.3470657
138	0x3eecfbb8	0.46285796
139	0x3ecd911e	0.40149778
140	0x3d4bf9a6	0.04979863
141	0xbe736a78	-0.23771083
142	0x3e14011e	0.14453551
143	0xbe65f653	-0.22457246
144	0x3f88e23b	1.069404
145	0x3f9bf1ee	1.2183206
146	0x3d85e137	0.06537097
147	0xbe8d424e	-0.2758965
148	0x3dc17f6a	0.094481304
149	0x3f8781a8	1.0586443
150	0x3f7377e8	0.9510484
151	0xbd588880	-0.05286455
152	0xbaf7d0c6	-0.0018906824
153	0x3db4bc42	0.0882497
154	0xbe848838	-0.25885177
155	0x3d121a0f	0.035669383
156	0x3d06e938	0.03293726
157	0x3e4a8679	0.1977786
158	0xbd619b6e	-0.05507987
159	0x3d54bb9a	0.051936723
160	0x3d95c392	0.07312693
161	0x3d180984	0.03711845
162	0x3d79b636	0.060964786
163	0x3df94cd4	0.12172857
164	0xbb4b6a30	-0.0031038634
165	0xbe82e34c	-0.2556404
166	0xbdaa59f5	-0.08317939
167	0x3c855f03	0.016280657
168	0x3e8cf328	0.27529263
169	0x3dac15d1	0.08402599
170	0x3db6e37c	0.08930108
171	0xbe6da2d1	-0.23206641
172	0xbeb4376d	-0.35198537
173	0xbdea0910	-0.1142751
174	0x3d375604	0.044759765
175	0xbe4f7980	-0.20261192
176	0x3e85b162	0.26111895
177	0x3e2f32c0	0.17109203
178	0x3c21529f	0.009846359
179	0xbd3e2b18	-0.046427816
180	0xbf218b2f	-0.63103
181	0x3d19b066	0.037521742
182	0x3e13b1fa	0.14423361
183	0xbe8db121	-0.276742
184	0x3ae3b4aa	0.0017372568
185	0xbef9ed48	-0.48813844
186	0x3f32cb7c	0.6984174
187	0x3f1baa45	0.60806686
188	0x3baacba1	0.0052122627
189	0x3dbba472	0.09162225
190	0x3e02063a	0.12697688
191	0x3f5b5d3f	0.8568916
192	0xbeb2c491	-0.34915593
193	0xbdb38d04	-0.08767131
194	0xbe8370a9	-0.2567189
195	0x3d075660	0.033041358
196	0x3d6a51d2	0.057206936
197	0xbe9057dc	-0.2819203
198	0xbd418b48	-0.04725197
199	0xbe3c5156	-0.18390402
200	0xbdfc2103	-0.12310984
201	0xbd6b8984	-0.057504192
202	0xbe49f9d0	-0.19724202
203	0xbcee3c03	-0.02908135
204	0xbe17f330	-0.14838862
205	0xbd9e0256	-0.07715289
206	0x3d766b8e	0.060161166
207	0xbdd212e7	-0.102575116
208	0x3f6ec822	0.9327413
209	0x3df064b7	0.1173796
210	0x3dcd6224	0.100284845
211	0xbe9f824e	-0.31154102
212	0xbddc92ac	-0.10770163
213	0x3f36605e	0.71240795
214	0x3e8b64ae	0.2722525
215	0xbe3bfb6d	-0.1835763
216	0xbdfb8ca0	-0.122826815
217	0x3eb95128	0.3619473
218	0x3b95e70f	0.0045746635
219	0x3c8c0428	0.017091826
220	0x3d82530e	0.06363498
221	0xbe30d5ed	-0.17269106
222	0x3d7667de	0.06015765
223	0xbe803d0a	-0.2504657
224	0xbf67e93f	-0.9059028
225	0x3b21d2da	0.0024692328
226	0x3e94ba22	0.29048258
227	0xbcf49238	-0.029854879
228	0x3d7087db	0.058723312
229	0x3f8ea9fe	1.1145627
230	0xbe3deaae	-0.18546554
231	0x3f45ae2e	0.772189
232	0x3e17de70	0.14830947
233	0xbeafb248	-0.34315705
234	0xbdde5423	-0.108558916
235	0xbd7ee135	-0.062226493
236	0x3bc7eb86	0.0061010746
237	0xbdab2fe0	-0.08358741
238	0x3d9f5b3a	0.07781072
239	0x3dcfc760	0.1014545
240	0xbbf66b32	-0.007520103
241	0x3eca07a2	0.39458948
242	0xbd3d30d0	-0.04618913
243	0xbf326dd8	-0.6969886
244	0x3cc95b24	0.024579592
245	0x3f886aa6	1.0657547
246	0x3e005644	0.12532908
247	0xbe78f81a	-0.24313393
248	0xbebadd8e	-0.36497158
249	0x3e076f32	0.13226011
250	0xbde92fc8	-0.11386067
251	0xbe6f9aca	-0.23398891
252	0x3eb5659c	0.35429084
253	0x3e5a4b90	0.21317887
254	0xbdf26688	-0.118359625
255	0xbe25f246	-0.16205701

bias f4 [2]
0	0x3fc65b66	1.5496643
1	0x3fa77cf0	1.3085003
