DQL/lunar_checkpoint.pth (torch_old, 139984 bytes, 8 tensors)

weight f4 [128, 4]
-0.47547197 0.12055457 0.40473813 0.109121144 -0.71823996 0.10512946 -6.5366755 -0.2660206
0.69526136 -0.107947566 2.9285583 0.047469486 -0.7509593 -0.12276463 -0.29487044 -0.1643114
-0.39498886 0.4275335 -0.6977939 0.60631275 0.016257346 0.25556302 2.6048965 0.17254983
0.93058366 -0.2347677 -1.6288254 -0.3023073 -0.25806153 -0.326673 0.15997347 -0.2700263
0.44892076 0.13023177 0.9913398 0.051880524 0.6334357 -1.3677025 3.244334 -0.88538665
0.97708523 -0.47003013 2.0788774 -0.13585919 0.4699434 0.5193194 -0.94728506 0.21538746
0.782153 -0.023805741 -0.63983095 0.2164301 0.013783686 -0.16030836 -0.48895228 -0.16660121
0.37893984 -0.11367248 -1.2082478 -0.12850456 1.2065845 0.67830974 0.6115614 0.45079172
1.4996309 0.21581165 -2.0756865 -0.024382722 0.16165142 -0.8806394 0.49475327 -0.48528883
0.7926364 -0.9179158 2.182336 -0.65239084 0.4331023 0.21269163 -2.5336993 -0.029141784
-0.03495372 0.099087454 0.28937057 -0.030592095 -0.07217408 0.051288873 -0.4215934 0.12791672
0.055149853 0.89631474 0.66923845 0.6667385 0.13309507 -0.91099954 -0.83863145 -0.6999923
-0.5779058 -0.47280425 -0.49075964 -0.4892429 -0.003093422 -0.62853825 1.415697 0.33534026
1.0015193 0.09994535 1.5210731 0.31993902 0.98944324 -0.29688066 -2.8797789 -0.40722242
-0.5171993 -0.05388126 -0.66140133 -0.22112887 -0.13505068 -0.05692873 0.27278772 -0.0848842
1.5667382 -0.538218 -4.193063 -0.20865577 1.5345256 -0.014063725 -1.0510328 0.035951324
-0.03603077 0.008755589 -0.23046166 0.059018947 -0.8770338 -0.20394173 -0.26008677 0.15526424
0.6658354 0.11914783 -2.0366993 0.14689374 0.07701519 -0.35479984 -0.48809847 -0.38740307
-0.014972145 0.31382304 -1.8203044 0.2591065 0.8646727 0.61554223 -2.11335 -0.12513807
-0.2815166 0.13507187 -0.81721896 0.1755161 0.64609873 0.18323983 1.4815964 0.42385
1.2291336 0.23254578 -2.3733306 -0.49174598 0.3777741 0.0737951 0.022004364 0.535457
0.03747918 0.060609985 -0.045201633 0.032377377 -0.4461639 -0.3977506 0.4581818 -0.4654038
0.7873686 -0.91120213 3.1084805 -0.35956988 -0.3602066 -0.15876462 -0.3766576 -0.101507336
-0.2089782 0.10692668 -0.8392493 0.07405281 -0.4391641 -0.049286447 -0.16261235 -0.22360721
0.5453225 -0.48700964 0.29146028 -0.5299346 0.6252235 -0.0737399 -3.0226493 -0.087850325
-0.4765442 -0.020160632 0.3024117 0.07898482 1.0113223 0.07241889 0.55491054 0.23724277
-1.3703384 0.5927196 0.04718631 0.48140228 -0.19821608 -0.34974858 1.0911623 0.34151068
0.18182719 0.23737064 0.27918258 0.33420563 -0.21564513 0.19743222 0.44421348 0.31076497
0.66527784 0.31914932 -0.25693917 0.1906181 0.26450452 -0.7090437 -1.6671758 0.09949952
-0.20628928 0.23878697 -0.20729825 0.50289917 1.2995437 -0.6735689 -1.9330642 -0.20941454
-0.6161954 0.021744363 1.0423403 0.10548656 -0.22552618 -0.15346137 -0.62245244 0.22181883
0.04909125 0.108425304 0.025759779 0.12558123 -0.6326629 -0.4607706 -0.6785323 -0.54374737
00000000: 1071 f3be 50e5 f63d d639 cf3e e87a df3d
00000010: 93de 37bf 1d4e d73d 722c d1c0 da33 88be
00000020: a6fc 313f 9d13 ddbd 806d 3b40 5d6f 423d
00000030: de3e 40bf 066c fbbd 42f9 96be 3f41 28be
00000040: fb3b cabe ace5 da3e 9fa2 32bf 5037 1b3f
00000050: 202e 853c 28d9 823e a0b6 2640 e7b0 303e
00000060: bb3a 6e3f f266 70be 5a7d d0bf 06c8 9abe
00000070: a420 84be af41 a7be 16d0 233e e340 8abe
00000080: f1d8 e53e 7a5b 053e 72c8 7d3f ac80 543d
00000090: d828 223f e010 afbf 2ba3 4f40 b3a8 62bf
000000a0: 4222 7a3f caa7 f0be 540c 0540 ac1e 0bbe
000000b0: 6c9c f03e 1ef2 043f 4681 72bf 888e 5c3e
000000c0: 2e3b 483f 4204 c3bc f6cb 23bf da9f 5d3e
000000d0: f8d4 613c e027 24be f457 fabe 8299 2abe
000000e0: 6704 c23e 1ecd e8bd dda7 9abf b396 03be
000000f0: 5c71 9a3f b5a5 2d3f 4a8f 1c3f 2cce e63e
00000100: e8f3 bf3f bbfd 5c3e 0cd8 04c0 46be c7bc
00000110: f387 253e 9571 61bf 4d50 fd3e c777 f8be
00000120: 38ea 4a3f 88fc 6abf 65ab 0b40 1603 27bf
00000130: 96bf dd3e d6cb 593e 2128 22c0 c0ba eebc
00000140: a22b 0fbd 5dee ca3d 6128 943e 469c fabc
00000150: 01d0 93bd 4814 523d 17db d7be 9afc 023e
00000160: d0e4 613d e274 653f 3653 2b3f 60af 2a3f
00000170: 134a 083e 4437 69bf 8db0 56bf b232 33bf
00000180: a2f1 13bf 6613 f2be d944 fbbe 0c7e fabe
00000190: 02bb 4abb e2e7 20bf 8f35 b53f b8b1 ab3e
000001a0: c931 803f 26b0 cc3d 86b2 c23f 0ccf a33e
000001b0: 274c 7d3f be00 98be 4c4e 38c0 757f d0be
000001c0: 2c67 04bf 99b2 5cbd 9951 29bf 9b6f 62be
000001d0: ba4a 0abe 1a2e 69bd d5aa 8b3e c4d7 adbd
000001e0: e18a c83f a8c8 09bf 922d 86c0 dca9 55be
000001f0: 566b c43f 8a6b 66bc 3e88 86bf b241 133d
00000200: 0095 13bd 9a73 0f3c 24fe 6bbe dabd 713d
00000210: 4a85 60bf 1ad6 50be 182a 85be 97fd 1e3e
00000220: 3074 2a3f c703 f43d 4859 02c0 506b 163e
00000230: 24ba 9d3d 53a8 b5be 0be8 f9be b259 c6be
00000240: ba4d 75bc 6aad a03e bcff e8bf 9ba9 843e
00000250: 315b 5d3f 2d94 1d3f 2041 07c0 3224 00be
00000260: f222 90be 4850 0a3e 4335 51bf 7eba 333e
00000270: ba66 253f 39a3 3b3e f3a4 bd3f de02 d93e
00000280: 4054 9d3f 7b20 6e3e a6e4 17c0 21c6 fbbe
00000290: 9b6b c13e e321 973d 7f42 b43c b613 093f
000002a0: c583 193d 2d42 783d 5925 39bd 249e 043d
000002b0: 986f e4be f7a5 cbbe ce96 ea3e 6849 eebe
000002c0: fd90 493f 8b44 69bf 58f1 4640 8b19 b8be
000002d0: 006d b8be 3193 22be 44d9 c0be 14e3 cfbd
000002e0: 62fe 55be 60fc da3d 0bd9 56bf 00a9 973d
000002f0: 1eda e0be 96e0 49bd da83 26be 4af9 64be
00000300: 419a 0b3f 5459 f9be 483a 953e cba9 07bf
00000310: a60e 203f f204 97bd 1673 41c0 dfea b3bd
00000320: 9afd f3be e927 a5bc b5d5 9a3e cbc2 a13d
00000330: 0273 813f 5b50 943d 9e0e 0e3f c5ef 723e
00000340: 4067 afbf 79bc 173f 6f46 413d 5c7a f63e
00000350: 28f9 4abe 3f12 b3be 35ab 8b3f 7dda ae3e
00000360: e830 3a3e 4a11 733e 05f1 8e3e 001d ab3e
00000370: 14d2 5cbe ac2b 4a3e f36f e33e 961c 9f3e
00000380: a64f 2a3f 8a67 a33e 888d 83be 6431 433e
00000390: 236d 873e e383 35bf 0466 d5bf 68c6 cb3d
000003a0: 7f3d 53be 9284 743e fe45 54be 00be 003f
000003b0: 7357 a63f 036f 2cbf a66e f7bf c470 56be
000003c0: fbbe 1dbf 3c21 b23c 686b 853f 5609 d83d
000003d0: 56f0 66be fa24 1dbe 0b59 1fbf 7a24 633e
000003e0: e813 493d 160e de3d 2c06 d33c 5e98 003e
000003f0: 32f6 21bf 20ea ebbe 4bb4 2dbf 0733 0bbf

bias f4 [128]
-0.4199317 -0.23441508 -0.330961 -0.59857553 -0.3176149 -0.33230066 -1.1723685 -0.44226432
0.0037077968 -0.37643605 -1.6051817 0.029902395 -0.10561304 0.13394399 -0.56979 0.18845114
-0.13520092 -0.07497802 -0.7946422 -0.59666747 -0.29702723 -0.1229943 -0.7060237 0.004388582
-0.003806619 -1.0611944 -0.4902357 -0.20500433 0.565765 -0.08625309 -0.5171483 0.3400763
-0.054731652 0.50421923 -0.16496645 0.5137126 0.05114244 -0.90839714 -0.009663094 -0.3092077
-0.5281305 -0.37572995 0.49349737 -0.51259786 -0.8599579 -0.23988186 0.4146418 0.47609186
-0.16064744 -0.18637174 0.054082423 -0.4665166 -0.33622733 -0.9523273 -0.22096549 -0.23571444
-1.523214 -1.0869039 -0.4919223 -0.5494997 0.55101144 0.027719771 -0.07557909 0.5079522
-0.095304176 0.114101425 -0.3088846 -0.58840865 -0.33279464 -0.16114423 -0.11564295 0.2871816
-0.17661263 -0.6123621 0.4881106 0.020413257 -0.46631092 0.0053721336 -0.53383356 -0.6390234
0.024503414 -0.4583596 0.13841261 -0.39959604 -0.086743414 -0.61992866 -0.49552122 0.049160756
-0.3700208 0.5617974 -0.14038837 0.07297795 0.09402744 -0.43068138 -0.21630105 -0.4739902
0.09008661 -1.0238429 -0.7479864 -0.71756834 -1.8385947 -0.27523544 -0.49184418 -0.52064985
-0.5813229 0.39798015 -0.0788102 -0.07581448 -0.19013433 0.28800893 0.38523564 -0.0846468
0.09153965 -0.15172839 -0.41118222 -0.37843388 -0.47317952 -1.0431776 0.1227378 0.23365787
-0.2827745 0.07440078 -0.46776414 -0.41536325 -0.11038728 -0.76125693 -0.9095736 -0.9853997
00000000: 4a01 d7be 820a 70be b873 a9be 3f3c 19bf
00000010: 6c9e a2be 5023 aabe 2c10 96bf 7870 e2be
00000020: 82fe 723b 3abc c0be 9876 cdbf def5 f43c
00000030: a64b d8bd 9d28 093e c2dd 11bf 56f9 403e
00000040: 1c72 0abe 138e 99bd ac6d 4bbf 33bf 18bf
00000050: f413 98be 70e4 fbbd f8bd 34bf 18ce 8f3b
00000060: 7878 79bb 38d5 87bf 2c00 fbbe a8ec 51be
00000070: fad5 103f 76a5 b0bd d563 04bf 7b1e ae3e
00000080: 4c2e 60bd 8314 013f f7ec 28be ab82 033f
00000090: bc7a 513d b78c 68bf f451 1ebc 7950 9ebe
000000a0: 8f33 07bf ad5f c0be b0ab fc3e 9d39 03bf
000000b0: 3326 5cbf 97a3 75be ee4b d43e 50c2 f33e
000000c0: c380 24be 3cd8 3ebe 8885 5d3d 44db eebe
000000d0: fd25 acbe b9cb 73bf c744 62be 205f 71be
000000e0: adf8 c2bf ab1f 8bbf 3ddd fbbe 03ac 0cbf
000000f0: 160f 0d3f 9314 e33c 36c9 9abd 2809 023f
00000100: d62e c3bd 02ae e93d 1f26 9ebe f3a1 16bf
00000110: 0f64 aabe fe02 25be 36d6 ecbd 7709 933e
00000120: f1d9 34be c3c3 1cbf a2e9 f93e b439 a73c
00000130: 4ec0 eebe b908 b03b 51a9 08bf 0a97 23bf
00000140: 62bb c83c 1cae eabe 09bc 0d3e da97 ccbe
00000150: 88a6 b1bd a5b3 1ebf f5b4 fdbe ca5c 493d
00000160: 5e73 bdbe f4d1 0f3f f8c1 0fbe 7775 953d
00000170: 7591 c03d 4582 dcbe 067e 5dbe d8ae f2be
00000180: 547f b83d 490d 83bf 097c 3fbf 8fb2 37bf
00000190: 1257 ebbf a9eb 8cbe 00d3 fbbe 4f49 05bf
000001a0: 94d1 14bf 0ec4 cb3e 3e67 a1bd 9f44 9bbd
000001b0: 93b2 42be e875 933e 9b3d c53e 4d5b adbd
000001c0: 2479 bb3d b05e 1bbe 7a86 d2be 16c2 c1be
000001d0: 9644 f2be d886 85bf f55d fb3d 0244 6f3e
000001e0: d2c7 90be 705f 983d c87e efbe 7eaa d4be
000001f0: ba12 e2bd bce1 42bf d1d9 68bf 2843 7cbf

weight f4 [128, 128]
0.044158824 -0.027337223 -2.6661315 -0.06997381 -0.40084052 -0.2397913 -0.43798319 0.08244351
-0.2705021 -0.56473684 -0.20126034 -0.1090491 -0.18817496 -0.08073376 -0.66247183 -0.22397926
-0.67569715 0.010076767 -0.47005516 -0.11937542 -0.0006075631 -0.06121999 -0.4407609 0.1402543
0.088967696 -0.15066451 -0.45041996 -0.46398497 0.1416732 0.059748337 -0.65889615 -0.095759615
-0.064034246 0.12253481 -0.26391682 0.23497897 -0.14238217 0.2137776 -0.08413703 -0.636762
0.11953178 -0.5378741 0.17384665 0.17720056 -0.2518149 -0.012259621 0.09236762 0.11604891
-0.030925516 -0.20163296 -0.12976922 -0.4007692 0.010180278 -0.21467768 -0.23280723 -0.3113086
-0.1296571 -0.36324868 -0.35158116 -0.7696065 0.0089514535 -0.092047706 -0.16191465 0.19783282
0.108853735 -0.077520154 -0.12414421 -0.6982652 -0.014916401 -0.13531807 -0.00831692 0.11845532
-0.008064044 -0.121457405 0.03811671 -0.4514951 -0.5898205 -0.30294192 -0.53717995 -0.42204547
-0.25635716 -0.30970615 -0.27294746 -0.1146805 -0.13958548 -0.59081423 -0.18153176 0.13973914
-0.07567279 0.12218942 0.11642614 -0.23911446 0.09592351 -0.50686896 -0.52576196 0.012656564
-0.14614597 -0.40287876 -0.80242753 -0.68149704 -0.06970972 -0.3911842 -0.30281165 -0.40491074
-0.260968 0.1447425 0.068956695 0.05947763 -0.29057923 -0.1559989 0.08812632 -0.090409905
-0.2290988 -0.15996528 -1.6862915 -0.32277098 -0.44693115 -0.34689632 -0.16605246 0.06310167
-0.18177894 -0.013152964 -0.1172382 0.12923837 -0.0038591137 -0.89808315 -0.4544778 -0.3667691
0.01851976 -0.04052942 -0.0818222 0.014267668 -0.05724466 0.015671428 -0.0681622 0.011267908
-0.046087567 0.075889595 0.07720923 -0.05895682 0.025980622 -0.12822267 0.011177839 0.022788996
0.044602327 -0.091212906 0.0013960229 -0.12203978 0.03641607 0.010837189 -0.07668702 -0.058337294
-0.07727278 0.0231826 0.014348625 -0.08375606 -0.11327306 -0.13387087 -0.0011000559 0.020793155
-0.04070317 -0.0888938 0.010067286 -0.097963035 -0.096767634 0.007464513 -0.045759268 -0.051545583
-0.0530473 -0.036477044 -0.09820244 0.05024954 0.13456187 0.04423528 -0.11270623 -0.08692787
-0.012549888 -0.013287924 -0.0831771 -0.050523333 0.003967695 -0.019670375 0.048890788 0.08868067
-0.1128145 0.045497887 -0.07303799 -0.018055297 0.013294838 -0.1023126 -0.006485943 -0.13381751
-0.05702686 -0.11487662 0.048583172 0.028349832 -0.102369815 -0.03206058 -0.007984769 -0.03778071
-0.08234716 0.0031543835 0.008582856 0.020404968 -0.09698534 -0.011696607 0.0014881528 0.073720545
0.006535977 0.01169221 -0.054062583 0.028858315 -0.01026645 0.0026553497 0.12320241 0.024463432
0.041372992 0.022416426 0.008634377 -0.10914025 0.00886092 0.050353725 -0.008699156 0.022952102
-0.10385872 -0.0033673646 0.046513326 -0.05126418 -0.00084733963 0.0018254536 0.04670421 -0.0016578287
-0.012948409 -0.08759573 -0.052537285 -0.09341251 -0.011126582 -0.024704782 -0.043177582 -0.066436835
-0.07014389 -0.104255676 0.019329965 0.11516863 -0.083563894 0.053415976 -0.057263777 0.025204437
0.074642174 0.024249578 0.06920207 -0.0016522482 -0.13015519 -0.024139114 -0.15037334 -0.0018476471
00000000: e2df 343d 50f2 dfbc e6a1 2ac0 6e4e 8fbd
00000010: f83a cdbe da8b 75be 553f e0be 25d8 a83d
00000020: 407f 8abe 9892 10bf 3117 4ebe 2255 dfbd
00000030: f0b0 40be be57 a5bd c197 29bf d25a 65be
00000040: 7dfa 2cbf 0619 253c 12ab f0be 1a7b f4bd
00000050: df44 1fba d0c1 7abd 6aab e1be d39e 0f3e
00000060: b234 b63d cc47 1abe 729d e6be 708f edbe
00000070: c812 113e acba 743d 6bad 28bf 9e1d c4bd
00000080: 6324 83bd 88f3 fa3d 1b20 87be 549e 703e
00000090: a2cc 11be 84e8 5a3e 0950 acbd d602 23bf
000000a0: 14cd f43d 1eb2 09bf db04 323e 1074 353e
000000b0: e2ed 80be 94dc 48bc 3c2b bd3d 0dab ed3d
000000c0: 8257 fdbc df78 4ebe 39e2 04be 9f31 cdbe
000000d0: 2ecb 263c 77d4 5bbe 0565 6ebe d763 9fbe
000000e0: d5c4 04be bbfb b9be 7202 b4be ee04 45bf
000000f0: 1ea9 123c 8283 bcbd f4cc 25be b094 4a3e
00000100: b5ee de3d e3c2 9ebd 523f febd 82c1 32bf
00000110: ec63 74bc d290 0abe b143 08bc b498 f23d
00000120: 0d1f 04bc a9be f8bd 4420 1c3d 5e2a e7be
00000130: 7afe 16bf 341b 9bbe a084 09bf 5816 d8be
00000140: 3f41 83be ce91 9ebe c5bf 8bbe 9cdd eabd
00000150: 7fef 0ebe 9a3f 17bf 76e3 39be c717 0f3e
00000160: 56fa 9abd 723e fa3d d470 ee3d 6cda 74be
00000170: 8c73 c43d 2ac2 01bf 5698 06bf 7a5d 4f3c
00000180: 4aa7 15be 2046 cebe e46b 4dbf 9776 2ebf
00000190: f8c3 8ebd 4c49 c8be 210a 9bbe 7650 cfbe
000001a0: 999d 85be 6137 143e 2b39 8d3d d19e 733d
000001b0: cdc6 94be 2dbe 1fbe 927b b43d d428 b9bd
000001c0: e098 6abe f0cd 23be 66d8 d7bf 3d42 a5be
000001d0: 29d4 e4be 659c b1be a809 2abe 733b 813d
000001e0: 4224 3abe 887f 57bc 951a f0bd 1057 043e
000001f0: 2fe9 7cbb c7e8 65bf 50b1 e8be 29c9 bbbe
00000200: c0b6 973c 2d02 26bd 6692 a7bd f0c2 693c
00000210: 6079 6abd 5e61 803c a098 8bbd 089d 383c
00000220: 51c6 3cbd 016c 9b3d df1f 9e3d b57c 71bd
00000230: 50d5 d43c ce4c 03be 4123 373c fdaf ba3c
00000240: eeb0 363d d5cd babd c1fa b63a feef f9bd
00000250: 0429 153d 778e 313c 160e 9dbd 16f3 6ebd
00000260: 3141 9ebd 70e9 bd3c 7f16 6b3c 4c88 abbd
00000270: b5fb e7bd 7215 09be c02f 90ba 6856 aa3c
00000280: 5eb8 26bd f40d b6bd 42f1 243c d8a0 c8bd
00000290: 1c2e c6bd e098 f43b 126e 3bbd 7621 53bd
000002a0: 2048 59bd f468 15bd 5c1e c9bd 76d2 4d3d
000002b0: 96ca 093e 0e30 353d 86d2 e6bd 3d07 b2bd
000002c0: 0c9e 4dbc 98b5 59bc c158 aabd 8ef1 4ebd
000002d0: 7003 823b c423 a1bc b541 483d 369e b53d
000002e0: 4a0b e7bd fe5b 3a3d f194 95bd b4e8 93bc
000002f0: 98d2 593c 4589 d1bd 0988 d4bb 7507 09be
00000300: ff94 69bd 6f44 ebbd 26ff 463d e83d e83c
00000310: 44a7 d1bd f451 03bd 8cd2 02bc f2bf 1abd
00000320: a1a5 a8bd c6b9 4e3b 1b9f 0c3c 5228 a73c
00000330: 40a0 c6bd 20a3 3fbc 1f0e c33a ccfa 963d
00000340: c02b d63b af90 3f3c ba70 5dbd 4668 ec3c
00000350: 9d34 28bc 6005 2e3b 8c51 fc3d 8967 c83c
00000360: ba76 293d a7a2 b73c 3477 0d3c ec84 dfbd
00000370: 642d 113c b53f 4e3d e886 0ebc 0c06 bc3c
00000380: e1b3 d4bd 01af 5cbb c284 3e3d 64fa 51bd
00000390: 0020 5eba 0f44 ef3a ea4c 3f3d 804b d9ba
000003a0: 9025 54bc 6465 b3bd 5631 57bd 0f4f bfbd
000003b0: 444c 36bc af61 cabc fada 30bd 0910 88bd
000003c0: 9aa7 8fbd 0084 d5bd e059 9e3c 88dd eb3d
000003d0: 8c23 abbd b6ca 5a3d 6c8d 6abd 8979 ce3c
000003e0: ffdd 983d 0da7 c63c d1b9 8d3d 4090 d8ba
000003f0: 6747 05be 64bf c5bc 78fb 19be c02c f2ba

bias f4 [128]
0.45297724 0.0022724953 -0.027135275 -0.03959508 -0.11273076 -0.030248808 -0.043206617 -0.022054564
0.09665234 0.7463562 0.12190294 -0.07822005 -0.066067316 -0.18416774 -0.14333817 -0.12271135
0.33103615 -0.056532696 -0.07529505 -0.2670022 0.7193186 -0.062053937 -0.016575418 -0.051928338
0.5066816 -0.14345804 -0.018650932 -0.02530139 0.43762034 0.1396796 -0.1058118 -0.15050764
-0.18442954 -0.03354614 0.42850575 0.5746747 -0.15202689 -0.11336784 -0.10051386 -0.09228363
-0.04797717 0.012297419 0.48654455 0.014050327 -0.050753433 -0.30652496 -0.10647249 0.010472983
-0.12626329 0.27201042 0.16035369 -0.089180924 0.0708862 -0.09134637 -0.03982372 -0.26122284
-0.11696128 0.0027986504 0.0007097774 -0.15004118 0.34694237 -0.07870524 -0.27483362 -0.1874202
0.055685796 0.023166362 -0.0151835745 0.6943466 0.22248724 0.0022118418 -0.0033865576 0.20884547
0.1337856 0.013698185 0.1866606 -0.25767505 0.13237236 -0.07365969 0.1915478 -0.4180398
-0.13301852 -0.061565965 0.74558884 -0.19511147 0.111534804 -0.05257898 -0.0920333 -0.07433125
-0.12227383 0.9466353 -0.18576863 -0.26075226 -0.1400316 -0.18071525 0.039337672 -0.029773215
-0.07449063 0.43439192 -0.03750226 -0.14926559 -0.11382362 -0.06722619 0.92715037 -0.23208328
0.00758907 -0.31693834 -0.015697107 -0.105999395 -0.15425418 -0.2109496 -0.35220417 -0.029584926
0.36705726 -0.093330145 -0.15279701 -0.12260875 -0.013239173 0.16332102 -0.18792082 -0.16443157
0.009507885 0.026812308 0.09952429 -0.06178636 0.18181191 0.04472849 -0.24578498 -0.37068993
00000000: a2ec e73e 25ee 143b cc4a debc 732e 22bd
00000010: 62df e6bd 59cc f7bc 6cf9 30bd c6ab b4bc
00000020: a9f1 c53d 3311 3f3f 40a8 f93d d531 a0bd
00000030: 4d4e 87bd 7896 3cbe 3ec7 12be 1750 fbbd
00000040: 927d a93e d48e 67bd 4b34 9abd 83b4 88be
00000050: 4425 383f 452c 7ebd 2cc9 87bc cfb2 54bd
00000060: e3b5 013f aae6 12be d7c9 98bc dc44 cfbc
00000070: c60f e03e 2b08 0f3e dbb3 d8bd ad1e 1abe
00000080: 19db 3cbe ad67 09bd 1b65 db3e e21d 133f
00000090: f0ac 1bbe 662d e8bd 36da cdbd 33ff bcbd
000000a0: b683 44bd 1d7b 493c 5e1c f93e 5833 663c
000000b0: d5e2 4fbd d7f0 9cbe 400e dabd e096 2b3c
000000c0: 2a4b 01be f344 8b3e c233 243e 7da4 b6bd
000000d0: c92c 913d ce13 bbbd 321e 23bd 00bf 85be
000000e0: 6589 efbd 9069 373b 5b10 3a3a 65a4 19be
000000f0: 6ea2 b13e 3630 a1bd feb6 8cbe 15eb 3fbe
00000100: ca16 643d 62c7 bd3c 87c4 78bc b3c0 313f
00000110: b2d3 633e 8cf4 103b 02f1 5dbb 96db 553e
00000120: 18ff 083e 5a6e 603c f523 3f3e fced 83be
00000130: 9f8c 073e e4da 96bd 1b25 443e 5009 d6be
00000140: 0236 08be 982c 7cbd e9de 3e3f 4dcb 47be
00000150: 5c6c e43d 0e5d 57bd f47b bcbd fb3a 98bd
00000160: b46a fabd b156 723f 223a 3ebe 5281 85be
00000170: 7264 0fbe 6b0d 39be 8a20 213d f5e6 f3bc
00000180: 8b8e 98bd 9e68 de3e f89b 19bd 14d9 18be
00000190: 5c1c e9bd e2ad 89bd ba59 6d3f 3da7 6dbe
000001a0: bcad f83b be45 a2be 3897 80bc 3616 d9bd
000001b0: cff4 1dbe 2c03 58be 1b54 b4be 165c f2bc
000001c0: eeee bb3e e023 bfbd d276 1cbe 4c1a fbbd
000001d0: 1ee9 58bc a03d 273e 516e 40be c060 28be
000001e0: f6c6 1b3c 7ca5 db3c 64d3 cb3d b213 7dbd
000001f0: e72c 3a3e 3935 373d 0faf 7bbe 12cb bdbe

weight f4 [128, 128]
-0.13497098 -0.13490771 -0.047013443 -0.031104859 0.014827333 -0.008942568 -0.031377528 -0.0726537
-0.0454672 -0.1223365 -0.10350498 0.028104044 -0.0762371 -0.14125623 0.006027557 0.12092261
0.001109066 0.069449164 0.0394324 -0.050431166 0.03362091 -0.023314357 -0.09526059 0.02385857
-0.06414436 -0.017584667 -0.08367499 -0.03181501 -0.10161651 -0.071089104 0.020933814 -0.092721604
-0.04085885 -0.087446995 -0.03709898 -0.17573218 -0.048502777 -0.029706765 -0.105681136 -0.04690839
-0.12303375 -0.017919913 -0.054871 -0.014903642 -0.032182552 -0.107956335 0.01163701 -0.06971422
0.075493895 -0.0022967448 -0.05572402 0.05878774 -0.0029141363 -0.060614437 0.07008309 0.00700403
-0.05892098 -0.19207872 -0.0628778 0.095629476 0.031394288 0.07247529 -0.043896828 -0.02003704
-0.07340592 -0.06561285 -0.06504464 -0.14021483 -0.060329806 0.044515245 -0.08434333 0.003618269
-0.043642476 -0.018137015 0.021437418 -0.066068515 -0.13002837 0.0352808 -0.0351824 -0.06542049
-0.14488348 0.057437293 -0.103498094 -0.055616185 -0.13704643 -0.02621973 -0.0660224 0.04908731
-0.09248003 -0.059776053 -0.03848734 -0.094285585 -0.04848724 0.06101095 -0.14092448 -0.09426989
-0.12331641 -0.0034585914 0.060534976 -0.12760967 -0.13524361 -0.045912523 -0.08190241 -0.08352037
-0.11403276 -0.0071340725 -0.0804803 -0.099975914 -0.023251 -0.06369285 -0.03774991 0.012764618
-0.12764484 -0.012803212 -0.021320522 -0.08936076 -0.02778683 -0.116990656 -0.06262326 0.02374985
0.0035774517 -0.037813876 0.01100377 -0.0173873 -0.05446582 -0.017425913 0.057253532 0.043122403
0.07510014 0.13201548 -0.07659317 0.07864216 0.0060358373 0.084408775 0.12583892 0.07527315
0.115104735 0.15243275 0.2061711 -0.93307805 0.012085351 -0.2441889 0.0043270215 -0.26707873
0.2010178 0.030236088 -0.015190171 -0.055057995 0.045497715 -0.07756482 -0.14437386 -0.095516466
0.24921015 -0.8415358 0.14221278 0.069212735 0.020174224 0.1355713 -0.07736496 -0.3185806
-0.19513144 -0.0031578313 0.13070177 0.25369018 -0.061146032 0.009088475 -0.03532361 -0.020486174
-0.010147625 -0.0063705496 0.05396362 0.06091008 -0.012224906 -0.53425443 -0.111060515 0.059520174
0.0061404873 0.12441284 0.26342332 -0.041557964 -0.30206838 0.062076528 -0.031050824 -0.24185663
0.07721417 0.24197897 -0.013733935 -0.30142227 -0.051962916 0.039949473 0.038947858 -0.108285144
0.07127924 -0.0093954 0.05547837 0.019603865 0.100858055 0.013611014 -0.38279653 0.17153896
-0.100188576 0.12359044 0.14082618 -0.2833101 0.16045575 -0.12610444 0.06275152 0.012850356
-0.4218918 -0.088120654 0.30761427 -0.18591127 0.13131864 0.25407088 0.005203556 -0.04827602
0.03836714 0.25665134 -0.28271204 -0.33767816 0.06658082 0.12633705 0.09933047 0.050379373
-0.05695022 0.15828665 -0.052355945 0.11908922 -0.18588632 0.19128156 0.2456445 -0.102053404
-0.13454138 -0.1062379 -0.1552644 -0.130855 0.24644485 -0.5169806 0.022583392 -0.077408575
0.0717581 -0.12833709 -0.17497778 -0.118564695 -0.030049244 0.15919757 -0.4769941 -0.35674167
0.14120136 0.0072979303 0.025455955 0.08926692 0.099369854 0.10082193 0.17229483 -0.2262783
00000000: d535 0abe 3f25 0abe 2b91 40bd 9ecf febc
00000010: 58ee 723c d983 12bc b985 00bd 77cb 94bd
00000020: d13b 3abd 8f8b fabd 6bfa d3bd 743a e63c
00000030: 3222 9cbd 79a5 10be d082 c53b 46a6 f73d
00000040: 145e 913a 5d3b 8e3d de83 213d e990 4ebd
00000050: 14b6 093d c0fd bebc fc17 c3bd 0c73 c33c
00000060: 1e5e 83bd b80d 90bc cb5d abbd 7550 02bd
00000070: 511c d0bd 2a97 91bd 647d ab3c d3e4 bdbd
00000080: 9c5b 27bd 6917 b3bd 1af5 17bd 23f3 33be
00000090: d9aa 46bd 9a5b f3bc 5a6f d8bd 0323 40bd
000000a0: 1ef9 fbbd c8cc 92bc 6ac0 60bd 682e 74bc
000000b0: dad1 03bd 3618 ddbd 28a9 3e3c 54c6 8ebd
000000c0: 8b9c 9a3d fc84 16bb df3e 64bd 6acb 703d
000000d0: 18fb 3ebb d846 78bd b987 8f3d 1082 e53b
000000e0: 2057 71bd 49b0 44be 13c6 80bd 63d9 c33d
000000f0: 4c97 003d ed6d 943d 29cd 33bd b824 a4bc
00000100: d855 96bd 0860 86bd 2036 85bd 7a94 0fbe
00000110: 631c 77bd 9e55 363d 32bc acbd 7b20 6d3b
00000120: 74c2 32bd 1494 94bc 869d af3c ee4e 87bd
00000130: 2826 05be 9a82 103d 6c1b 10bd 2efb 85bd
00000140: 565c 14be 5e43 6b3d cff6 d3bd cccd 63bd
00000150: e655 0cbe c2ca d6bc c136 87bd c60f 493d
00000160: 2c66 bdbd bcd7 74bd e7a4 1dbd cd18 c1bd
00000170: 8e9a 46bd 9ee6 793d 824e 10be 9210 c1bd
00000180: 508d fcbd 89a9 62bb 86f3 773d 1cac 02be
00000190: 4d7d 0abe c50e 3cbd 73bc a7bd ba0c abbd
000001a0: 028a e9bd f0c4 e9bb dbd2 a4bd 2cc0 ccbd
000001b0: e278 bebc 6671 82bd a69f 1abd b022 513c
000001c0: 54b5 02be 90c4 51bc 60a8 aebc c602 b7bd
000001d0: 35a1 e3bc cc98 efbd a040 80bd 0c8f c23c
000001e0: ae73 6a3b b9e2 1abd 2849 343c d06f 8ebc
000001f0: 8d17 5fbd cac0 8ebc ae82 6a3d 1ea1 303d
00000200: 1ace 993d 112f 073e e1dc 9cbd 240f a13d
00000210: 46c8 c53b 82de ac3d ebdb 003e cf28 9a3d
00000220: 08bc eb3d 5517 1c3e 841e 533e 34de 6ebf
00000230: a301 463c a80c 7abe b0c9 8d3b 8bbe 88be
00000240: 9cd7 4d3e acb1 f73c 32e0 78bc 7e84 61bd
00000250: d05b 3a3d 4eda 9ebd bed6 13be 239e c3bd
00000260: f230 7f3e e46e 57bf 3aa0 113e 68bf 8d3d
00000270: 6a44 a53c 34d3 0a3e 8571 9ebd ff1c a3be
00000280: 89d0 47be 9ef3 4ebb afd6 053e aee3 813e
00000290: 4374 7abd d4e7 143c 7daf 10bd 9fd2 a7bc
000002a0: 3942 26bc 0bc0 d0bb f508 5d3d d97c 793d
000002b0: f94a 48bc e6c4 08bf b273 e3bd 6dcb 733d
000002c0: 2436 c93b 29cc fe3d 6cdf 863e af38 2abd
000002d0: b5a8 9abe f543 7e3d 4c5e febc 44a9 77be
000002e0: 7622 9e3d 56c9 773e 4c04 61bc 0554 9abe
000002f0: 11d7 54bd 0fa2 233d ca87 1f3d 9ac4 ddbd
00000300: dafa 913d 2aef 19bc 4a3d 633d 4998 a03c
00000310: ab8e ce3d bb00 5f3c e8fd c3be e9a7 2f3e
00000320: ab2f cdbd fc1c fd3d bd34 103e 050e 91be
00000330: 834e 243e 8621 01be de83 803d 4d8a 523c
00000340: 3402 d8be 9a78 b4bd 9e7f 9d3e 865f 3ebe
00000350: 6578 063e 9415 823e 9782 aa3b 13bd 45bd
00000360: dd26 1d3d ce67 833e a2bf 90be 27e4 acbe
00000370: 865b 883d 805e 013e c66d cb3d 9a5a 4e3d
00000380: a244 69bd e515 223e 3073 56bd 0de5 f33d
00000390: fc58 3ebe 50df 433e 3b8a 7b3e 6001 d1bd
000003a0: 37c5 09be 4293 d9bd a2fd 1ebe dafe 05be
000003b0: 0a5c 7c3e d758 04bf ce00 b93c 6388 9ebd
000003c0: e9f5 923d cc6a 03be 602d 33be 0cd2 f2bd
000003d0: d529 f6bc b004 233e 9238 f4be d8a6 b6be
000003e0: 1797 103e 7a23 ef3b 0289 d03c 93d1 b63d
000003f0: 6c82 cb3d ba7b ce3d 0e6e 303e 80b5 67be

bias f4 [128]
-0.057823997 1.190268 -0.1361475 -0.28011656 -0.07086898 0.47719306 0.4339989 0.7347517
0.43826148 0.55445254 -0.35329384 0.8754516 0.8366322 0.2498483 0.59673977 1.2611463
0.560525 1.1154046 -0.06682305 0.42507625 1.2538921 0.7291198 -0.26855898 -0.07521931
1.3328402 -0.06387908 -0.060906194 -0.22173527 -0.27636653 -0.051061485 1.1086743 1.5974731
0.4666494 -0.06338361 1.2258811 0.005215065 0.98681486 -0.24989942 0.95904875 0.40658027
1.1837784 1.6925405 -0.15815842 -0.019830745 -0.30680075 -0.16326942 0.5547909 -0.060673103
-0.007113238 1.1408172 0.5238448 1.3538833 -0.2559995 -0.18021803 -0.21170518 -0.15436052
1.6421587 -0.23939821 -0.16013955 1.2875417 0.3580224 0.09969638 0.5776596 1.1897182
1.7493792 0.70000815 1.3449215 0.41386557 -0.12247324 0.5263772 0.9163827 0.014286966
0.8855187 -0.019636394 0.51829237 -0.079439476 0.43919477 -0.34107384 -0.19523123 0.47644424
-0.23606852 1.004502 1.1622748 0.004651945 -0.064598575 0.7285354 1.468123 1.3277152
1.4451439 1.0897574 -0.36910725 0.250027 1.2696946 -0.0027385987 -0.15353134 -0.10342909
-0.063909404 -0.31875518 0.49520588 -0.06882203 -0.32749492 -0.10197606 1.3524684 -0.2510733
0.22394395 0.2030375 -0.036008574 0.8299496 1.2421464 1.2127643 -0.08230052 0.0039482373
0.24425928 -0.20583797 0.7986215 -0.26400736 0.96610665 0.85766006 0.34292528 0.13750733
1.198404 0.19525546 0.1657809 -0.24725625 -0.078427315 -0.0414992 -0.17507948 0.06762275
00000000: dbd8 6cbd b45a 983f 406a 0bbe 706b 8fbe
00000010: c123 91bd a652 f43e 1b35 de3e b018 3c3f
00000020: cf63 e03e 9af0 0d3f eee2 b4be 991d 603f
00000030: 872d 563f 3cd8 7f3e f0c3 183f 3e6d a13f
00000040: 917e 0f3f 94c5 8e3f 86da 88bd 98a3 d93e
00000050: 897f a03f 98a7 3a3f 9080 89be 950c 9abd
00000060: 829a aa3f 09d3 82bd c678 79bd 920e 63be
00000070: ea7f 8dbe d925 51bd 0ae9 8d3f 007a cc3f
00000080: acec ee3e 44cf 81bd ace9 9c3f 23e3 aa3b
00000090: e69f 7c3f a2e5 7fbe 3884 753f 4a2b d03e
000000a0: 0d86 973f 2ba5 d83f 48f4 21be 1674 a2bc
000000b0: fd14 9dbe 1930 27be c706 0e3f 5c84 78bd
000000c0: 2a16 e9bb 4c06 923f b11a 063f 0c4c ad3f
000000d0: 5e12 83be 138b 38be 3ec9 58be af10 1ebe
000000e0: 4232 d23f ce24 75be 9ffb 23be 2bce a43f
000000f0: b64e b73e 9e2d cc3d 80e1 133f b048 983f
00000100: a8eb df3f bc33 333f 6326 ac3f 30e6 d33e
00000110: 40d3 fabd a8c0 063f 0e98 6a3f e113 6a3c
00000120: 5bb1 623f 81dc a0bc cfae 043f 2ab1 a2bd
00000130: 23de e03e 3ba1 aebe b2ea 47be 80f0 f33e
00000140: f2bb 71be 8693 803f 6cc5 943f 586f 983b
00000150: 424c 84bd 4c81 3a3f 74eb bb3f 92f2 a93f
00000160: 7afa b83f 2c7d 8b3f a0fb bcbe 8a03 803e
00000170: 5a85 a23f 107a 33bb 5237 1dbe a1d2 d3bd
00000180: efe2 82bd e133 a3be a08b fd3e 91f2 8cbd
00000190: 6aad a7be d3d8 d0bd af1d ad3f ae8c 80be
000001a0: 9051 653e 10e9 4f3e ba7d 13bd 9477 543f
000001b0: a7fe 9e3f dc3b 9b3f 2d8d a8bd 3760 813b
000001c0: 1b1f 7a3e 30c7 52be 7572 4c3f f92b 87be
000001d0: c452 773f 9c8f 5b3f e793 af3e b9ce 0c3e
000001e0: 4d65 993f 0cf1 473e 78c2 293e be30 7dbe
000001f0: 809e a0bd 11fb 29bd 0948 33be cc7d 8a3d

weight f4 [2, 128]
-0.019729376 0.27692616 -0.024566602 -0.030218285 -0.018565511 -0.28161326 -0.016926583 0.21797192
-0.12217772 -0.0008518172 -0.28748378 0.19949448 -0.081571594 0.0014742434 0.00075108977 -0.4656524
-0.07425444 0.05637604 -0.0003123904 0.006193785 -0.6247424 -0.03710801 0.023901634 -0.019791033
0.290794 -0.058483474 0.058245756 -0.047894962 -0.0069858665 -0.011679332 0.4357764 -0.10964865
-0.5355856 0.15566412 0.32324967 -0.05454526 0.4048134 -0.019004516 0.2533791 -0.017340738
0.11378532 -0.20413074 -0.012686599 -0.049821526 -0.12855983 0.19493131 -0.026070196 -0.04375655
-0.016672943 -0.15113038 -0.22045249 -0.43124127 0.009715659 -0.0044167168 -0.05164665 0.009404607
-0.5217321 0.07318158 0.0068736365 0.31800348 -0.024327703 -0.022218168 -0.081473835 -0.33119333
-0.28896177 0.0032844045 0.31305724 0.019556755 0.01701189 -0.098652005 0.5362842 0.0020992453
-0.19081439 0.11095847 0.061530486 0.047984436 -0.013526018 0.007953018 -0.10846272 0.052927043
-0.047690686 0.31880692 0.24204072 -0.17484155 -0.04324516 -0.16401841 -0.7358558 0.39710408
-0.33769703 0.25462878 -0.0775624 -0.07252513 0.19804516 -0.018599862 -0.060496777 -0.07539635
-0.05123021 0.25308147 0.046808034 -0.100001775 -0.18928717 -0.010207406 0.80009794 -0.010292164
0.01742167 -0.011171158 -0.20160797 -0.022612035 -0.3053366 0.13289842 0.0010649315 -0.06270682
-0.014153874 -0.038963903 -0.08062229 0.101947516 -0.040959664 -0.41807678 -0.10476038 -0.16420327
-0.6552711 -0.047115628 -0.0065025864 -0.07035644 0.046846736 -0.002305419 -0.04190001 -0.14938766
-0.06596949 0.2969878 -0.15394977 -0.059043102 -0.024886245 0.035635583 0.018333783 0.049925305
0.08974378 0.0012203648 -0.46196312 0.06186117 -0.18864445 -0.005279488 -0.037467428 -0.17761591
-0.0054107863 0.24616848 0.0032596341 -0.03486996 -0.23762202 0.016191471 -0.02619162 -0.0113903405
0.37006134 0.04382127 0.02318226 0.012955399 0.04183596 -0.003727338 0.17152917 -0.5403751
0.052854452 -0.0042041675 0.31104618 -0.03580508 0.114881724 0.06975062 0.10112222 -0.053560194
0.35782155 -0.44533473 0.034052245 0.035989888 0.003502283 0.18411906 -0.00071768486 0.015323887
0.040398292 -0.23436095 -0.19905442 -0.33648306 0.02900049 -0.031176914 -0.032416232 -0.10443227
-0.96525884 -0.047705054 0.025559196 0.3753689 -0.0034253565 0.018421156 -0.049183883 0.13190188
-0.3779679 0.03785038 0.37299302 0.0027846943 -0.0747698 -0.021885723 0.14662698 0.011196304
-0.91504556 -0.17254902 0.08469379 -0.0027743136 0.050189257 -0.01093453 0.035462286 -0.18044806
0.013198489 0.13048339 0.32943246 0.037717074 0.042589482 -0.1678356 -0.35402244 0.39237416
-0.4853642 0.16871078 -0.05199618 0.037423044 0.3979758 0.014645945 -0.010828347 0.016746487
0.10185512 0.29866478 -0.041041173 0.060946915 0.11867519 -0.009655957 0.9933691 0.0014639094
-0.14672631 -0.008254445 0.021434115 -0.41870618 -0.30767328 0.3293203 0.011956219 -0.014580179
0.0010059073 0.01603865 -0.30711472 0.06974296 0.082796 -0.17296126 0.03849727 0.08016582
-0.6884278 -0.023117797 -0.011518094 -0.028896816 0.01749818 0.058030486 0.012770873 0.0139977485
00000000: 809f a1bc 44c9 8d3e e63f c9bc 568c f7bc
00000010: b316 98bc 9d2f 90be 9ea9 8abc 0834 5f3e
00000020: 5038 fabd 7c4c 5fba 1331 93be 4848 4c3e
00000030: 020f a7bd 663b c13a c8e4 443a fe69 eebe
00000040: b612 98bd 90ea 663d 54c8 a3b9 3cf5 ca3b
00000050: 1eef 1fbf 92fe 17bd 5ccd c33c ce20 a2bc
00000060: f3e2 943e 5e8c 6fbd 1a93 6e3d 822d 44bd
00000070: b2e9 e4bb ab5a 3fbc 161e df3e 798f e0bd
00000080: 231c 09bf 6a66 1f3e fb80 a53e da6a 5fbd
00000090: b443 cf3e 5caf 9bbc e8ba 813e 2a0e 8ebc
000000a0: 4708 e93d a607 51be 74db 4fbc a811 4cbd
000000b0: 30a5 03be 139c 473e 2a91 d5bc 113a 33bd
000000c0: b295 88bc ecc1 1abe 4cbe 61be a8cb dcbe
000000d0: 6d2e 1f3c 1bba 90bb 708b 53bd c815 1a3c
000000e0: 3c90 05bf 39e0 953d 3e3c e13b 5ad1 a23e
000000f0: e44a c7bc e002 b6bc c1db a6bd 2c92 a9be
00000100: ccf2 93be 2a3f 573b 0a49 a03e 7d35 a03c
00000110: 855c 8b3c 100a cabd ec49 093f 7e93 093b
00000120: d964 43be 323e e33d 6407 7c3d 548b 443d
00000130: 3b9c 5dbc 604d 023c b421 debd 07ca 583d
00000140: 4f57 43bd a93a a33e 86d9 773e aa09 33be
00000150: d621 31bd 71f4 27be 0c61 3cbf 3a51 cb3e
00000160: a0e6 acbe b45e 823e 09d9 9ebd 0e88 94bd
00000170: 5acc 4a3e bd5e 98bc 78cb 77bd 6769 9abd
00000180: c5d6 51bd e593 813e c8b9 3f3d bbcd ccbd
00000190: 7fd4 41be f73c 27bc 38d3 4c3f 77a0 28bc
000001a0: e4b7 8e3c 3c07 37bc 5272 4ebe e03c b9bc
000001b0: 1455 9cbe 8616 083e 2c95 8b3a 6f6c 80bd
000001c0: a6e5 67bc 9d98 1fbd 4d1d a5bd dcc9 d03d
000001d0: 52c5 27bd 290e d6be 9c8c d6bd e724 28be
000001e0: d9bf 27bf 51fc 40bd a613 d5bb 0a17 90bd
000001f0: 5de2 3f3d 8316 17bb 589f 2bbd 14f9 18be
00000200: 031b 87bd c90e 983e 02a5 1dbe 2ed7 71bd
00000210: 3dde cbbc 9ef6 113d bb30 963c 7a7e 4c3d
00000220: 96cb b73d a6f4 9f3a 6e86 ecbe 2362 7d3d
00000230: 032c 41be 8eff acbb 7277 19bd f2e0 35be
00000240: f74c b1bb 9713 7c3e 969f 553b ced3 0ebd
00000250: 3053 73be faa3 843c cf8f d6bc 8d9e 3abc
00000260: ae78 bd3e ef7d 333d b9e8 bd3c e242 543c
00000270: 2f5c 2b3d 5b46 74bb 58a5 2f3e 0656 0abf
00000280: e97d 583d 1dc3 89bb 7241 9f3e 59a8 12bd
00000290: 1c47 eb3d 6ad9 8e3d 2b19 cf3d ef61 5bbd
000002a0: 6334 b73e ea02 e4be 5e7a 0b3d 226a 133d
000002b0: 8f86 653b b589 3c3e 0423 3cba 0a11 7b3c
000002c0: ae78 253d 51fc 6fbe ecd4 4bbe 8247 acbe
000002d0: 7092 ed3c ba66 ffbc e2c6 04bd 96e0 d5bd
000002e0: 341b 77bf 6066 43bd 8561 d13c 5a30 c03e
000002f0: f27b 60bb f7e7 963c 0a75 49bd 4911 073e
00000300: 0285 c1be 0009 1b3d f1f8 be3e 6b7f 363b
00000310: e920 99bd b049 b3bc 6225 163e b470 373c
00000320: 6d40 6abf b1b0 30be f073 ad3d 42d1 35bb
00000330: 4093 4d3d be26 33bc e740 113d 60c7 38be
00000340: 7a3e 583c 709d 053e 5fab a83e 387d 1a3d
00000350: 4f72 2e3d 18dd 2bbe 6e42 b5be 44e5 c83e
00000360: a881 f8be 85c2 2c3e f2f9 54bd e848 193d
00000370: 7cc3 cb3e 8cf5 6f3c 6169 31bc ee2f 893c
00000380: 6b99 d03d 97ea 983e ca1a 28bd 79a3 793d
00000390: fa0b f33d 0534 1ebc 704d 7e3f a6e0 bf3a
000003a0: 6c3f 16be a73d 07bc 9996 af3c a860 d6be
000003b0: 5a87 9dbe ac9c a83e 04e4 433c b4e1 6ebc
000003c0: a6d8 833a 7d63 833c 243e 9dbe 66d5 8e3d
000003d0: f390 a93d c21c 31be 50af 1d3d fa2d a43d
000003e0: ce3c 30bf 8961 bdbc 63b6 3cbc 04b9 ecbc
000003f0: 5858 8f3c 60b1 6d3d ec3c 513c d056 653c

bias f4 [2]
0.78073204 1.1411196
00000000: 0ede 473f 3510 923f
