DQL/pole.pth (torch_old, 140182 bytes, 8 tensors)

weight f4 [128, 4]
0	0x3eb13784	0.34612668
1	0xbe26d7ea	-0.16293302
2	0xbfa6c9e1	-1.3030359
3	0xbe9b0370	-0.3027606
4	0xbeb4fc68	-0.3534882
5	0xbc6dad18	-0.014506601
6	0x3f95a141	1.1689836
7	0xbe692342	-0.22767356
8	0x3e79233c	0.24329847
9	0xbe93fd14	-0.2890402
10	0xbee9baea	-0.45650417
11	0xbe882c8d	-0.2659649
12	0x3f4c95aa	0.7991587
13	0xbe2b12af	-0.16706346
14	0x3dde2050	0.10846007
15	0x3f35189b	0.7074067
16	0x3ee93dc2	0.4555493
17	0xbea51e79	-0.3224981
18	0xbe235923	-0.15951972
19	0xbe7dd32e	-0.2478759
20	0xc06109d8	-3.5162258
21	0x3f1c6c26	0.6110252
22	0xbff441c8	-1.9082575
23	0x3ed7191a	0.42011338
24	0xbf123ecc	-0.5712707
25	0x3e8ec3ea	0.27883846
26	0x403c9457	2.946554
27	0x3e3e7e0e	0.18602774
28	0xbef7d4ea	-0.48404628
29	0x3e46c220	0.1940999
30	0xbddf895f	-0.10914873
31	0xbeaf62ca	-0.34255058
32	0xbf2e1ccf	-0.6801271
33	0x3e076061	0.1322036
34	0x411f3016	9.94924
35	0x3f487b1a	0.7831284
36	0xbf26b47e	-0.6511916
37	0x3e4a6730	0.19765925
38	0x4031a89c	2.775916
39	0xbce6904d	-0.02814498
40	0xbd88fb60	-0.06688571
41	0x3e01555a	0.12630215
42	0x3e82211e	0.2541589
43	0x3dde4a5a	0.10854025
44	0xc0210864	-2.5161371
45	0x3f4c18b8	0.7972522
46	0x4108bbbe	8.5458355
47	0x3f8616b4	1.0475678
48	0xbd97d3b9	-0.0741343
49	0x3ea8c9ea	0.32966548
50	0xc0022b0a	-2.033877
51	0x3e6160cc	0.22009581
52	0x3f47c852	0.7804004
53	0xbf232a30	-0.6373625
54	0xbe3e120b	-0.1856157
55	0xbefd4108	-0.49463677
56	0x3e317d44	0.17332941
57	0xbe08b040	-0.13348484
58	0x3f2aed57	0.667684
59	0xbe322d40	-0.17400074
60	0x3f4a6c10	0.7907114
61	0xbe4babf7	-0.19889818
62	0x4080f9ea	4.030507
63	0x3e6eb3db	0.23310797
64	0xc01f7e78	-2.492094
65	0xbe5d219a	-0.21594849
66	0x3f8362db	1.0264543
67	0xbf276f12	-0.65403855
68	0xbfeaa294	-1.8330865
69	0xbfbd19a2	-1.4773448
70	0x3e6e1be7	0.23252831
71	0xbed0ef40	-0.40807533
72	0x3e1a39a8	0.15061057
73	0xbc867f00	-0.01641798
74	0xbe50ace8	-0.20378458
75	0xbe2cd4f8	-0.16878116
76	0xbf4ca781	-0.7994309
77	0x3f30b306	0.6902317
78	0xbeb33096	-0.34998006
79	0x3ef602e4	0.4804908
80	0x3db8937e	0.09012507
81	0x3d6e62a0	0.058199525
82	0xbda377df	-0.07981848
83	0xbe285fa8	-0.1644274
84	0x3f38a561	0.7212735
85	0xbecd48a1	-0.40094474
86	0xbf934492	-1.1505301
87	0xbe2b2708	-0.16714108
88	0xbd19fc82	-0.037594326
89	0x3dd9a78e	0.10627662
90	0xbdcd053a	-0.100107625
91	0x3e0bd933	0.13657074
92	0xbff90a94	-1.9456353
93	0x3b18ee44	0.0023335377
94	0x40adbaee	5.4290686
95	0x3e3bba8d	0.18332882
96	0xbffedfd3	-1.9912056
97	0x3f65c7ca	0.8975798
98	0x3fab128c	1.3365035
99	0x3f19ce56	0.6008047
100	0xbe56139c	-0.20905918
101	0x3daa19e8	0.083057225
102	0x4010dfca	2.263659
103	0x3e8988dc	0.26862228
104	0x3f08ec85	0.534859
105	0xbe04e886	-0.12979326
106	0xc0126c6a	-2.287867
107	0x3c9488d5	0.018131653
108	0xbfe28681	-1.7697297
109	0xbf26d146	-0.65163076
110	0x3dd48996	0.10377805
111	0xbdfb689a	-0.122758105
112	0xbeaa5486	-0.3326761
113	0x3e853b9d	0.26022044
114	0x3e45226c	0.19251412
115	0x3d584a69	0.052805338
116	0xbeaaf53c	-0.33390224
117	0x3dfe7826	0.1242526
118	0x3e2b5a78	0.1673373
119	0xbe7a4c65	-0.24443205
120	0xbe8cbca8	-0.27487683
121	0x3b0e92cc	0.0021754978
122	0xc01177a8	-2.2729282
123	0xbd8e1ccb	-0.069390856
124	0xbda46da2	-0.08028723
125	0xbe98e738	-0.29863906
126	0x3e283b5c	0.16428894
127	0xbe6f6872	-0.23379686
128	0x3f25e2e0	0.6479931
129	0xbded8348	-0.115973055
130	0x3f85fdd8	1.0468092
131	0xbe24821a	-0.16065255
132	0xbf3bdf23	-0.73387355
133	0x3f22a2a0	0.63529396
134	0x3dc6dec3	0.09710457
135	0x3ecbdee2	0.39818484
136	0x4010469e	2.2543101
137	0xbf529827	-0.82263416
138	0xbf5d7bca	-0.8651701
139	0x3f888f86	1.06688
140	0xbfee4386	-1.8614357
141	0x3ec8640a	0.39138824
142	0x408ce8f0	4.4034348
143	0x3f14e9ac	0.58169055
144	0xbf2e8e75	-0.6818612
145	0x3ec184a4	0.3779651
146	0x3ffaf9b5	1.9607455
147	0x3edcef48	0.43151307
148	0x3f6447a8	0.8917184
149	0xbd1ca6d6	-0.038245045
150	0xc05e686c	-3.4751234
151	0xbf541198	-0.82839346
152	0x3e63a773	0.22231846
153	0xbd508642	-0.05090929
154	0x3e371e0a	0.17882553
155	0xbe874ede	-0.26427358
156	0xbdd2caad	-0.102925636
157	0xbc430d2c	-0.011904996
158	0xbe4d0d2b	-0.20024554
159	0x3dd02b82	0.101645485
160	0xbf19b50a	-0.6004187
161	0x3ee441c4	0.44581425
162	0x401ac7de	2.418449
163	0x3f112c0c	0.56707835
164	0x3e577836	0.2104195
165	0xbda3ffbf	-0.08007764
166	0xbfa2d950	-1.2722569
167	0xbdccca80	-0.09999561
168	0xbf3da13e	-0.7407416
169	0x3f2f6b26	0.6852287
170	0xbf121cd4	-0.5707524
171	0x3ef92aba	0.4866541
172	0xbfaa3940	-1.3298721
173	0x3e7683bc	0.2407369
174	0x40914e96	4.540843
175	0xbbdb97f5	-0.0067014643
176	0x3c79a8a2	0.015237959
177	0x3e071afe	0.1319389
178	0xbe560c86	-0.20903215
179	0xbe30119a	-0.17194214
180	0xbeb5d234	-0.35511935
181	0x3e14e67e	0.14541051
182	0x3f08d302	0.5344697
183	0xbd5480f3	-0.051880788
184	0xbf6009f3	-0.8751518
185	0x3ed22eb0	0.41051245
186	0x3db5af5c	0.08871338
187	0xbe342ec0	-0.17595959
188	0xbe028466	-0.12745818
189	0x3db5f5d8	0.088847816
190	0x4001e0bc	2.0293417
191	0x3d5ee06a	0.054413237
192	0x3e44adfe	0.19206998
193	0xbdc479c4	-0.095935374
194	0xc0201946	-2.5015426
195	0xbe5161aa	-0.20447412
196	0xbf53174f	-0.8245744
197	0x3eab9fd0	0.33520365
198	0x3e009e99	0.125605
199	0x3e1c1c76	0.15245232
200	0x3f2c63c5	0.67339736
201	0xbd6e7576	-0.05821749
202	0xbed8e881	-0.42364886
203	0x3ed120f8	0.40845466
204	0xbea12ae2	-0.3147803
205	0x3e5941e6	0.21216545
206	0x3dd26fdc	0.10275242
207	0x3d2b4d70	0.041821897
208	0xbefa700c	-0.4891361
209	0x3e34c410	0.17652917
210	0xbe320926	-0.17386302
211	0x3e144b08	0.14481747
212	0xbd67a804	-0.056556717
213	0xbda75f2b	-0.08172449
214	0xbf8ea31e	-1.114353
215	0xbeaf0e10	-0.34190416
216	0xbf758fe2	-0.9592267
217	0x3ea64218	0.324723
218	0x3f6b33b4	0.9187577
219	0xbd7044ec	-0.05865948
220	0xbf9b4d54	-1.2132974
221	0x3f517a83	0.81827563
222	0x4035f2e4	2.8429499
223	0x3ee4a341	0.44655803
224	0x3edf61c4	0.43629277
225	0xbedc1b75	-0.42989698
226	0xbed9be0c	-0.42527807
227	0xbea4fb54	-0.32222998
228	0x3eb55a1d	0.35420313
229	0x3cc62c7c	0.024191134
230	0xbf07445a	-0.5283867
231	0xbea377b0	-0.31927252
232	0xc015b3f0	-2.3391075
233	0x3f125cfc	0.5717313
234	0x40baab4e	5.833411
235	0x3eb7e83e	0.35919374
236	0xbf2dcc4c	-0.6788986
237	0x3eb4e88a	0.35333663
238	0x3ed6ef1c	0.419793
239	0x3ed16d95	0.40903917
240	0x3f33b682	0.7020036
241	0xbf02c435	-0.5108064
242	0xbf8b0d27	-1.0863389
243	0xbebcaea8	-0.36852002
244	0xbf109b80	-0.56487274
245	0x3ea63327	0.324609
246	0xbf0463aa	-0.51714575
247	0x3dd42256	0.103581116
248	0x3dcc934c	0.09989032
249	0xbcc8f547	-0.02453102
250	0xbdb05402	-0.08609773
251	0xbe0b15ca	-0.1358253
252	0xbf15dd11	-0.58540446
253	0x3eaebcc8	0.34128404
254	0x403e3f6a	2.9726205
255	0x3e54d8e2	0.20785859

bias f4 [128]
0	0xbf06e931	-0.5269957
1	0xbf4f85b0	-0.81063366
2	0xbef3ad3a	-0.475931
3	0xbfaa5bfe	-1.3309324
4	0xbed16e52	-0.4090448
5	0x3dcc6888	0.09980875
6	0xbdcc4ffc	-0.09976193
7	0xbf995f04	-1.1982121
8	0xbf0428ed	-0.5162495
9	0xbe8f27f6	-0.27960175
10	0xbeb81c66	-0.35959166
11	0xbf470740	-0.7774544
12	0xbea2c4fc	-0.31790912
13	0xbf089448	-0.5335126
14	0xbe372b1e	-0.17887542
15	0xbe894c53	-0.26816043
16	0xc001825e	-2.023582
17	0xbff7a768	-1.9347963
18	0xbee19d10	-0.44065142
19	0xbddede8c	-0.10882291
20	0xbee7999e	-0.45234388
21	0xbf1a1762	-0.6019193
22	0xbe94d7d4	-0.29070914
23	0xbebb8858	-0.3662746
24	0xbf55f1a2	-0.8357183
25	0xbee48b0c	-0.44637334
26	0xbe9accd4	-0.30234396
27	0xbfdd927c	-1.7310328
28	0xbf40268b	-0.7505881
29	0xbf530b4f	-0.8243913
30	0xbf2e04b6	-0.6797594
31	0xbfad9748	-1.3561792
32	0xbfc6d726	-1.5534408
33	0xbe36c1d9	-0.17847385
34	0xbff7c42b	-1.9356741
35	0xbed24a01	-0.41072085
36	0xbe0a2a4d	-0.13492699
37	0xbf2f3028	-0.68432856
38	0xbf2d5fc5	-0.6772426
39	0xbf0dbcc4	-0.5536616
40	0x3f54d4aa	0.83137
41	0xbeae7e50	-0.34080744
42	0xbe5bec05	-0.21476753
43	0xbed99274	-0.42494547
44	0xbf020e5f	-0.5080318
45	0xbf51da3d	-0.8197363
46	0xbf98558e	-1.1901109
47	0xbdc9c90a	-0.09852798
48	0xbf3a4f08	-0.7277684
49	0xbf137782	-0.5760423
50	0xbf7638ae	-0.96180236
51	0xbea698ae	-0.3253836
52	0xbf1adbf0	-0.6049185
53	0xbfd1a6ce	-1.637903
54	0xbf819da2	-1.0126231
55	0xbf162104	-0.5864413
56	0xbed63fde	-0.41845602
57	0xc00b8c78	-2.1804485
58	0xbf02bd85	-0.51070434
59	0xbf196d50	-0.5993242
60	0xbf266a5a	-0.6500603
61	0xbf2361fc	-0.6382139
62	0xbea39cb8	-0.31955504
63	0xbdfa7587	-0.12229448
64	0xbec96608	-0.39335656
65	0xbe9ee446	-0.31033534
66	0xbe156eaf	-0.14593004
67	0xbefd99a4	-0.4953128
68	0xbf73b7d7	-0.9520239
69	0xbf33bc22	-0.7020894
70	0xbeb56b06	-0.35433215
71	0xbf36d676	-0.7142099
72	0xbf1cea42	-0.6129495
73	0xbe5ce25e	-0.21570727
74	0xbfbe9cd5	-1.4891611
75	0xbf105e5d	-0.56393987
76	0xbf4c3e58	-0.7978263
77	0xbff4f966	-1.913861
78	0xbfc8df44	-1.5693135
79	0xbe9eec20	-0.31039524
80	0x3f1b34fe	0.60627735
81	0xbe7f92bf	-0.24958323
82	0x3ecb215e	0.39673895
83	0xbe882276	-0.26588792
84	0xbfba9dfe	-1.4579465
85	0xbeefa990	-0.46809053
86	0xbee207b8	-0.44146514
87	0xbe07db16	-0.13267168
88	0xbf3fa8f7	-0.74867195
89	0xbf7e2f8c	-0.992913
90	0xbfcfc58c	-1.6232162
91	0xbe424b78	-0.18974102
92	0xbf193d8e	-0.5985955
93	0xbf387551	-0.7205401
94	0xbf20b9fc	-0.6278379
95	0xbef8f0c6	-0.48621196
96	0xbfee190e	-1.8601396
97	0xbfb101c3	-1.3828663
98	0xbf326602	-0.696869
99	0xbf39d130	-0.7258482
100	0xbecd8c86	-0.40146273
101	0xbf4cdefa	-0.80027735
102	0xbe79a53a	-0.24379435
103	0xbfb09b84	-1.379746
104	0xbd93aa35	-0.07210199
105	0xbf663674	-0.8992684
106	0xbee29328	-0.44252896
107	0xbe9ccbc4	-0.3062421
108	0xbf0866da	-0.5328194
109	0xbe51b27e	-0.20478246
110	0xbeab943c	-0.3351153
111	0xbfcf71d8	-1.6206617
112	0xbfb4cce7	-1.4125031
113	0xbf0dc784	-0.5538256
114	0xbe46d1fe	-0.19416043
115	0xbfdda326	-1.7315414
116	0xbed73316	-0.42031163
117	0xbf049098	-0.5178313
118	0xbf470d9b	-0.77755135
119	0xbefeca61	-0.49763778
120	0xbf4d6054	-0.8022511
121	0xbf6775fc	-0.90414405
122	0xbfbc7a87	-1.4724892
123	0xbf7cb964	-0.98720384
124	0xbee01c46	-0.4377157
125	0x3e02ec5e	0.1278548
126	0xbf3ab30c	-0.72929454
127	0xbf4f82a7	-0.81058735

weight f4 [128, 128]
0	0xbedf90f5	-0.4366528
1	0xbe28d916	-0.16489062
2	0xbd93250c	-0.071848005
3	0xbe9e18b2	-0.30878216
4	0x3d690306	0.05688765
5	0xbe3a2dd6	-0.18181548
6	0xbeb9119c	-0.36146247
7	0xba230198	-0.0006218194
8	0x3da66de1	0.081264265
9	0xbe649fa4	-0.22326523
10	0xbc1cad0c	-0.009562742
11	0xbd80bc27	-0.06285887
12	0xbebe1bfb	-0.37130722
13	0xbe014102	-0.12622455
14	0xbe894a5a	-0.26814538
15	0xbe8cb2bc	-0.27480114
16	0xbe25cb02	-0.16190723
17	0xbf4a7423	-0.7908346
18	0xbc90416c	-0.01760932
19	0xbe680948	-0.2265979
20	0xbc81aa02	-0.015828136
21	0x3cfa85f8	0.03058146
22	0xbe1d52c8	-0.1536361
23	0x3c98ce74	0.018653132
24	0xbdb805fa	-0.08985515
25	0xbe73e16c	-0.2381646
26	0xbf2e84f2	-0.6817161
27	0xbcddfd1e	-0.027098235
28	0xbe4eb42d	-0.20185919
29	0xbcc71afa	-0.024304856
30	0xbdfa1682	-0.12211324
31	0x3d5d5ad2	0.05404169
32	0x3d7afdc2	0.06127716
33	0xbea115a4	-0.31461823
34	0x3c570156	0.013122877
35	0xbf620bb3	-0.882991
36	0xbe92393c	-0.2855929
37	0xbeb7a974	-0.3587147
38	0x3bd09430	0.0063653216
39	0xbc6c7040	-0.014431059
40	0xbf56ccba	-0.8390614
41	0xbe6b57de	-0.22982737
42	0xbe9f07c1	-0.31060603
43	0xbe4ae1aa	-0.19812647
44	0x3dbce508	0.09223372
45	0x3c1afb34	0.009459306
46	0xbd9b0a62	-0.0757034
47	0xbe9678f5	-0.29389158
48	0x3cec1f70	0.028823584
49	0xbeaa37ec	-0.3324579
50	0xbc97a970	-0.018513411
51	0xbe12dc1a	-0.14341775
52	0x3cf88ca0	0.030340493
53	0x3d248e82	0.04017497
54	0xbe1c709a	-0.15277329
55	0xbd08dd51	-0.03341419
56	0x3db85538	0.09000629
57	0xbd47b991	-0.048760954
58	0x3d62fa26	0.05541434
59	0x3d39a5de	0.0453242
60	0xbd82838d	-0.063727476
61	0xbe899a1c	-0.2687539
62	0xbdd32498	-0.10309714
63	0xbe7ce81c	-0.24697918
64	0xbd36ff92	-0.044677325
65	0xbe9de16b	-0.30836043
66	0xbe0cd398	-0.13752592
67	0xbe30d89e	-0.17270133
68	0xbce280e6	-0.027649354
69	0x3c558c3c	0.013033923
70	0xbcdb7b1a	-0.026792098
71	0x3d8f04db	0.06983348
72	0x3df861d2	0.12128033
73	0xbe317a32	-0.1733177
74	0x3d603d06	0.054745696
75	0xbe2bc3de	-0.16773936
76	0xbcc8858c	-0.024477743
77	0x3c191518	0.009343408
78	0xbd92e618	-0.07172793
79	0xbe6f53ce	-0.23371813
80	0xbf3d228c	-0.7388084
81	0xbe98172e	-0.29705185
82	0xbe9353f3	-0.28774986
83	0xbf3be920	-0.73402596
84	0xbe13b14c	-0.14423102
85	0xbcd7e66e	-0.026354995
86	0x3e7b64e8	0.24550211
87	0xbea96bca	-0.3309005
88	0x3d0ab8a6	0.0338675
89	0x3cf896e0	0.03034538
90	0xbc797d28	-0.0152275935
91	0xbe62c352	-0.22144821
92	0x3e403a8e	0.18772337
93	0x3cc557dc	0.024089746
94	0xbe33269a	-0.17495194
95	0xbf644b7c	-0.8917768
96	0xbe5c4152	-0.21509293
97	0xbc7b1cf8	-0.015326731
98	0x3d836751	0.064161904
99	0x3da3a3e9	0.07990248
100	0x3c8ac620	0.016940176
101	0xbdbe82ab	-0.09302267
102	0xbe96f442	-0.2948323
103	0xbcabe320	-0.020982325
104	0xbea7775c	-0.3270825
105	0xbd9c2a86	-0.07625298
106	0xbde33d2a	-0.110956505
107	0xbd9b66e8	-0.07587987
108	0xbe2003ac	-0.156264
109	0xbdfbc7e9	-0.12293989
110	0x3ccf8f88	0.025336996
111	0xbdd62d90	-0.10457909
112	0x3db12f21	0.08651567
113	0xbf056d3e	-0.52119815
114	0xbe728205	-0.23682411
115	0xbd6f6f6e	-0.058455877
116	0xbe0b4b3e	-0.13602921
117	0xbec658f4	-0.3873974
118	0xbe5a0102	-0.21289447
119	0x3ccfb2f0	0.025353879
120	0xbd7e8f45	-0.06214835
121	0xbe9a1840	-0.30096626
122	0x3d977661	0.07395626
123	0x3c042606	0.008065706
124	0x3d7be1ce	0.06149464
125	0xbf4ad5d7	-0.79232544
126	0xbcf70973	-0.030155873
127	0xbdfd814c	-0.12378177
128	0xbdd401a2	-0.10351874
129	0xbe4dcf6e	-0.2009866
130	0xbe3269f8	-0.17423236
131	0xbe4a9141	-0.19781972
132	0xbdf865e3	-0.12128808
133	0xbe8f85b4	-0.28031695
134	0x3e3c2d20	0.18376589
135	0xbe0d2558	-0.13783777
136	0xbd0180bc	-0.03161691
137	0xb9e28fc7	-0.00043213202
138	0xbe0ba974	-0.1363886
139	0xbbfb8920	-0.0076762587
140	0xbe38dd92	-0.18053272
141	0xbe39e8ce	-0.18155214
142	0xbe365cb0	-0.17808795
143	0xbd7928e4	-0.060830012
144	0xbe3640ec	-0.17798203
145	0xbd024fcb	-0.031814378
146	0xbda90039	-0.082519956
147	0xbd023296	-0.031786524
148	0xbe8a451a	-0.27005845
149	0xbe4443b6	-0.19166455
150	0xbe883f92	-0.26611
151	0x3d0c1b34	0.03420563
152	0xbe420348	-0.18946564
153	0xbe12f676	-0.1435183
154	0xbe898c2f	-0.26864764
155	0xbe90ad82	-0.28257376
156	0xbde4a92a	-0.11165078
157	0xbdc76722	-0.09736468
158	0xbd5a53f8	-0.053302735
159	0x3e1d8720	0.15383577
160	0xbdeac195	-0.11462704
161	0xbe8c5658	-0.27409625
162	0xbe61efba	-0.22064105
163	0x3b9b5340	0.004740149
164	0xbe5a8020	-0.21337938
165	0xbe6484b6	-0.2231625
166	0x3d156858	0.036476463
167	0xbe5f5e8a	-0.21813408
168	0x3cfaf640	0.030635
169	0xbe03033e	-0.12794206
170	0xbde5e02c	-0.11224398
171	0xbd9d3742	-0.07676555
172	0xbe14ed74	-0.14543706
173	0xbe4d897a	-0.20071974
174	0xbe2cf4d8	-0.16890275
175	0xbe663b0c	-0.22483462
176	0xbdabdf80	-0.083922386
177	0xbe56209c	-0.20910877
178	0xbd21c9d1	-0.039499108
179	0xbe7a2ec6	-0.24431905
180	0xbe4a5440	-0.19758701
181	0x3da2702b	0.079315506
182	0xbd84a98f	-0.06477653
183	0x3d13d83c	0.03609489
184	0xbe2ba786	-0.16763124
185	0xbc8a3ef0	-0.016875714
186	0x3d5e44a2	0.054264672
187	0x3cab9b8c	0.020948194
188	0xbe10da0a	-0.14145675
189	0xbe00c854	-0.12576419
190	0xbe46bffe	-0.19409177
191	0x3d2114b8	0.0393264
192	0xbe2b17cb	-0.16708295
193	0xbe8727f2	-0.26397663
194	0xbe4de124	-0.20105416
195	0xbe8d3ed4	-0.27586997
196	0x3c07df20	0.008292943
197	0xbdf60da8	-0.120143235
198	0xbdadf33f	-0.08493661
199	0xbd884a3c	-0.06654784
200	0xbe23f838	-0.16012657
201	0xbdf74a02	-0.12074663
202	0xbc8132b4	-0.015771247
203	0xbdd3fe42	-0.1035123
204	0xbca9fe4c	-0.020751141
205	0xbc82c35c	-0.015962295
206	0x3d426722	0.047461636
207	0xbe929e86	-0.2863657
208	0xbd97553c	-0.07389304
209	0x3e97428e	0.29542965
210	0xbe02a8a4	-0.12759644
211	0xbe55d608	-0.20882428
212	0xbe085330	-0.13312984
213	0x3d694c82	0.05695773
214	0xbdc90d8e	-0.098170385
215	0xbe8216b0	-0.25407934
216	0xbe42f336	-0.1903809
217	0xbd201c76	-0.039089642
218	0x3c558280	0.013031602
219	0xbde305b6	-0.11085074
220	0xbe5ba6ac	-0.21450299
221	0x3cdbc208	0.02682592
222	0xbe88fa47	-0.26753446
223	0xbe3e0e96	-0.18560252
224	0xbdd9218e	-0.10602103
225	0xbc050e08	-0.008121021
226	0xbd665e21	-0.056242112
227	0xbe07002f	-0.13183664
228	0x3c67a028	0.014137305
229	0xbe121cbf	-0.14268778
230	0x3d84dd30	0.06487501
231	0xbb9eff70	-0.004852228
232	0x3caaeb9a	0.020864297
233	0xbe6429bc	-0.22281545
234	0xbdba3c0f	-0.090934865
235	0x3cc4a448	0.024004117
236	0xbe2c05f4	-0.16799146
237	0xbdec5143	-0.11538937
238	0xbe01d556	-0.12679037
239	0xbe2d2200	-0.16907501
240	0x3d67f516	0.056630217
241	0xbdd35404	-0.10318759
242	0xbd998ec8	-0.074979365
243	0x3d989d05	0.07451824
244	0xbe4cb73c	-0.19991773
245	0xbda7adae	-0.08187424
246	0xbd8c377a	-0.06846519
247	0xbcfea6c2	-0.031085376
248	0x3d65bfb6	0.056091033
249	0xbe84c1c8	-0.25929093
250	0xbb9888a0	-0.004654959
251	0xbe33e1ac	-0.17566556
252	0xbd4c426a	-0.049868025
253	0xbcded938	-0.027203187
254	0x3e2c2524	0.16811043
255	0xbe5b895b	-0.21439116

bias f4 [128]
0	0xbf5fd153	-0.8742878
1	0xbe3261fe	-0.17420194
2	0xbe7ffb9c	-0.24998325
3	0xbea75322	-0.32680613
4	0xbe819168	-0.2530625
5	0xbf55935d	-0.83427984
6	0xbf4b6730	-0.79454327
7	0xbde20a56	-0.11037128
8	0xbf1ddb5a	-0.6166283
9	0x3ce0017c	0.027344458
10	0xbe665b0d	-0.2249567
11	0xbf1985bc	-0.5996969
12	0xbed2f5a2	-0.41203028
13	0xbe7582e6	-0.23975715
14	0xbf211f10	-0.6293802
15	0xbe30efc6	-0.17278966
16	0xbdbd9550	-0.09256995
17	0xbe1441ae	-0.1447818
18	0xbed3289f	-0.4124193
19	0xbe7f543a	-0.24934474
20	0xbce80c71	-0.028326245
21	0x3ec26fff	0.3797607
22	0x3ff78166	1.9336364
23	0xbe93033e	-0.2871341
24	0xbe66b8ff	-0.22531508
25	0xbcd8f466	-0.026483726
26	0xbe801b0a	-0.2502063
27	0x3f1e63e6	0.6187118
28	0xbe1fe5f0	-0.15615058
29	0xbe63b16a	-0.22235647
30	0xbe5a5628	-0.21321929
31	0xbdd59ec8	-0.10430676
32	0xbe841107	-0.2579424
33	0xbebc0d3d	-0.3672885
34	0xbf0e56b6	-0.5560106
35	0xbe96c162	-0.29444414
36	0xbebb66f2	-0.3660198
37	0xbe750c1a	-0.23930398
38	0x3ceeaa43	0.029133921
39	0xbd9c9a44	-0.07646611
40	0xbfb0afcc	-1.3803649
41	0xbe60843c	-0.21925443
42	0xbe560734	-0.20901185
43	0xbe0b233e	-0.13587663
44	0xbdeb8390	-0.11499703
45	0xbf6f5e08	-0.93502855
46	0xbe82c5c6	-0.25541514
47	0xbdee2e21	-0.11629892
48	0xbe9abada	-0.3022068
49	0xbfcfa54e	-1.6222322
50	0xbe038490	-0.12843537
51	0xbe7ac984	-0.24490935
52	0xbe22e39e	-0.15907142
53	0xbed19ec4	-0.4094144
54	0xbe51c356	-0.20484671
55	0xbec7495a	-0.3892315
56	0xbdff6b42	-0.1247163
57	0xbedf9454	-0.43667853
58	0xbf495c82	-0.7865678
59	0xbe0bff32	-0.13671568
60	0xbdeef164	-0.11667135
61	0xbecc27a6	-0.39874
62	0xbeb794ce	-0.35855716
63	0xbf806092	-1.0029471
64	0xbde2fcfc	-0.11083409
65	0xbda5e1c4	-0.08099702
66	0xbf078ca6	-0.5294899
67	0xbd35d946	-0.04439666
68	0xbe66c258	-0.22535074
69	0xbd904a31	-0.07045401
70	0xbf809460	-1.004528
71	0xbe4741ba	-0.19458666
72	0xbe904054	-0.28174078
73	0x3f46f628	0.77719355
74	0xbdef72fa	-0.11691852
75	0xbe31aa30	-0.17350078
76	0xbea995a6	-0.33121985
77	0xbe823474	-0.25430644
78	0xbed19122	-0.4093104
79	0xbf1a5c78	-0.60297346
80	0xbf8a9ab2	-1.0828459
81	0xbf4ba505	-0.79548675
82	0xbf2cff5c	-0.6757715
83	0xbe109bae	-0.14121887
84	0xbe799990	-0.24374986
85	0xbd9eab08	-0.07747465
86	0xbe83f8da	-0.25775796
87	0x3e29c38a	0.16578498
88	0xbe89a022	-0.26879984
89	0xbe6bfac8	-0.23044884
90	0x3fc3b0b6	1.5288303
91	0xbdacbe38	-0.08434719
92	0xbf4e0aea	-0.80485404
93	0xbe08d7fe	-0.13363644
94	0xbe11b20c	-0.14228076
95	0xbf592b0e	-0.8483132
96	0xbe0799fe	-0.13242337
97	0xbd5e8358	-0.054324478
98	0x3dcffaa0	0.10155225
99	0xbd88a282	-0.06671621
100	0xbe56d2b4	-0.20978814
101	0xbefeb1d4	-0.49745047
102	0xbe86977b	-0.26287445
103	0xbe0420f6	-0.12903199
104	0xbdeabf60	-0.11462283
105	0xbdddc681	-0.10828877
106	0xbe328bfe	-0.17436215
107	0xbfa6bdaa	-1.3026631
108	0xbf19c759	-0.60069805
109	0xbeb40712	-0.35161644
110	0xbf65f6dc	-0.898298
111	0xbea136f6	-0.31487244
112	0xbf3f2674	-0.7466805
113	0xbe2a4fb0	-0.16631961
114	0xbe0ef63c	-0.13961118
115	0xbebd9c6c	-0.37033403
116	0x3e4762a9	0.1947123
117	0xbc44c57a	-0.012009973
118	0xbe91812a	-0.28418857
119	0xbff8a646	-1.9425743
120	0xbe1d319c	-0.15350956
121	0xbe06244e	-0.13099787
122	0xbe8b910e	-0.27259105
123	0xbdfa046c	-0.12207875
124	0xbf2e4f93	-0.6809017
125	0xbf6962de	-0.91166484
126	0xbd60c68b	-0.054876845
127	0x3e3b0d7e	0.18266866

weight f4 [128, 128]
0	0xbda7b9e4	-0.08189753
1	0xbd9467f5	-0.07246391
2	0xbe469fd0	-0.19396901
3	0x3da1fd86	0.07909684
4	0xbd9daf5b	-0.07699462
5	0x3d9d22c3	0.07672646
6	0x3e180460	0.14845419
7	0x3e18bc8a	0.14915672
8	0xbe7f191c	-0.24911922
9	0xbeb17480	-0.34659195
10	0x3e5e248c	0.21693629
11	0xbe695ac2	-0.22788528
12	0x3dce09f2	0.10060491
13	0x3e92137e	0.28530496
14	0x3cb27974	0.021786429
15	0x3d01c0fe	0.031678192
16	0x3e3552b6	0.17707333
17	0x3dc0c598	0.09412688
18	0xbe9e73b6	-0.30947655
19	0xbea4c77c	-0.32183444
20	0x3e3c093c	0.18362898
21	0xbebe136e	-0.371242
22	0xbef82ba8	-0.48470807
23	0xbe085898	-0.13315046
24	0x3ddc6eee	0.10763346
25	0xbef76252	-0.483172
26	0xbe7cd340	-0.2468996
27	0x3e0e01dc	0.13867897
28	0xbe5bd018	-0.214661
29	0x3e268dec	0.16265076
30	0xb9feab00	-0.0004857406
31	0x3e126926	0.14297923
32	0xbe719f08	-0.23595822
33	0xbdca812a	-0.09887917
34	0xbe7909ee	-0.24320194
35	0x3eb0b46c	0.3451265
36	0xbdc7281e	-0.097244486
37	0xbe0a7a80	-0.13523293
38	0xbec6bc82	-0.38815695
39	0xbd9d78b8	-0.07689041
40	0xbe308724	-0.17239052
41	0x3cb6ca18	0.022313163
42	0xbe5d14cc	-0.21589965
43	0x3e811e90	0.2521863
44	0xbd74f116	-0.05980023
45	0xbee5e29a	-0.44899446
46	0x3da0815d	0.07837174
47	0xbda6eedc	-0.081510276
48	0x3e85c4d6	0.26126736
49	0xbcc61a4f	-0.024182467
50	0xbe099fd9	-0.13439883
51	0xbd90209e	-0.07037471
52	0xbd2a8477	-0.041630235
53	0xbf250d08	-0.6447301
54	0x3d21cf2a	0.039504208
55	0x3cdfba64	0.027310558
56	0xbda9906c	-0.082794994
57	0x3c9d16cc	0.01917591
58	0xbdb3b6ca	-0.087750986
59	0x3e623562	0.22090676
60	0x3e2bf316	0.16791949
61	0xbdaa8482	-0.08326055
62	0xbe12ea7a	-0.14347258
63	0x3d913886	0.07090859
64	0x3e7b5a16	0.24546084
65	0xbebf6b74	-0.37386668
66	0xbea4d94c	-0.32197034
67	0xbeb68460	-0.3564787
68	0x3d898d6b	0.067164265
69	0xbe8450a8	-0.25842786
70	0xbe2d60bf	-0.16931437
71	0xbdb46756	-0.08808772
72	0x3c82fff0	0.015991181
73	0xbefecfd4	-0.49767935
74	0x3e43d7ce	0.19125292
75	0xbe7215d0	-0.23641133
76	0xbda2ebba	-0.079551175
77	0xbe81fd99	-0.25388792
78	0x3c494ea8	0.0122868195
79	0xbe76f696	-0.24117503
80	0x3c300475	0.01074325
81	0x3e344b10	0.17606759
82	0xbe8cc4bf	-0.27493855
83	0x3dafe659	0.08588857
84	0x3e04c78c	0.12966746
85	0xbe204994	-0.15653068
86	0x3d0ad23e	0.03389191
87	0x3d405406	0.04695513
88	0xbda495a6	-0.08036356
89	0xbd2b2c72	-0.041790433
90	0xbf004f1c	-0.5012071
91	0xbf0ee7fa	-0.5582272
92	0xbe67aab6	-0.22623715
93	0x3e252050	0.16125607
94	0xbe38c839	-0.18045129
95	0xbe7f54de	-0.24934718
96	0xbe064e62	-0.13115838
97	0xbe6bcaf6	-0.23026642
98	0xbde52c36	-0.11190073
99	0xbdfda3fb	-0.123847924
100	0xbe5ac0ca	-0.21362606
101	0xbf284dc4	-0.6574366
102	0xbe459bde	-0.1929774
103	0x3e8709dc	0.2637471
104	0x3da01ab4	0.07817593
105	0xbd34d81a	-0.044151403
106	0x3d9bc156	0.07605235
107	0x3d02da30	0.03194636
108	0xbdbf859c	-0.09351656
109	0xbe957882	-0.29193503
110	0xbe5e5a14	-0.2171405
111	0x3e8ea0b0	0.2785697
112	0xbd2a5b6b	-0.04159109
113	0xbde449a6	-0.1114686
114	0x3d545986	0.05184319
115	0xbee61618	-0.4493873
116	0xbdb9b010	-0.090667844
117	0xbf0acc3e	-0.542179
118	0xbcbb959a	-0.022898484
119	0xbd53bef2	-0.05169577
120	0xbe7c802e	-0.24658272
121	0xbe61ea8f	-0.22062133
122	0x3d3db462	0.046314605
123	0xbe4e47a0	-0.2014451
124	0x3e2b283c	0.16714567
125	0xbe368004	-0.17822272
126	0x3db0567f	0.08610248
127	0x3d37ff52	0.044921227
128	0xbd873178	-0.06601232
129	0xbd72c258	-0.059267372
130	0x3d9ae2b9	0.07562775
131	0x3db5dce2	0.08880021
132	0x3ebfa1de	0.37428182
133	0x3d9ca575	0.07648746
134	0xbdaf0a40	-0.08546877
135	0xbd205096	-0.039139353
136	0x3d68694e	0.05674105
137	0xbe847924	-0.25873673
138	0xbcf975c6	-0.030451667
139	0x3d3291ee	0.0435962
140	0x3d414f36	0.047194682
141	0xbe1cbfc2	-0.15307525
142	0x3daa9317	0.083288364
143	0x3d9b475f	0.07581972
144	0xbca4b160	-0.02010411
145	0xbd89f382	-0.067358986
146	0x3cd930b8	0.026512489
147	0xbe4ecb06	-0.20194635
148	0x3d862ebb	0.06551882
149	0xbe761738	-0.24032295
150	0xbe2ceb3c	-0.1688661
151	0xbda4ba0f	-0.080433
152	0xbd4abb95	-0.0494953
153	0xbe351850	-0.17685056
154	0xbda8c625	-0.08240918
155	0xbe56a67e	-0.20961949
156	0xbd8fbb36	-0.070181295
157	0x3bd68e30	0.006547712
158	0x3d880b03	0.06642725
159	0xbd4748df	-0.04865348
160	0x3da5d8ad	0.08097968
161	0x3d82933d	0.0637574
162	0xbe9a5214	-0.30140746
163	0x3da6f54b	0.08152255
164	0x3d45b9fe	0.04827308
165	0x3cad0d8c	0.021124624
166	0xbe8859f0	-0.26631117
167	0xbcfc9616	-0.030833285
168	0xbe04870a	-0.12942138
169	0xbdac5e04	-0.084163696
170	0xbc575a48	-0.013144083
171	0xbdef1c3e	-0.11675309
172	0x3cdae794	0.026721753
173	0xbcc155b8	-0.023600444
174	0x3da3aa87	0.0799151
175	0x3cbf1c8c	0.023329042
176	0xbe872498	-0.26395106
177	0x3cb6c838	0.022312269
178	0xbd2fd6e4	-0.042929545
179	0xbd788a7e	-0.06067895
180	0xbd7856a8	-0.060629517
181	0xbe6ea45c	-0.23304886
182	0x3d6dfe5a	0.058103897
183	0x3caddcf4	0.021223523
184	0xbc93b8e4	-0.018032499
185	0xbdab9084	-0.083771735
186	0x3d9a8857	0.07545536
187	0xbbc13d30	-0.0058971867
188	0x3dad376b	0.08457836
189	0x3cbc61fc	0.022995941
190	0x3e7cb838	0.24679649
191	0xbe637967	-0.2221428
192	0x3cd1b4f0	0.025598973
193	0xbe84d69a	-0.25944978
194	0xbe8e2188	-0.27759957
195	0xbe85beb5	-0.2612206
196	0x3e7a7f2b	0.24462573
197	0xbe6f4a65	-0.23368223
198	0xbd9c2174	-0.07623568
199	0x3c272a88	0.010203011
200	0xbdedeb35	-0.11617128
201	0xbe5af378	-0.21381938
202	0x3da48625	0.080333985
203	0x3d58417a	0.05279682
204	0xbe3cd164	-0.18439251
205	0xbd855d37	-0.0651192
206	0xbd2bf67d	-0.041983116
207	0xbc290e38	-0.010318331
208	0xbd67a9be	-0.056558363
209	0x3c970e9c	0.018439583
210	0xbd8fbc20	-0.07018304
211	0xbd86f00b	-0.06588753
212	0x3cd1ed04	0.025625713
213	0x3d7639de	0.06011378
214	0xbdb0377d	-0.086043335
215	0xbe6a1dc7	-0.22862922
216	0xbd8652d7	-0.06558769
217	0x3e9d8052	0.30761963
218	0xbe77e632	-0.24208906
219	0xbe531688	-0.20614064
220	0xbc114b20	-0.008868009
221	0x3d0d114a	0.034440316
222	0xbd13f71d	-0.036124337
223	0x3ceb4642	0.028720025
224	0xbdad4c62	-0.084618345
225	0xbd9e8d78	-0.07741827
226	0xbe5a3742	-0.21310142
227	0xbc152990	-0.009104148
228	0x3bd61930	0.0065337643
229	0xbe6958e2	-0.22787812
230	0x3d48ad82	0.048993595
231	0xbcac1eb4	-0.021010734
232	0xbe5f2626	-0.21791896
233	0xbce81a40	-0.02833283
234	0xbd95e838	-0.07319683
235	0xbc40a378	-0.011757724
236	0xbe588464	-0.21144253
237	0xbeaa6a57	-0.33284256
238	0xbc442e70	-0.011973962
239	0xbd0473a6	-0.032336853
240	0x3d7c3a82	0.061579235
241	0x3d7e7c06	0.062129997
242	0xbe12240b	-0.14271562
243	0xbebd4458	-0.36966205
244	0xbe203b8e	-0.15647718
245	0xbe261212	-0.16217831
246	0xbe87f170	-0.2655139
247	0xbc415440	-0.011799872
248	0x3dfc58ea	0.123216465
249	0x3daa363f	0.08311128
250	0xbdde205f	-0.10846018
251	0x3c5e6230	0.013573214
252	0x3d7b7d86	0.061399005
253	0xbcb6e524	-0.02232606
254	0xbdfa2e89	-0.12215907
255	0xbe7ffd08	-0.24998868

bias f4 [128]
0	0xbf0c8529	-0.54890686
1	0xbe2ba28c	-0.16761225
2	0xbe7b2bf8	-0.24528491
3	0xbf21521c	-0.63015914
4	0xbf3ed3a2	-0.74541676
5	0xbe8a70f2	-0.27039295
6	0x3f714f60	0.9426174
7	0xbf830ab8	-1.0237646
8	0xbf71a71b	-0.9439561
9	0xbf1c4d52	-0.6105548
10	0xbf47955c	-0.7796228
11	0x4015f314	2.3429613
12	0xbe73d186	-0.23810396
13	0xbea7fd58	-0.32810473
14	0xbebd5daa	-0.36985523
15	0x3ff8f512	1.944979
16	0x4036fdd6	2.859243
17	0x40159664	2.337304
18	0xbecba72c	-0.3977598
19	0x3f5cef86	0.86302984
20	0xbe896750	-0.26836634
21	0x401519ee	2.3297076
22	0x4026de4e	2.6073184
23	0xbd90fe46	-0.07079749
24	0xbe698fdd	-0.22808786
25	0xbf4513c9	-0.76983315
26	0xbdd3573b	-0.10319372
27	0xbe648248	-0.22315323
28	0xbf687268	-0.9079957
29	0xbf088008	-0.5332036
30	0xbead3ea3	-0.3383685
31	0xbe85b7c8	-0.26116776
32	0xbf074703	-0.5284273
33	0xbe9f8a22	-0.31160074
34	0xbe2f7778	-0.17135417
35	0xbe8ca48c	-0.2746929
36	0xbecdda36	-0.40205544
37	0xbf06d498	-0.5266814
38	0x3fccac06	1.5989997
39	0xbe9213c0	-0.28530693
40	0x400f90ae	2.2432055
41	0xbe549969	-0.20761646
42	0xbe8aaee8	-0.27086568
43	0x3f511779	0.8167644
44	0x3fc37581	1.5270234
45	0x3fb3036d	1.398542
46	0xbf8a0a24	-1.0784345
47	0x3f5798d5	0.8421758
48	0x4019b873	2.401883
49	0xbe627ade	-0.22117183
50	0xbd990458	-0.07471532
51	0xbf4f53ae	-0.8098706
52	0x3ff6a4ce	1.9269044
53	0xbee888a2	-0.45416743
54	0xbe695028	-0.22784483
55	0xbf87c3a0	-1.0606575
56	0xbe973bda	-0.2953785
57	0x3fd47a26	1.6599777
58	0x401cc552	2.4495435
59	0x4026d57e	2.6067805
60	0xbe44f273	-0.19233112
61	0xbe1d5309	-0.15363707
62	0xbe12bdf8	-0.1433028
63	0x3fe0ead8	1.7571669
64	0xbf6df759	-0.9295555
65	0x3f60b452	0.87775147
66	0xbed8f3a0	-0.4237337
67	0xbe41c8a0	-0.18924189
68	0xbf000743	-0.5001108
69	0xbe099944	-0.13437372
70	0xbea6d9b0	-0.32587957
71	0xbe00d914	-0.12582809
72	0xbe50e53c	-0.20399946
73	0xbe197b3e	-0.1498842
74	0x3fb011d8	1.3755445
75	0xbe9d9009	-0.30773953
76	0xbecc5764	-0.39910424
77	0xbe7ab614	-0.2448352
78	0xbe2dcee5	-0.16973455
79	0xbf7dddf1	-0.9916678
80	0x40273542	2.6126256
81	0xbf3381f6	-0.7012018
82	0xbda3095a	-0.07960768
83	0xbf5f01d9	-0.87112194
84	0x3eed1524	0.46305192
85	0x400c4099	2.1914427
86	0x3f3a29ef	0.72720236
87	0xbe17a68b	-0.14809625
88	0xbee377d4	-0.4442736
89	0x3fbdf57a	1.4840539
90	0xbdc333ca	-0.09531362
91	0xbd252489	-0.040318046
92	0xbee0a0ce	-0.43872684
93	0xbe66606e	-0.22497723
94	0x3e57456c	0.21022576
95	0xbf79ca91	-0.97574717
96	0xbef824c8	-0.48465562
97	0xbe0f69de	-0.14005229
98	0xbea380b8	-0.31934142
99	0xbea40fad	-0.3204321
100	0xbe9a7964	-0.3017074
101	0x4034e484	2.8264475
102	0xbec677e4	-0.38763344
103	0x401cf106	2.452211
104	0xbeb9f5e6	-0.36320418
105	0x3f9e1db0	1.235281
106	0x3ee248e2	0.4419623
107	0xbec069c7	-0.37580702
108	0xbe84c1fe	-0.25929254
109	0xbf23d8b2	-0.64002526
110	0x3fe74d74	1.8070512
111	0xbe48ff88	-0.19628727
112	0xbefa881a	-0.48931962
113	0x3fa21282	1.2661898
114	0xbda9aff5	-0.08285514
115	0x4002f659	2.0462859
116	0xbec2d4da	-0.38053018
117	0x402cf424	2.7024012
118	0xbe8bfc86	-0.27341098
119	0x3ff15b74	1.8856034
120	0xbefa68a6	-0.48907965
121	0xbea1b41a	-0.3158272
122	0xbe245596	-0.16048273
123	0x3fce72b8	1.6128759
124	0x3f4d204d	0.8012741
125	0xbf201bda	-0.625425
126	0xbe782290	-0.24231935
127	0xbe51acba	-0.20476046

weight f4 [2, 128]
0	0xbd6b966c	-0.0575165
1	0x3d29b5e9	0.04143325
2	0xbd45dd8d	-0.04830699
3	0xbec61408	-0.38687158
4	0x3f14aa14	0.5807202
5	0xbd62c45c	-0.055363044
6	0xbe0027fe	-0.12515256
7	0xbe748164	-0.23877484
8	0x3dbb11d8	0.09134263
9	0xbe8d8a32	-0.27644497
10	0x3e82cc9c	0.2554673
11	0x3f7a2d2b	0.9772517
12	0xbde6ce22	-0.112697855
13	0xbec1f4da	-0.3788212
14	0x3db2152a	0.08695443
15	0xbf06adb6	-0.5260881
16	0x3f64f8bc	0.8944204
17	0x3d9953aa	0.07486661
18	0x3cfacaa4	0.030614205
19	0xbd43d950	-0.047814667
20	0x3e354da4	0.17705399
21	0x3e4c865c	0.19973129
22	0x3f27610c	0.65382457
23	0xbd35641e	-0.044284932
24	0x3cb5734e	0.022149708
25	0xbf3d9388	-0.7405324
26	0x3dac58c4	0.08415368
27	0xbd4eac56	-0.05045732
28	0x3e0fbcba	0.14036837
29	0xbd237a34	-0.039911464
30	0xbdc13344	-0.09433606
31	0xbacef5d0	-0.001578981
32	0xbd1ab2da	-0.037768222
33	0x3d072992	0.03299863
34	0xbd8b16e6	-0.06791477
35	0xbd80e952	-0.06294502
36	0x3d0f908f	0.03504997
37	0x3df79b4c	0.120901674
38	0x3f6accde	0.9171885
39	0x3c8d4bca	0.017248053
40	0x3f6f99b1	0.9359389
41	0x3dc88f92	0.09793009
42	0x3d6aaeae	0.057295494
43	0xbe941d4b	-0.289286
44	0x3f7aab4a	0.97917616
45	0x3f0f80ba	0.56055796
46	0xbe43f178	-0.19135082
47	0xbea61f04	-0.32445538
48	0x3f8f5bea	1.1199925
49	0x3ea3e1a6	0.32008094
50	0x3dc3ba82	0.09557058
51	0x3d11196e	0.035424642
52	0xbeb8c658	-0.36088824
53	0xbe51c664	-0.20485836
54	0x3db49da4	0.0881913
55	0xbd957418	-0.07297534
56	0xbd3a9970	-0.045556486
57	0xbe7597fe	-0.23983762
58	0x3f6e7b16	0.93156564
59	0x3f90193c	1.1257701
60	0x3bb868a2	0.0056277076
61	0xbda11ef6	-0.078672335
62	0x3df7c302	0.12097742
63	0xbe650c67	-0.22368012
64	0xbf1ade0c	-0.60495067
65	0xbe54849e	-0.20753714
66	0xbd3f182e	-0.04665392
67	0xbba7f440	-0.0051255524
68	0xbdb9b72e	-0.09068142
69	0xbde0fb52	-0.109854355
70	0xbdf764c2	-0.12079765
71	0xbddd001e	-0.10791038
72	0x3e59335b	0.21210997
73	0x3d8b536a	0.06803019
74	0xbe211d0f	-0.15733741
75	0xbe41a99c	-0.18912357
76	0xbd58db64	-0.052943602
77	0x3e381721	0.17977573
78	0xbf24fefc	-0.64451575
79	0x3e92163e	0.28532594
80	0x3f62b2fa	0.88554347
81	0x3eae2e02	0.34019476
82	0x3d6d7ebc	0.05798219
83	0x3ea3044e	0.31839222
84	0xbe1e7d94	-0.15477592
85	0x3ee79b47	0.45235655
86	0xbe05385e	-0.13009784
87	0x3d02d302	0.031939514
88	0xbd3f4266	-0.04669418
89	0xbf95021e	-1.1641271
90	0x3d4acec6	0.0495136
91	0xbd076a7f	-0.033060547
92	0xbd6d94a2	-0.058003075
93	0xbe063e14	-0.13109618
94	0xbd2411fe	-0.04005622
95	0x3e9fd606	0.31217974
96	0xbf3ee22e	-0.7456387
97	0xbc7d5b6d	-0.015463692
98	0xbd7ea7d4	-0.062171772
99	0x3c7065c6	0.014672702
100	0xbe161ff0	-0.1466062
101	0x3f5da9b9	0.865871
102	0xbf012c4d	-0.5045822
103	0x3f391fa5	0.7231391
104	0xbe97f4c6	-0.29678935
105	0xbd928b74	-0.07155505
106	0xbd1f1350	-0.038836777
107	0x3d383883	0.04497577
108	0xbd80e660	-0.062939405
109	0xbf4c5f0e	-0.7983254
110	0x3f1af086	0.6052326
111	0xbdccc269	-0.09998018
112	0xbdbd6a86	-0.09248833
113	0xbda3e426	-0.080025
114	0xbdceee7a	-0.101040795
115	0xbee9cefd	-0.45665732
116	0xbc2144ae	-0.009843035
117	0x3f4f5514	0.80989194
118	0x3d7b76d6	0.061392628
119	0xbeae2f62	-0.34020525
120	0x3e41cf88	0.18926823
121	0xbcaa3396	-0.020776551
122	0xbdf74836	-0.1207432
123	0xbde59039	-0.11209149
124	0xbef3c358	-0.47609973
125	0xbd9184da	-0.071054175
126	0xbe035dda	-0.1282877
127	0xbdcbda14	-0.099537045
128	0xbbdac5f4	-0.00667643
129	0xbd16cc12	-0.03681571
130	0x3e21890a	0.15774933
131	0x3e48c556	0.19606528
132	0x3e1613f7	0.14656053
133	0x3d1a00a6	0.037598275
134	0xbe622ae4	-0.22086674
135	0xbeeee9b1	-0.46662667
136	0x3c29a7c6	0.010354942
137	0xbeb1b962	-0.34711748
138	0x3f1237f6	0.5711664
139	0x3ee04ba1	0.438077
140	0x3d4bf9c7	0.049798753
141	0xbe736b24	-0.2377134
142	0x3e140122	0.14453557
143	0xbe6b30d7	-0.2296785
144	0x3f8dc3a2	1.1075327
145	0x3fa29e22	1.2704508
146	0x3d18e02e	0.03732317
147	0xbe9099f2	-0.2824245
148	0x3dc17f6b	0.09448131
149	0x3f8cd476	1.1002338
150	0x3f7d9352	0.9905292
151	0xbd4741d8	-0.048646778
152	0xbaf73cee	-0.0018862763
153	0x3db3cde3	0.08779504
154	0xbe848d14	-0.25888884
155	0x3d1211ea	0.035661615
156	0x3d0613a9	0.032733593
157	0x3e4927b8	0.19644058
158	0xbd61980c	-0.055076644
159	0x3d54bbf2	0.05193705
160	0x3d95c253	0.07312455
161	0x3d180f0c	0.037123725
162	0x3d79b6d8	0.06096539
163	0x3df94cd4	0.12172857
164	0xbb663f17	-0.003513282
165	0xbe82e885	-0.25568023
166	0xbd6660cc	-0.056244656
167	0x3cd7d524	0.02634675
168	0x3ea040ce	0.31299442
169	0x3dac15d8	0.08402604
170	0x3db6e3f4	0.08930197
171	0xbe971346	-0.29506892
172	0xbeb0bf32	-0.3452087
173	0xbda2bded	-0.07946382
174	0x3d3388d8	0.043831676
175	0xbe86c9a9	-0.2632573
176	0x3e96414d	0.29346696
177	0x3e2f3354	0.17109424
178	0x3c28892c	0.010286611
179	0xbd390894	-0.045174196
180	0xbf239cfa	-0.639114
181	0x3d19b274	0.0375237
182	0x3e13b274	0.14423543
183	0xbe934086	-0.28760165
184	0x3ae26ac0	0.0017274246
185	0xbf0294fa	-0.5100857
186	0x3f3ccc3a	0.73749125
187	0x3f252009	0.64502007
188	0x3c7760ac	0.015098732
189	0x3dda4a94	0.10658756
190	0x3e0206b4	0.1269787
191	0x3f64f46b	0.8943545
192	0xbed6a450	-0.41922235
193	0xbda4ed28	-0.080530465
194	0xbee83ec0	-0.45360374
195	0x3d06ac95	0.03287943
196	0x3d57386b	0.05254404
197	0xbe905869	-0.28192452
198	0x3ec47dc4	0.38377202
199	0xbe0eb7d3	-0.13937311
200	0xbdfc2200	-0.123111725
201	0xbd6b8b90	-0.057506144
202	0xbe553dd0	-0.20824361
203	0x3c331adb	0.010931696
204	0xbe17f3aa	-0.14839044
205	0xbd9d71f4	-0.076877505
206	0xbead85ec	-0.33891237
207	0xbe09ca91	-0.13456179
208	0x3f7a3943	0.97743624
209	0x3df87a74	0.12132731
210	0x3dcc56fe	0.0997753
211	0xbe908a46	-0.28230494
212	0xbe0d55bf	-0.13802241
213	0x3f416650	0.7554674
214	0x3e6f1914	0.2334941
215	0xbe3c9d01	-0.18419267
216	0xbdfb99f5	-0.12285224
217	0x3e459e87	0.19298755
218	0x3b95f1c4	0.00457594
219	0x3c91f0a0	0.017814934
220	0x3d82534a	0.063635424
221	0xbe30d664	-0.17269284
222	0x3d1c50b8	0.038162917
223	0xbe9b8f28	-0.30382657
224	0xbf6546f6	-0.895614
225	0x3b2f6e14	0.0026768493
226	0x3e94bdd6	0.29051083
227	0xbcf49110	-0.029854327
228	0x3d7087f6	0.058723412
229	0x3f93fc98	1.156146
230	0x3d04f0cc	0.032456204
231	0x3f4e9b2e	0.80705535
232	0x3e17dee6	0.14831123
233	0xbebda40a	-0.37039214
234	0xbe0427ca	-0.12905803
235	0xbd5cc81a	-0.05390177
236	0x3bc7d86a	0.0060987966
237	0xbd68f85c	-0.05687748
238	0x3dede8a9	0.11616642
239	0x3dcfc8dc	0.10145733
240	0x3ee0ae0b	0.43882784
241	0x3ecaf896	0.3964278
242	0xbd4d9b25	-0.050196785
243	0xbf423ba6	-0.75872266
244	0x3cc8f420	0.02453047
245	0x3f8d0c06	1.1019294
246	0x3e00450a	0.12526336
247	0xbea7f06c	-0.32800615
248	0xbebae26e	-0.36500877
249	0x3e076ff0	0.13226295
250	0xbde930b6	-0.11386244
251	0xbe83bba0	-0.25729084
252	0x3ebf51a0	0.37366962
253	0x3e5a4eee	0.21319172
254	0xbdf26775	-0.11836139
255	0xbe25f298	-0.16205823

bias f4 [2]
0	0x3fcedd36	1.6161258
1	0x3fb064ba	1.3780739
